<?xml version="1.0"?>
<net name="gmcnn-places2-tf" version="11">
	<layers>
		<layer id="1" name="Placeholder" type="Parameter" version="opset1">
			<data shape="1,512,680,3" element_type="f32" />
			<rt_info>
				<attribute name="old_api_map_order" version="0" value="0, 2, 3, 1" />
			</rt_info>
			<output>
				<port id="0" precision="FP32" names="Placeholder,Placeholder:0">
					<dim>1</dim>
					<dim>512</dim>
					<dim>680</dim>
					<dim>3</dim>
					<rt_info>
						<attribute name="layout" version="0" layout="[N,H,W,C]" />
					</rt_info>
				</port>
			</output>
		</layer>
		<layer id="0" name="Placeholder_1" type="Parameter" version="opset1">
			<data shape="1,512,680,1" element_type="f32" />
			<rt_info>
				<attribute name="old_api_map_order" version="0" value="0, 2, 3, 1" />
			</rt_info>
			<output>
				<port id="0" precision="FP32" names="Placeholder_1,Placeholder_1:0">
					<dim>1</dim>
					<dim>512</dim>
					<dim>680</dim>
					<dim>1</dim>
					<rt_info>
						<attribute name="layout" version="0" layout="[N,H,W,C]" />
					</rt_info>
				</port>
			</output>
		</layer>
		<layer id="2" name="Placeholder/Transpose([0 3 1 2])/value971713961" type="Const" version="opset1">
			<data element_type="i64" shape="4" offset="0" size="32" />
			<output>
				<port id="0" precision="I64">
					<dim>4</dim>
				</port>
			</output>
		</layer>
		<layer id="3" name="Placeholder/Transpose([0 3 1 2])" type="Transpose" version="opset1">
			<input>
				<port id="0" precision="FP32">
					<dim>1</dim>
					<dim>512</dim>
					<dim>680</dim>
					<dim>3</dim>
				</port>
				<port id="1" precision="I64">
					<dim>4</dim>
				</port>
			</input>
			<output>
				<port id="2" precision="FP32">
					<dim>1</dim>
					<dim>3</dim>
					<dim>512</dim>
					<dim>680</dim>
				</port>
			</output>
		</layer>
		<layer id="4" name="truediv/y" type="Const" version="opset1">
			<data element_type="f32" shape="1, 1, 1, 1" offset="32" size="4" />
			<output>
				<port id="0" precision="FP32" names="truediv/y:0">
					<dim>1</dim>
					<dim>1</dim>
					<dim>1</dim>
					<dim>1</dim>
				</port>
			</output>
		</layer>
		<layer id="5" name="truediv" type="Multiply" version="opset1">
			<data auto_broadcast="numpy" />
			<input>
				<port id="0" precision="FP32">
					<dim>1</dim>
					<dim>3</dim>
					<dim>512</dim>
					<dim>680</dim>
				</port>
				<port id="1" precision="FP32">
					<dim>1</dim>
					<dim>1</dim>
					<dim>1</dim>
					<dim>1</dim>
				</port>
			</input>
			<output>
				<port id="2" precision="FP32" names="truediv:0">
					<dim>1</dim>
					<dim>3</dim>
					<dim>512</dim>
					<dim>680</dim>
				</port>
			</output>
		</layer>
		<layer id="6" name="sub/y" type="Const" version="opset1">
			<data element_type="f32" shape="1, 1, 1, 1" offset="36" size="4" />
			<output>
				<port id="0" precision="FP32" names="sub/y:0">
					<dim>1</dim>
					<dim>1</dim>
					<dim>1</dim>
					<dim>1</dim>
				</port>
			</output>
		</layer>
		<layer id="7" name="sub" type="Add" version="opset1">
			<data auto_broadcast="numpy" />
			<input>
				<port id="0" precision="FP32">
					<dim>1</dim>
					<dim>3</dim>
					<dim>512</dim>
					<dim>680</dim>
				</port>
				<port id="1" precision="FP32">
					<dim>1</dim>
					<dim>1</dim>
					<dim>1</dim>
					<dim>1</dim>
				</port>
			</input>
			<output>
				<port id="2" precision="FP32" names="sub:0">
					<dim>1</dim>
					<dim>3</dim>
					<dim>512</dim>
					<dim>680</dim>
				</port>
			</output>
		</layer>
		<layer id="8" name="sub_1/x" type="Const" version="opset1">
			<data element_type="f32" shape="1, 1, 1, 1" offset="40" size="4" />
			<output>
				<port id="0" precision="FP32" names="sub_1/x:0">
					<dim>1</dim>
					<dim>1</dim>
					<dim>1</dim>
					<dim>1</dim>
				</port>
			</output>
		</layer>
		<layer id="9" name="Placeholder_1/Transpose([0 3 1 2])/value972114153" type="Const" version="opset1">
			<data element_type="i64" shape="4" offset="0" size="32" />
			<output>
				<port id="0" precision="I64">
					<dim>4</dim>
				</port>
			</output>
		</layer>
		<layer id="10" name="Placeholder_1/Transpose([0 3 1 2])" type="Transpose" version="opset1">
			<input>
				<port id="0" precision="FP32">
					<dim>1</dim>
					<dim>512</dim>
					<dim>680</dim>
					<dim>1</dim>
				</port>
				<port id="1" precision="I64">
					<dim>4</dim>
				</port>
			</input>
			<output>
				<port id="2" precision="FP32">
					<dim>1</dim>
					<dim>1</dim>
					<dim>512</dim>
					<dim>680</dim>
				</port>
			</output>
		</layer>
		<layer id="11" name="sub_1" type="Subtract" version="opset1">
			<data auto_broadcast="numpy" />
			<input>
				<port id="0" precision="FP32">
					<dim>1</dim>
					<dim>1</dim>
					<dim>1</dim>
					<dim>1</dim>
				</port>
				<port id="1" precision="FP32">
					<dim>1</dim>
					<dim>1</dim>
					<dim>512</dim>
					<dim>680</dim>
				</port>
			</input>
			<output>
				<port id="2" precision="FP32" names="sub_1:0">
					<dim>1</dim>
					<dim>1</dim>
					<dim>512</dim>
					<dim>680</dim>
				</port>
			</output>
		</layer>
		<layer id="12" name="mul" type="Multiply" version="opset1">
			<data auto_broadcast="numpy" />
			<input>
				<port id="0" precision="FP32">
					<dim>1</dim>
					<dim>3</dim>
					<dim>512</dim>
					<dim>680</dim>
				</port>
				<port id="1" precision="FP32">
					<dim>1</dim>
					<dim>1</dim>
					<dim>512</dim>
					<dim>680</dim>
				</port>
			</input>
			<output>
				<port id="2" precision="FP32" names="mul:0">
					<dim>1</dim>
					<dim>3</dim>
					<dim>512</dim>
					<dim>680</dim>
				</port>
			</output>
		</layer>
		<layer id="13" name="ones_like/Const" type="Const" version="opset1">
			<data element_type="f32" shape="" offset="40" size="4" />
			<output>
				<port id="0" precision="FP32" names="ones_like/Const:0" />
			</output>
		</layer>
		<layer id="14" name="ones_like/Shape" type="ShapeOf" version="opset3">
			<data output_type="i32" />
			<input>
				<port id="0" precision="FP32">
					<dim>1</dim>
					<dim>3</dim>
					<dim>512</dim>
					<dim>680</dim>
				</port>
			</input>
			<output>
				<port id="1" precision="I32">
					<dim>4</dim>
				</port>
			</output>
		</layer>
		<layer id="15" name="ones_like/Shape/GatherNCHWtoNHWC_input_port_1/value952514252" type="Const" version="opset1">
			<data element_type="i32" shape="4" offset="44" size="16" />
			<output>
				<port id="0" precision="I32">
					<dim>4</dim>
				</port>
			</output>
		</layer>
		<layer id="16" name="ones_like/Shape/GatherNCHWtoNHWC_input_port_2/value952714165" type="Const" version="opset1">
			<data element_type="i64" shape="" offset="60" size="8" />
			<output>
				<port id="0" precision="I64" />
			</output>
		</layer>
		<layer id="17" name="ones_like/Shape/GatherNCHWtoNHWC" type="Gather" version="opset8">
			<data batch_dims="0" />
			<input>
				<port id="0" precision="I32">
					<dim>4</dim>
				</port>
				<port id="1" precision="I32">
					<dim>4</dim>
				</port>
				<port id="2" precision="I64" />
			</input>
			<output>
				<port id="3" precision="I32">
					<dim>4</dim>
				</port>
			</output>
		</layer>
		<layer id="18" name="ones_like/Broadcast/Cast_1" type="Convert" version="opset1">
			<data destination_type="i64" />
			<input>
				<port id="0" precision="I32">
					<dim>4</dim>
				</port>
			</input>
			<output>
				<port id="1" precision="I64" names="ones_like/Shape:0">
					<dim>4</dim>
				</port>
			</output>
		</layer>
		<layer id="19" name="ones_like/Broadcast" type="Broadcast" version="opset3">
			<data mode="numpy" />
			<input>
				<port id="0" precision="FP32" />
				<port id="1" precision="I64">
					<dim>4</dim>
				</port>
			</input>
			<output>
				<port id="2" precision="FP32" names="ones_like:0">
					<dim>1</dim>
					<dim>512</dim>
					<dim>680</dim>
					<dim>3</dim>
				</port>
			</output>
		</layer>
		<layer id="20" name="strided_slice/stack" type="Const" version="opset1">
			<data element_type="i64" shape="4" offset="68" size="32" />
			<output>
				<port id="0" precision="I64" names="strided_slice/stack:0">
					<dim>4</dim>
				</port>
			</output>
		</layer>
		<layer id="21" name="strided_slice/stack_1" type="Const" version="opset1">
			<data element_type="i64" shape="4" offset="100" size="32" />
			<output>
				<port id="0" precision="I64" names="strided_slice/stack_1:0">
					<dim>4</dim>
				</port>
			</output>
		</layer>
		<layer id="22" name="strided_slice/stack_2" type="Const" version="opset1">
			<data element_type="i64" shape="4" offset="132" size="32" />
			<output>
				<port id="0" precision="I64" names="strided_slice/stack_2:0">
					<dim>4</dim>
				</port>
			</output>
		</layer>
		<layer id="23" name="strided_slice" type="StridedSlice" version="opset1">
			<data begin_mask="1, 1, 1, 0" end_mask="1, 1, 1, 0" new_axis_mask="0, 0, 0, 0" shrink_axis_mask="0, 0, 0, 0" ellipsis_mask="0, 0, 0, 0" />
			<input>
				<port id="0" precision="FP32">
					<dim>1</dim>
					<dim>512</dim>
					<dim>680</dim>
					<dim>3</dim>
				</port>
				<port id="1" precision="I64">
					<dim>4</dim>
				</port>
				<port id="2" precision="I64">
					<dim>4</dim>
				</port>
				<port id="3" precision="I64">
					<dim>4</dim>
				</port>
			</input>
			<output>
				<port id="4" precision="FP32">
					<dim>1</dim>
					<dim>512</dim>
					<dim>680</dim>
					<dim>1</dim>
				</port>
			</output>
		</layer>
		<layer id="24" name="994413895" type="Const" version="opset1">
			<data element_type="i64" shape="4" offset="0" size="32" />
			<output>
				<port id="0" precision="I64">
					<dim>4</dim>
				</port>
			</output>
		</layer>
		<layer id="25" name="concat/TransposeNHWCtoNCHW" type="Transpose" version="opset1">
			<input>
				<port id="0" precision="FP32">
					<dim>1</dim>
					<dim>512</dim>
					<dim>680</dim>
					<dim>1</dim>
				</port>
				<port id="1" precision="I64">
					<dim>4</dim>
				</port>
			</input>
			<output>
				<port id="2" precision="FP32" names="strided_slice:0">
					<dim>1</dim>
					<dim>1</dim>
					<dim>512</dim>
					<dim>680</dim>
				</port>
			</output>
		</layer>
		<layer id="26" name="995614042" type="Const" version="opset1">
			<data element_type="i64" shape="4" offset="0" size="32" />
			<output>
				<port id="0" precision="I64">
					<dim>4</dim>
				</port>
			</output>
		</layer>
		<layer id="27" name="mul_1/TransposeNHWCtoNCHW" type="Transpose" version="opset1">
			<input>
				<port id="0" precision="FP32">
					<dim>1</dim>
					<dim>512</dim>
					<dim>680</dim>
					<dim>1</dim>
				</port>
				<port id="1" precision="I64">
					<dim>4</dim>
				</port>
			</input>
			<output>
				<port id="2" precision="FP32">
					<dim>1</dim>
					<dim>1</dim>
					<dim>512</dim>
					<dim>680</dim>
				</port>
			</output>
		</layer>
		<layer id="28" name="mul_1" type="Multiply" version="opset1">
			<data auto_broadcast="numpy" />
			<input>
				<port id="0" precision="FP32">
					<dim>1</dim>
					<dim>1</dim>
					<dim>512</dim>
					<dim>680</dim>
				</port>
				<port id="1" precision="FP32">
					<dim>1</dim>
					<dim>1</dim>
					<dim>512</dim>
					<dim>680</dim>
				</port>
			</input>
			<output>
				<port id="2" precision="FP32" names="mul_1:0">
					<dim>1</dim>
					<dim>1</dim>
					<dim>512</dim>
					<dim>680</dim>
				</port>
			</output>
		</layer>
		<layer id="29" name="concat" type="Concat" version="opset1">
			<data axis="1" />
			<input>
				<port id="0" precision="FP32">
					<dim>1</dim>
					<dim>3</dim>
					<dim>512</dim>
					<dim>680</dim>
				</port>
				<port id="1" precision="FP32">
					<dim>1</dim>
					<dim>1</dim>
					<dim>512</dim>
					<dim>680</dim>
				</port>
				<port id="2" precision="FP32">
					<dim>1</dim>
					<dim>1</dim>
					<dim>512</dim>
					<dim>680</dim>
				</port>
			</input>
			<output>
				<port id="3" precision="FP32" names="concat:0">
					<dim>1</dim>
					<dim>5</dim>
					<dim>512</dim>
					<dim>680</dim>
				</port>
			</output>
		</layer>
		<layer id="30" name="inpaint_net/b1conv1/kernel/read" type="Const" version="opset1">
			<data element_type="f32" shape="32, 5, 7, 7" offset="164" size="31360" />
			<output>
				<port id="0" precision="FP32" names="inpaint_net/b1conv1/kernel/read:0">
					<dim>32</dim>
					<dim>5</dim>
					<dim>7</dim>
					<dim>7</dim>
				</port>
			</output>
		</layer>
		<layer id="31" name="inpaint_net/b1conv1/Conv2D" type="Convolution" version="opset1">
			<data strides="1, 1" dilations="1, 1" pads_begin="0, 0" pads_end="0, 0" auto_pad="same_upper" />
			<input>
				<port id="0" precision="FP32">
					<dim>1</dim>
					<dim>5</dim>
					<dim>512</dim>
					<dim>680</dim>
				</port>
				<port id="1" precision="FP32">
					<dim>32</dim>
					<dim>5</dim>
					<dim>7</dim>
					<dim>7</dim>
				</port>
			</input>
			<output>
				<port id="2" precision="FP32" names="inpaint_net/b1conv1/Conv2D:0">
					<dim>1</dim>
					<dim>32</dim>
					<dim>512</dim>
					<dim>680</dim>
				</port>
			</output>
		</layer>
		<layer id="32" name="inpaint_net/b1conv1/bias/read" type="Const" version="opset1">
			<data element_type="f32" shape="1, 32, 1, 1" offset="31524" size="128" />
			<output>
				<port id="0" precision="FP32" names="inpaint_net/b1conv1/bias/read:0">
					<dim>1</dim>
					<dim>32</dim>
					<dim>1</dim>
					<dim>1</dim>
				</port>
			</output>
		</layer>
		<layer id="33" name="inpaint_net/b1conv1/BiasAdd/Add" type="Add" version="opset1">
			<data auto_broadcast="numpy" />
			<input>
				<port id="0" precision="FP32">
					<dim>1</dim>
					<dim>32</dim>
					<dim>512</dim>
					<dim>680</dim>
				</port>
				<port id="1" precision="FP32">
					<dim>1</dim>
					<dim>32</dim>
					<dim>1</dim>
					<dim>1</dim>
				</port>
			</input>
			<output>
				<port id="2" precision="FP32" names="inpaint_net/b1conv1/BiasAdd:0">
					<dim>1</dim>
					<dim>32</dim>
					<dim>512</dim>
					<dim>680</dim>
				</port>
			</output>
		</layer>
		<layer id="34" name="inpaint_net/b1conv1/Elu" type="Elu" version="opset1">
			<data alpha="1" />
			<input>
				<port id="0" precision="FP32">
					<dim>1</dim>
					<dim>32</dim>
					<dim>512</dim>
					<dim>680</dim>
				</port>
			</input>
			<output>
				<port id="1" precision="FP32" names="inpaint_net/b1conv1/Elu:0">
					<dim>1</dim>
					<dim>32</dim>
					<dim>512</dim>
					<dim>680</dim>
				</port>
			</output>
		</layer>
		<layer id="35" name="inpaint_net/b1conv2_downsample/kernel/read" type="Const" version="opset1">
			<data element_type="f32" shape="64, 32, 7, 7" offset="31652" size="401408" />
			<output>
				<port id="0" precision="FP32" names="inpaint_net/b1conv2_downsample/kernel/read:0">
					<dim>64</dim>
					<dim>32</dim>
					<dim>7</dim>
					<dim>7</dim>
				</port>
			</output>
		</layer>
		<layer id="36" name="inpaint_net/b1conv2_downsample/Conv2D" type="Convolution" version="opset1">
			<data strides="2, 2" dilations="1, 1" pads_begin="0, 0" pads_end="0, 0" auto_pad="same_upper" />
			<input>
				<port id="0" precision="FP32">
					<dim>1</dim>
					<dim>32</dim>
					<dim>512</dim>
					<dim>680</dim>
				</port>
				<port id="1" precision="FP32">
					<dim>64</dim>
					<dim>32</dim>
					<dim>7</dim>
					<dim>7</dim>
				</port>
			</input>
			<output>
				<port id="2" precision="FP32" names="inpaint_net/b1conv2_downsample/Conv2D:0">
					<dim>1</dim>
					<dim>64</dim>
					<dim>256</dim>
					<dim>340</dim>
				</port>
			</output>
		</layer>
		<layer id="37" name="inpaint_net/b1conv2_downsample/bias/read" type="Const" version="opset1">
			<data element_type="f32" shape="1, 64, 1, 1" offset="433060" size="256" />
			<output>
				<port id="0" precision="FP32" names="inpaint_net/b1conv2_downsample/bias/read:0">
					<dim>1</dim>
					<dim>64</dim>
					<dim>1</dim>
					<dim>1</dim>
				</port>
			</output>
		</layer>
		<layer id="38" name="inpaint_net/b1conv2_downsample/BiasAdd/Add" type="Add" version="opset1">
			<data auto_broadcast="numpy" />
			<input>
				<port id="0" precision="FP32">
					<dim>1</dim>
					<dim>64</dim>
					<dim>256</dim>
					<dim>340</dim>
				</port>
				<port id="1" precision="FP32">
					<dim>1</dim>
					<dim>64</dim>
					<dim>1</dim>
					<dim>1</dim>
				</port>
			</input>
			<output>
				<port id="2" precision="FP32" names="inpaint_net/b1conv2_downsample/BiasAdd:0">
					<dim>1</dim>
					<dim>64</dim>
					<dim>256</dim>
					<dim>340</dim>
				</port>
			</output>
		</layer>
		<layer id="39" name="inpaint_net/b1conv2_downsample/Elu" type="Elu" version="opset1">
			<data alpha="1" />
			<input>
				<port id="0" precision="FP32">
					<dim>1</dim>
					<dim>64</dim>
					<dim>256</dim>
					<dim>340</dim>
				</port>
			</input>
			<output>
				<port id="1" precision="FP32" names="inpaint_net/b1conv2_downsample/Elu:0">
					<dim>1</dim>
					<dim>64</dim>
					<dim>256</dim>
					<dim>340</dim>
				</port>
			</output>
		</layer>
		<layer id="40" name="inpaint_net/b1conv3/kernel/read" type="Const" version="opset1">
			<data element_type="f32" shape="64, 64, 7, 7" offset="433316" size="802816" />
			<output>
				<port id="0" precision="FP32" names="inpaint_net/b1conv3/kernel/read:0">
					<dim>64</dim>
					<dim>64</dim>
					<dim>7</dim>
					<dim>7</dim>
				</port>
			</output>
		</layer>
		<layer id="41" name="inpaint_net/b1conv3/Conv2D" type="Convolution" version="opset1">
			<data strides="1, 1" dilations="1, 1" pads_begin="0, 0" pads_end="0, 0" auto_pad="same_upper" />
			<input>
				<port id="0" precision="FP32">
					<dim>1</dim>
					<dim>64</dim>
					<dim>256</dim>
					<dim>340</dim>
				</port>
				<port id="1" precision="FP32">
					<dim>64</dim>
					<dim>64</dim>
					<dim>7</dim>
					<dim>7</dim>
				</port>
			</input>
			<output>
				<port id="2" precision="FP32" names="inpaint_net/b1conv3/Conv2D:0">
					<dim>1</dim>
					<dim>64</dim>
					<dim>256</dim>
					<dim>340</dim>
				</port>
			</output>
		</layer>
		<layer id="42" name="inpaint_net/b1conv3/bias/read" type="Const" version="opset1">
			<data element_type="f32" shape="1, 64, 1, 1" offset="1236132" size="256" />
			<output>
				<port id="0" precision="FP32" names="inpaint_net/b1conv3/bias/read:0">
					<dim>1</dim>
					<dim>64</dim>
					<dim>1</dim>
					<dim>1</dim>
				</port>
			</output>
		</layer>
		<layer id="43" name="inpaint_net/b1conv3/BiasAdd/Add" type="Add" version="opset1">
			<data auto_broadcast="numpy" />
			<input>
				<port id="0" precision="FP32">
					<dim>1</dim>
					<dim>64</dim>
					<dim>256</dim>
					<dim>340</dim>
				</port>
				<port id="1" precision="FP32">
					<dim>1</dim>
					<dim>64</dim>
					<dim>1</dim>
					<dim>1</dim>
				</port>
			</input>
			<output>
				<port id="2" precision="FP32" names="inpaint_net/b1conv3/BiasAdd:0">
					<dim>1</dim>
					<dim>64</dim>
					<dim>256</dim>
					<dim>340</dim>
				</port>
			</output>
		</layer>
		<layer id="44" name="inpaint_net/b1conv3/Elu" type="Elu" version="opset1">
			<data alpha="1" />
			<input>
				<port id="0" precision="FP32">
					<dim>1</dim>
					<dim>64</dim>
					<dim>256</dim>
					<dim>340</dim>
				</port>
			</input>
			<output>
				<port id="1" precision="FP32" names="inpaint_net/b1conv3/Elu:0">
					<dim>1</dim>
					<dim>64</dim>
					<dim>256</dim>
					<dim>340</dim>
				</port>
			</output>
		</layer>
		<layer id="45" name="inpaint_net/b1conv4_downsample/kernel/read" type="Const" version="opset1">
			<data element_type="f32" shape="128, 64, 7, 7" offset="1236388" size="1605632" />
			<output>
				<port id="0" precision="FP32" names="inpaint_net/b1conv4_downsample/kernel/read:0">
					<dim>128</dim>
					<dim>64</dim>
					<dim>7</dim>
					<dim>7</dim>
				</port>
			</output>
		</layer>
		<layer id="46" name="inpaint_net/b1conv4_downsample/Conv2D" type="Convolution" version="opset1">
			<data strides="2, 2" dilations="1, 1" pads_begin="0, 0" pads_end="0, 0" auto_pad="same_upper" />
			<input>
				<port id="0" precision="FP32">
					<dim>1</dim>
					<dim>64</dim>
					<dim>256</dim>
					<dim>340</dim>
				</port>
				<port id="1" precision="FP32">
					<dim>128</dim>
					<dim>64</dim>
					<dim>7</dim>
					<dim>7</dim>
				</port>
			</input>
			<output>
				<port id="2" precision="FP32" names="inpaint_net/b1conv4_downsample/Conv2D:0">
					<dim>1</dim>
					<dim>128</dim>
					<dim>128</dim>
					<dim>170</dim>
				</port>
			</output>
		</layer>
		<layer id="47" name="inpaint_net/b1conv4_downsample/bias/read" type="Const" version="opset1">
			<data element_type="f32" shape="1, 128, 1, 1" offset="2842020" size="512" />
			<output>
				<port id="0" precision="FP32" names="inpaint_net/b1conv4_downsample/bias/read:0">
					<dim>1</dim>
					<dim>128</dim>
					<dim>1</dim>
					<dim>1</dim>
				</port>
			</output>
		</layer>
		<layer id="48" name="inpaint_net/b1conv4_downsample/BiasAdd/Add" type="Add" version="opset1">
			<data auto_broadcast="numpy" />
			<input>
				<port id="0" precision="FP32">
					<dim>1</dim>
					<dim>128</dim>
					<dim>128</dim>
					<dim>170</dim>
				</port>
				<port id="1" precision="FP32">
					<dim>1</dim>
					<dim>128</dim>
					<dim>1</dim>
					<dim>1</dim>
				</port>
			</input>
			<output>
				<port id="2" precision="FP32" names="inpaint_net/b1conv4_downsample/BiasAdd:0">
					<dim>1</dim>
					<dim>128</dim>
					<dim>128</dim>
					<dim>170</dim>
				</port>
			</output>
		</layer>
		<layer id="49" name="inpaint_net/b1conv4_downsample/Elu" type="Elu" version="opset1">
			<data alpha="1" />
			<input>
				<port id="0" precision="FP32">
					<dim>1</dim>
					<dim>128</dim>
					<dim>128</dim>
					<dim>170</dim>
				</port>
			</input>
			<output>
				<port id="1" precision="FP32" names="inpaint_net/b1conv4_downsample/Elu:0">
					<dim>1</dim>
					<dim>128</dim>
					<dim>128</dim>
					<dim>170</dim>
				</port>
			</output>
		</layer>
		<layer id="50" name="inpaint_net/b1conv5/kernel/read" type="Const" version="opset1">
			<data element_type="f32" shape="128, 128, 7, 7" offset="2842532" size="3211264" />
			<output>
				<port id="0" precision="FP32" names="inpaint_net/b1conv5/kernel/read:0">
					<dim>128</dim>
					<dim>128</dim>
					<dim>7</dim>
					<dim>7</dim>
				</port>
			</output>
		</layer>
		<layer id="51" name="inpaint_net/b1conv5/Conv2D" type="Convolution" version="opset1">
			<data strides="1, 1" dilations="1, 1" pads_begin="0, 0" pads_end="0, 0" auto_pad="same_upper" />
			<input>
				<port id="0" precision="FP32">
					<dim>1</dim>
					<dim>128</dim>
					<dim>128</dim>
					<dim>170</dim>
				</port>
				<port id="1" precision="FP32">
					<dim>128</dim>
					<dim>128</dim>
					<dim>7</dim>
					<dim>7</dim>
				</port>
			</input>
			<output>
				<port id="2" precision="FP32" names="inpaint_net/b1conv5/Conv2D:0">
					<dim>1</dim>
					<dim>128</dim>
					<dim>128</dim>
					<dim>170</dim>
				</port>
			</output>
		</layer>
		<layer id="52" name="inpaint_net/b1conv5/bias/read" type="Const" version="opset1">
			<data element_type="f32" shape="1, 128, 1, 1" offset="6053796" size="512" />
			<output>
				<port id="0" precision="FP32" names="inpaint_net/b1conv5/bias/read:0">
					<dim>1</dim>
					<dim>128</dim>
					<dim>1</dim>
					<dim>1</dim>
				</port>
			</output>
		</layer>
		<layer id="53" name="inpaint_net/b1conv5/BiasAdd/Add" type="Add" version="opset1">
			<data auto_broadcast="numpy" />
			<input>
				<port id="0" precision="FP32">
					<dim>1</dim>
					<dim>128</dim>
					<dim>128</dim>
					<dim>170</dim>
				</port>
				<port id="1" precision="FP32">
					<dim>1</dim>
					<dim>128</dim>
					<dim>1</dim>
					<dim>1</dim>
				</port>
			</input>
			<output>
				<port id="2" precision="FP32" names="inpaint_net/b1conv5/BiasAdd:0">
					<dim>1</dim>
					<dim>128</dim>
					<dim>128</dim>
					<dim>170</dim>
				</port>
			</output>
		</layer>
		<layer id="54" name="inpaint_net/b1conv5/Elu" type="Elu" version="opset1">
			<data alpha="1" />
			<input>
				<port id="0" precision="FP32">
					<dim>1</dim>
					<dim>128</dim>
					<dim>128</dim>
					<dim>170</dim>
				</port>
			</input>
			<output>
				<port id="1" precision="FP32" names="inpaint_net/b1conv5/Elu:0">
					<dim>1</dim>
					<dim>128</dim>
					<dim>128</dim>
					<dim>170</dim>
				</port>
			</output>
		</layer>
		<layer id="55" name="inpaint_net/b1conv6/kernel/read" type="Const" version="opset1">
			<data element_type="f32" shape="128, 128, 7, 7" offset="6054308" size="3211264" />
			<output>
				<port id="0" precision="FP32" names="inpaint_net/b1conv6/kernel/read:0">
					<dim>128</dim>
					<dim>128</dim>
					<dim>7</dim>
					<dim>7</dim>
				</port>
			</output>
		</layer>
		<layer id="56" name="inpaint_net/b1conv6/Conv2D" type="Convolution" version="opset1">
			<data strides="1, 1" dilations="1, 1" pads_begin="0, 0" pads_end="0, 0" auto_pad="same_upper" />
			<input>
				<port id="0" precision="FP32">
					<dim>1</dim>
					<dim>128</dim>
					<dim>128</dim>
					<dim>170</dim>
				</port>
				<port id="1" precision="FP32">
					<dim>128</dim>
					<dim>128</dim>
					<dim>7</dim>
					<dim>7</dim>
				</port>
			</input>
			<output>
				<port id="2" precision="FP32" names="inpaint_net/b1conv6/Conv2D:0">
					<dim>1</dim>
					<dim>128</dim>
					<dim>128</dim>
					<dim>170</dim>
				</port>
			</output>
		</layer>
		<layer id="57" name="inpaint_net/b1conv6/bias/read" type="Const" version="opset1">
			<data element_type="f32" shape="1, 128, 1, 1" offset="9265572" size="512" />
			<output>
				<port id="0" precision="FP32" names="inpaint_net/b1conv6/bias/read:0">
					<dim>1</dim>
					<dim>128</dim>
					<dim>1</dim>
					<dim>1</dim>
				</port>
			</output>
		</layer>
		<layer id="58" name="inpaint_net/b1conv6/BiasAdd/Add" type="Add" version="opset1">
			<data auto_broadcast="numpy" />
			<input>
				<port id="0" precision="FP32">
					<dim>1</dim>
					<dim>128</dim>
					<dim>128</dim>
					<dim>170</dim>
				</port>
				<port id="1" precision="FP32">
					<dim>1</dim>
					<dim>128</dim>
					<dim>1</dim>
					<dim>1</dim>
				</port>
			</input>
			<output>
				<port id="2" precision="FP32" names="inpaint_net/b1conv6/BiasAdd:0">
					<dim>1</dim>
					<dim>128</dim>
					<dim>128</dim>
					<dim>170</dim>
				</port>
			</output>
		</layer>
		<layer id="59" name="inpaint_net/b1conv6/Elu" type="Elu" version="opset1">
			<data alpha="1" />
			<input>
				<port id="0" precision="FP32">
					<dim>1</dim>
					<dim>128</dim>
					<dim>128</dim>
					<dim>170</dim>
				</port>
			</input>
			<output>
				<port id="1" precision="FP32" names="inpaint_net/b1conv6/Elu:0">
					<dim>1</dim>
					<dim>128</dim>
					<dim>128</dim>
					<dim>170</dim>
				</port>
			</output>
		</layer>
		<layer id="60" name="inpaint_net/b1conv7_atrous/kernel/read" type="Const" version="opset1">
			<data element_type="f32" shape="128, 128, 7, 7" offset="9266084" size="3211264" />
			<output>
				<port id="0" precision="FP32" names="inpaint_net/b1conv7_atrous/kernel/read:0">
					<dim>128</dim>
					<dim>128</dim>
					<dim>7</dim>
					<dim>7</dim>
				</port>
			</output>
		</layer>
		<layer id="61" name="inpaint_net/b1conv7_atrous/Conv2D" type="Convolution" version="opset1">
			<data strides="1, 1" dilations="2, 2" pads_begin="6, 6" pads_end="6, 6" auto_pad="explicit" />
			<input>
				<port id="0" precision="FP32">
					<dim>1</dim>
					<dim>128</dim>
					<dim>128</dim>
					<dim>170</dim>
				</port>
				<port id="1" precision="FP32">
					<dim>128</dim>
					<dim>128</dim>
					<dim>7</dim>
					<dim>7</dim>
				</port>
			</input>
			<output>
				<port id="2" precision="FP32" names="inpaint_net/b1conv7_atrous/BatchToSpaceND:0">
					<dim>1</dim>
					<dim>128</dim>
					<dim>128</dim>
					<dim>170</dim>
				</port>
			</output>
		</layer>
		<layer id="62" name="inpaint_net/b1conv7_atrous/bias/read" type="Const" version="opset1">
			<data element_type="f32" shape="1, 128, 1, 1" offset="12477348" size="512" />
			<output>
				<port id="0" precision="FP32" names="inpaint_net/b1conv7_atrous/bias/read:0">
					<dim>1</dim>
					<dim>128</dim>
					<dim>1</dim>
					<dim>1</dim>
				</port>
			</output>
		</layer>
		<layer id="63" name="inpaint_net/b1conv7_atrous/BiasAdd/Add" type="Add" version="opset1">
			<data auto_broadcast="numpy" />
			<input>
				<port id="0" precision="FP32">
					<dim>1</dim>
					<dim>128</dim>
					<dim>128</dim>
					<dim>170</dim>
				</port>
				<port id="1" precision="FP32">
					<dim>1</dim>
					<dim>128</dim>
					<dim>1</dim>
					<dim>1</dim>
				</port>
			</input>
			<output>
				<port id="2" precision="FP32" names="inpaint_net/b1conv7_atrous/BiasAdd:0">
					<dim>1</dim>
					<dim>128</dim>
					<dim>128</dim>
					<dim>170</dim>
				</port>
			</output>
		</layer>
		<layer id="64" name="inpaint_net/b1conv7_atrous/Elu" type="Elu" version="opset1">
			<data alpha="1" />
			<input>
				<port id="0" precision="FP32">
					<dim>1</dim>
					<dim>128</dim>
					<dim>128</dim>
					<dim>170</dim>
				</port>
			</input>
			<output>
				<port id="1" precision="FP32" names="inpaint_net/b1conv7_atrous/Elu:0">
					<dim>1</dim>
					<dim>128</dim>
					<dim>128</dim>
					<dim>170</dim>
				</port>
			</output>
		</layer>
		<layer id="65" name="inpaint_net/b1conv8_atrous/kernel/read" type="Const" version="opset1">
			<data element_type="f32" shape="128, 128, 7, 7" offset="12477860" size="3211264" />
			<output>
				<port id="0" precision="FP32" names="inpaint_net/b1conv8_atrous/kernel/read:0">
					<dim>128</dim>
					<dim>128</dim>
					<dim>7</dim>
					<dim>7</dim>
				</port>
			</output>
		</layer>
		<layer id="66" name="inpaint_net/b1conv8_atrous/Conv2D" type="Convolution" version="opset1">
			<data strides="1, 1" dilations="4, 4" pads_begin="12, 12" pads_end="12, 12" auto_pad="explicit" />
			<input>
				<port id="0" precision="FP32">
					<dim>1</dim>
					<dim>128</dim>
					<dim>128</dim>
					<dim>170</dim>
				</port>
				<port id="1" precision="FP32">
					<dim>128</dim>
					<dim>128</dim>
					<dim>7</dim>
					<dim>7</dim>
				</port>
			</input>
			<output>
				<port id="2" precision="FP32" names="inpaint_net/b1conv8_atrous/BatchToSpaceND:0">
					<dim>1</dim>
					<dim>128</dim>
					<dim>128</dim>
					<dim>170</dim>
				</port>
			</output>
		</layer>
		<layer id="67" name="inpaint_net/b1conv8_atrous/bias/read" type="Const" version="opset1">
			<data element_type="f32" shape="1, 128, 1, 1" offset="15689124" size="512" />
			<output>
				<port id="0" precision="FP32" names="inpaint_net/b1conv8_atrous/bias/read:0">
					<dim>1</dim>
					<dim>128</dim>
					<dim>1</dim>
					<dim>1</dim>
				</port>
			</output>
		</layer>
		<layer id="68" name="inpaint_net/b1conv8_atrous/BiasAdd/Add" type="Add" version="opset1">
			<data auto_broadcast="numpy" />
			<input>
				<port id="0" precision="FP32">
					<dim>1</dim>
					<dim>128</dim>
					<dim>128</dim>
					<dim>170</dim>
				</port>
				<port id="1" precision="FP32">
					<dim>1</dim>
					<dim>128</dim>
					<dim>1</dim>
					<dim>1</dim>
				</port>
			</input>
			<output>
				<port id="2" precision="FP32" names="inpaint_net/b1conv8_atrous/BiasAdd:0">
					<dim>1</dim>
					<dim>128</dim>
					<dim>128</dim>
					<dim>170</dim>
				</port>
			</output>
		</layer>
		<layer id="69" name="inpaint_net/b1conv8_atrous/Elu" type="Elu" version="opset1">
			<data alpha="1" />
			<input>
				<port id="0" precision="FP32">
					<dim>1</dim>
					<dim>128</dim>
					<dim>128</dim>
					<dim>170</dim>
				</port>
			</input>
			<output>
				<port id="1" precision="FP32" names="inpaint_net/b1conv8_atrous/Elu:0">
					<dim>1</dim>
					<dim>128</dim>
					<dim>128</dim>
					<dim>170</dim>
				</port>
			</output>
		</layer>
		<layer id="70" name="inpaint_net/b1conv9_atrous/kernel/read" type="Const" version="opset1">
			<data element_type="f32" shape="128, 128, 7, 7" offset="15689636" size="3211264" />
			<output>
				<port id="0" precision="FP32" names="inpaint_net/b1conv9_atrous/kernel/read:0">
					<dim>128</dim>
					<dim>128</dim>
					<dim>7</dim>
					<dim>7</dim>
				</port>
			</output>
		</layer>
		<layer id="71" name="inpaint_net/b1conv9_atrous/Conv2D" type="Convolution" version="opset1">
			<data strides="1, 1" dilations="8, 8" pads_begin="24, 24" pads_end="24, 24" auto_pad="explicit" />
			<input>
				<port id="0" precision="FP32">
					<dim>1</dim>
					<dim>128</dim>
					<dim>128</dim>
					<dim>170</dim>
				</port>
				<port id="1" precision="FP32">
					<dim>128</dim>
					<dim>128</dim>
					<dim>7</dim>
					<dim>7</dim>
				</port>
			</input>
			<output>
				<port id="2" precision="FP32" names="inpaint_net/b1conv9_atrous/BatchToSpaceND:0">
					<dim>1</dim>
					<dim>128</dim>
					<dim>128</dim>
					<dim>170</dim>
				</port>
			</output>
		</layer>
		<layer id="72" name="inpaint_net/b1conv9_atrous/bias/read" type="Const" version="opset1">
			<data element_type="f32" shape="1, 128, 1, 1" offset="18900900" size="512" />
			<output>
				<port id="0" precision="FP32" names="inpaint_net/b1conv9_atrous/bias/read:0">
					<dim>1</dim>
					<dim>128</dim>
					<dim>1</dim>
					<dim>1</dim>
				</port>
			</output>
		</layer>
		<layer id="73" name="inpaint_net/b1conv9_atrous/BiasAdd/Add" type="Add" version="opset1">
			<data auto_broadcast="numpy" />
			<input>
				<port id="0" precision="FP32">
					<dim>1</dim>
					<dim>128</dim>
					<dim>128</dim>
					<dim>170</dim>
				</port>
				<port id="1" precision="FP32">
					<dim>1</dim>
					<dim>128</dim>
					<dim>1</dim>
					<dim>1</dim>
				</port>
			</input>
			<output>
				<port id="2" precision="FP32" names="inpaint_net/b1conv9_atrous/BiasAdd:0">
					<dim>1</dim>
					<dim>128</dim>
					<dim>128</dim>
					<dim>170</dim>
				</port>
			</output>
		</layer>
		<layer id="74" name="inpaint_net/b1conv9_atrous/Elu" type="Elu" version="opset1">
			<data alpha="1" />
			<input>
				<port id="0" precision="FP32">
					<dim>1</dim>
					<dim>128</dim>
					<dim>128</dim>
					<dim>170</dim>
				</port>
			</input>
			<output>
				<port id="1" precision="FP32" names="inpaint_net/b1conv9_atrous/Elu:0">
					<dim>1</dim>
					<dim>128</dim>
					<dim>128</dim>
					<dim>170</dim>
				</port>
			</output>
		</layer>
		<layer id="75" name="inpaint_net/b1conv10_atrous/kernel/read" type="Const" version="opset1">
			<data element_type="f32" shape="128, 128, 7, 7" offset="18901412" size="3211264" />
			<output>
				<port id="0" precision="FP32" names="inpaint_net/b1conv10_atrous/kernel/read:0">
					<dim>128</dim>
					<dim>128</dim>
					<dim>7</dim>
					<dim>7</dim>
				</port>
			</output>
		</layer>
		<layer id="76" name="inpaint_net/b1conv10_atrous/Conv2D" type="Convolution" version="opset1">
			<data strides="1, 1" dilations="16, 16" pads_begin="48, 48" pads_end="48, 48" auto_pad="explicit" />
			<input>
				<port id="0" precision="FP32">
					<dim>1</dim>
					<dim>128</dim>
					<dim>128</dim>
					<dim>170</dim>
				</port>
				<port id="1" precision="FP32">
					<dim>128</dim>
					<dim>128</dim>
					<dim>7</dim>
					<dim>7</dim>
				</port>
			</input>
			<output>
				<port id="2" precision="FP32" names="inpaint_net/b1conv10_atrous/BatchToSpaceND:0">
					<dim>1</dim>
					<dim>128</dim>
					<dim>128</dim>
					<dim>170</dim>
				</port>
			</output>
		</layer>
		<layer id="77" name="inpaint_net/b1conv10_atrous/bias/read" type="Const" version="opset1">
			<data element_type="f32" shape="1, 128, 1, 1" offset="22112676" size="512" />
			<output>
				<port id="0" precision="FP32" names="inpaint_net/b1conv10_atrous/bias/read:0">
					<dim>1</dim>
					<dim>128</dim>
					<dim>1</dim>
					<dim>1</dim>
				</port>
			</output>
		</layer>
		<layer id="78" name="inpaint_net/b1conv10_atrous/BiasAdd/Add" type="Add" version="opset1">
			<data auto_broadcast="numpy" />
			<input>
				<port id="0" precision="FP32">
					<dim>1</dim>
					<dim>128</dim>
					<dim>128</dim>
					<dim>170</dim>
				</port>
				<port id="1" precision="FP32">
					<dim>1</dim>
					<dim>128</dim>
					<dim>1</dim>
					<dim>1</dim>
				</port>
			</input>
			<output>
				<port id="2" precision="FP32" names="inpaint_net/b1conv10_atrous/BiasAdd:0">
					<dim>1</dim>
					<dim>128</dim>
					<dim>128</dim>
					<dim>170</dim>
				</port>
			</output>
		</layer>
		<layer id="79" name="inpaint_net/b1conv10_atrous/Elu" type="Elu" version="opset1">
			<data alpha="1" />
			<input>
				<port id="0" precision="FP32">
					<dim>1</dim>
					<dim>128</dim>
					<dim>128</dim>
					<dim>170</dim>
				</port>
			</input>
			<output>
				<port id="1" precision="FP32" names="inpaint_net/b1conv10_atrous/Elu:0">
					<dim>1</dim>
					<dim>128</dim>
					<dim>128</dim>
					<dim>170</dim>
				</port>
			</output>
		</layer>
		<layer id="80" name="inpaint_net/b1conv11/kernel/read" type="Const" version="opset1">
			<data element_type="f32" shape="128, 128, 7, 7" offset="22113188" size="3211264" />
			<output>
				<port id="0" precision="FP32" names="inpaint_net/b1conv11/kernel/read:0">
					<dim>128</dim>
					<dim>128</dim>
					<dim>7</dim>
					<dim>7</dim>
				</port>
			</output>
		</layer>
		<layer id="81" name="inpaint_net/b1conv11/Conv2D" type="Convolution" version="opset1">
			<data strides="1, 1" dilations="1, 1" pads_begin="0, 0" pads_end="0, 0" auto_pad="same_upper" />
			<input>
				<port id="0" precision="FP32">
					<dim>1</dim>
					<dim>128</dim>
					<dim>128</dim>
					<dim>170</dim>
				</port>
				<port id="1" precision="FP32">
					<dim>128</dim>
					<dim>128</dim>
					<dim>7</dim>
					<dim>7</dim>
				</port>
			</input>
			<output>
				<port id="2" precision="FP32" names="inpaint_net/b1conv11/Conv2D:0">
					<dim>1</dim>
					<dim>128</dim>
					<dim>128</dim>
					<dim>170</dim>
				</port>
			</output>
		</layer>
		<layer id="82" name="inpaint_net/b1conv11/bias/read" type="Const" version="opset1">
			<data element_type="f32" shape="1, 128, 1, 1" offset="25324452" size="512" />
			<output>
				<port id="0" precision="FP32" names="inpaint_net/b1conv11/bias/read:0">
					<dim>1</dim>
					<dim>128</dim>
					<dim>1</dim>
					<dim>1</dim>
				</port>
			</output>
		</layer>
		<layer id="83" name="inpaint_net/b1conv11/BiasAdd/Add" type="Add" version="opset1">
			<data auto_broadcast="numpy" />
			<input>
				<port id="0" precision="FP32">
					<dim>1</dim>
					<dim>128</dim>
					<dim>128</dim>
					<dim>170</dim>
				</port>
				<port id="1" precision="FP32">
					<dim>1</dim>
					<dim>128</dim>
					<dim>1</dim>
					<dim>1</dim>
				</port>
			</input>
			<output>
				<port id="2" precision="FP32" names="inpaint_net/b1conv11/BiasAdd:0">
					<dim>1</dim>
					<dim>128</dim>
					<dim>128</dim>
					<dim>170</dim>
				</port>
			</output>
		</layer>
		<layer id="84" name="inpaint_net/b1conv11/Elu" type="Elu" version="opset1">
			<data alpha="1" />
			<input>
				<port id="0" precision="FP32">
					<dim>1</dim>
					<dim>128</dim>
					<dim>128</dim>
					<dim>170</dim>
				</port>
			</input>
			<output>
				<port id="1" precision="FP32" names="inpaint_net/b1conv11/Elu:0">
					<dim>1</dim>
					<dim>128</dim>
					<dim>128</dim>
					<dim>170</dim>
				</port>
			</output>
		</layer>
		<layer id="85" name="inpaint_net/b1conv12/kernel/read" type="Const" version="opset1">
			<data element_type="f32" shape="128, 128, 7, 7" offset="25324964" size="3211264" />
			<output>
				<port id="0" precision="FP32" names="inpaint_net/b1conv12/kernel/read:0">
					<dim>128</dim>
					<dim>128</dim>
					<dim>7</dim>
					<dim>7</dim>
				</port>
			</output>
		</layer>
		<layer id="86" name="inpaint_net/b1conv12/Conv2D" type="Convolution" version="opset1">
			<data strides="1, 1" dilations="1, 1" pads_begin="0, 0" pads_end="0, 0" auto_pad="same_upper" />
			<input>
				<port id="0" precision="FP32">
					<dim>1</dim>
					<dim>128</dim>
					<dim>128</dim>
					<dim>170</dim>
				</port>
				<port id="1" precision="FP32">
					<dim>128</dim>
					<dim>128</dim>
					<dim>7</dim>
					<dim>7</dim>
				</port>
			</input>
			<output>
				<port id="2" precision="FP32" names="inpaint_net/b1conv12/Conv2D:0">
					<dim>1</dim>
					<dim>128</dim>
					<dim>128</dim>
					<dim>170</dim>
				</port>
			</output>
		</layer>
		<layer id="87" name="inpaint_net/b1conv12/bias/read" type="Const" version="opset1">
			<data element_type="f32" shape="1, 128, 1, 1" offset="28536228" size="512" />
			<output>
				<port id="0" precision="FP32" names="inpaint_net/b1conv12/bias/read:0">
					<dim>1</dim>
					<dim>128</dim>
					<dim>1</dim>
					<dim>1</dim>
				</port>
			</output>
		</layer>
		<layer id="88" name="inpaint_net/b1conv12/BiasAdd/Add" type="Add" version="opset1">
			<data auto_broadcast="numpy" />
			<input>
				<port id="0" precision="FP32">
					<dim>1</dim>
					<dim>128</dim>
					<dim>128</dim>
					<dim>170</dim>
				</port>
				<port id="1" precision="FP32">
					<dim>1</dim>
					<dim>128</dim>
					<dim>1</dim>
					<dim>1</dim>
				</port>
			</input>
			<output>
				<port id="2" precision="FP32" names="inpaint_net/b1conv12/BiasAdd:0">
					<dim>1</dim>
					<dim>128</dim>
					<dim>128</dim>
					<dim>170</dim>
				</port>
			</output>
		</layer>
		<layer id="89" name="inpaint_net/b1conv12/Elu" type="Elu" version="opset1">
			<data alpha="1" />
			<input>
				<port id="0" precision="FP32">
					<dim>1</dim>
					<dim>128</dim>
					<dim>128</dim>
					<dim>170</dim>
				</port>
			</input>
			<output>
				<port id="1" precision="FP32" names="inpaint_net/b1conv12/Elu:0">
					<dim>1</dim>
					<dim>128</dim>
					<dim>128</dim>
					<dim>170</dim>
				</port>
			</output>
		</layer>
		<layer id="90" name="inpaint_net/b3conv1/kernel/read" type="Const" version="opset1">
			<data element_type="f32" shape="32, 5, 5, 5" offset="28536740" size="16000" />
			<output>
				<port id="0" precision="FP32" names="inpaint_net/b3conv1/kernel/read:0">
					<dim>32</dim>
					<dim>5</dim>
					<dim>5</dim>
					<dim>5</dim>
				</port>
			</output>
		</layer>
		<layer id="91" name="inpaint_net/b3conv1/Conv2D" type="Convolution" version="opset1">
			<data strides="1, 1" dilations="1, 1" pads_begin="0, 0" pads_end="0, 0" auto_pad="same_upper" />
			<input>
				<port id="0" precision="FP32">
					<dim>1</dim>
					<dim>5</dim>
					<dim>512</dim>
					<dim>680</dim>
				</port>
				<port id="1" precision="FP32">
					<dim>32</dim>
					<dim>5</dim>
					<dim>5</dim>
					<dim>5</dim>
				</port>
			</input>
			<output>
				<port id="2" precision="FP32" names="inpaint_net/b3conv1/Conv2D:0">
					<dim>1</dim>
					<dim>32</dim>
					<dim>512</dim>
					<dim>680</dim>
				</port>
			</output>
		</layer>
		<layer id="92" name="inpaint_net/b3conv1/bias/read" type="Const" version="opset1">
			<data element_type="f32" shape="1, 32, 1, 1" offset="28552740" size="128" />
			<output>
				<port id="0" precision="FP32" names="inpaint_net/b3conv1/bias/read:0">
					<dim>1</dim>
					<dim>32</dim>
					<dim>1</dim>
					<dim>1</dim>
				</port>
			</output>
		</layer>
		<layer id="93" name="inpaint_net/b3conv1/BiasAdd/Add" type="Add" version="opset1">
			<data auto_broadcast="numpy" />
			<input>
				<port id="0" precision="FP32">
					<dim>1</dim>
					<dim>32</dim>
					<dim>512</dim>
					<dim>680</dim>
				</port>
				<port id="1" precision="FP32">
					<dim>1</dim>
					<dim>32</dim>
					<dim>1</dim>
					<dim>1</dim>
				</port>
			</input>
			<output>
				<port id="2" precision="FP32" names="inpaint_net/b3conv1/BiasAdd:0">
					<dim>1</dim>
					<dim>32</dim>
					<dim>512</dim>
					<dim>680</dim>
				</port>
			</output>
		</layer>
		<layer id="94" name="inpaint_net/b3conv1/Elu" type="Elu" version="opset1">
			<data alpha="1" />
			<input>
				<port id="0" precision="FP32">
					<dim>1</dim>
					<dim>32</dim>
					<dim>512</dim>
					<dim>680</dim>
				</port>
			</input>
			<output>
				<port id="1" precision="FP32" names="inpaint_net/b3conv1/Elu:0">
					<dim>1</dim>
					<dim>32</dim>
					<dim>512</dim>
					<dim>680</dim>
				</port>
			</output>
		</layer>
		<layer id="95" name="inpaint_net/b3conv2_downsample/kernel/read" type="Const" version="opset1">
			<data element_type="f32" shape="64, 32, 3, 3" offset="28552868" size="73728" />
			<output>
				<port id="0" precision="FP32" names="inpaint_net/b3conv2_downsample/kernel/read:0">
					<dim>64</dim>
					<dim>32</dim>
					<dim>3</dim>
					<dim>3</dim>
				</port>
			</output>
		</layer>
		<layer id="96" name="inpaint_net/b3conv2_downsample/Conv2D" type="Convolution" version="opset1">
			<data strides="2, 2" dilations="1, 1" pads_begin="0, 0" pads_end="0, 0" auto_pad="same_upper" />
			<input>
				<port id="0" precision="FP32">
					<dim>1</dim>
					<dim>32</dim>
					<dim>512</dim>
					<dim>680</dim>
				</port>
				<port id="1" precision="FP32">
					<dim>64</dim>
					<dim>32</dim>
					<dim>3</dim>
					<dim>3</dim>
				</port>
			</input>
			<output>
				<port id="2" precision="FP32" names="inpaint_net/b3conv2_downsample/Conv2D:0">
					<dim>1</dim>
					<dim>64</dim>
					<dim>256</dim>
					<dim>340</dim>
				</port>
			</output>
		</layer>
		<layer id="97" name="inpaint_net/b3conv2_downsample/bias/read" type="Const" version="opset1">
			<data element_type="f32" shape="1, 64, 1, 1" offset="28626596" size="256" />
			<output>
				<port id="0" precision="FP32" names="inpaint_net/b3conv2_downsample/bias/read:0">
					<dim>1</dim>
					<dim>64</dim>
					<dim>1</dim>
					<dim>1</dim>
				</port>
			</output>
		</layer>
		<layer id="98" name="inpaint_net/b3conv2_downsample/BiasAdd/Add" type="Add" version="opset1">
			<data auto_broadcast="numpy" />
			<input>
				<port id="0" precision="FP32">
					<dim>1</dim>
					<dim>64</dim>
					<dim>256</dim>
					<dim>340</dim>
				</port>
				<port id="1" precision="FP32">
					<dim>1</dim>
					<dim>64</dim>
					<dim>1</dim>
					<dim>1</dim>
				</port>
			</input>
			<output>
				<port id="2" precision="FP32" names="inpaint_net/b3conv2_downsample/BiasAdd:0">
					<dim>1</dim>
					<dim>64</dim>
					<dim>256</dim>
					<dim>340</dim>
				</port>
			</output>
		</layer>
		<layer id="99" name="inpaint_net/b3conv2_downsample/Elu" type="Elu" version="opset1">
			<data alpha="1" />
			<input>
				<port id="0" precision="FP32">
					<dim>1</dim>
					<dim>64</dim>
					<dim>256</dim>
					<dim>340</dim>
				</port>
			</input>
			<output>
				<port id="1" precision="FP32" names="inpaint_net/b3conv2_downsample/Elu:0">
					<dim>1</dim>
					<dim>64</dim>
					<dim>256</dim>
					<dim>340</dim>
				</port>
			</output>
		</layer>
		<layer id="100" name="inpaint_net/b3conv3/kernel/read" type="Const" version="opset1">
			<data element_type="f32" shape="64, 64, 3, 3" offset="28626852" size="147456" />
			<output>
				<port id="0" precision="FP32" names="inpaint_net/b3conv3/kernel/read:0">
					<dim>64</dim>
					<dim>64</dim>
					<dim>3</dim>
					<dim>3</dim>
				</port>
			</output>
		</layer>
		<layer id="101" name="inpaint_net/b3conv3/Conv2D" type="Convolution" version="opset1">
			<data strides="1, 1" dilations="1, 1" pads_begin="0, 0" pads_end="0, 0" auto_pad="same_upper" />
			<input>
				<port id="0" precision="FP32">
					<dim>1</dim>
					<dim>64</dim>
					<dim>256</dim>
					<dim>340</dim>
				</port>
				<port id="1" precision="FP32">
					<dim>64</dim>
					<dim>64</dim>
					<dim>3</dim>
					<dim>3</dim>
				</port>
			</input>
			<output>
				<port id="2" precision="FP32" names="inpaint_net/b3conv3/Conv2D:0">
					<dim>1</dim>
					<dim>64</dim>
					<dim>256</dim>
					<dim>340</dim>
				</port>
			</output>
		</layer>
		<layer id="102" name="inpaint_net/b3conv3/bias/read" type="Const" version="opset1">
			<data element_type="f32" shape="1, 64, 1, 1" offset="28774308" size="256" />
			<output>
				<port id="0" precision="FP32" names="inpaint_net/b3conv3/bias/read:0">
					<dim>1</dim>
					<dim>64</dim>
					<dim>1</dim>
					<dim>1</dim>
				</port>
			</output>
		</layer>
		<layer id="103" name="inpaint_net/b3conv3/BiasAdd/Add" type="Add" version="opset1">
			<data auto_broadcast="numpy" />
			<input>
				<port id="0" precision="FP32">
					<dim>1</dim>
					<dim>64</dim>
					<dim>256</dim>
					<dim>340</dim>
				</port>
				<port id="1" precision="FP32">
					<dim>1</dim>
					<dim>64</dim>
					<dim>1</dim>
					<dim>1</dim>
				</port>
			</input>
			<output>
				<port id="2" precision="FP32" names="inpaint_net/b3conv3/BiasAdd:0">
					<dim>1</dim>
					<dim>64</dim>
					<dim>256</dim>
					<dim>340</dim>
				</port>
			</output>
		</layer>
		<layer id="104" name="inpaint_net/b3conv3/Elu" type="Elu" version="opset1">
			<data alpha="1" />
			<input>
				<port id="0" precision="FP32">
					<dim>1</dim>
					<dim>64</dim>
					<dim>256</dim>
					<dim>340</dim>
				</port>
			</input>
			<output>
				<port id="1" precision="FP32" names="inpaint_net/b3conv3/Elu:0">
					<dim>1</dim>
					<dim>64</dim>
					<dim>256</dim>
					<dim>340</dim>
				</port>
			</output>
		</layer>
		<layer id="105" name="inpaint_net/b3conv4_downsample/kernel/read" type="Const" version="opset1">
			<data element_type="f32" shape="128, 64, 3, 3" offset="28774564" size="294912" />
			<output>
				<port id="0" precision="FP32" names="inpaint_net/b3conv4_downsample/kernel/read:0">
					<dim>128</dim>
					<dim>64</dim>
					<dim>3</dim>
					<dim>3</dim>
				</port>
			</output>
		</layer>
		<layer id="106" name="inpaint_net/b3conv4_downsample/Conv2D" type="Convolution" version="opset1">
			<data strides="2, 2" dilations="1, 1" pads_begin="0, 0" pads_end="0, 0" auto_pad="same_upper" />
			<input>
				<port id="0" precision="FP32">
					<dim>1</dim>
					<dim>64</dim>
					<dim>256</dim>
					<dim>340</dim>
				</port>
				<port id="1" precision="FP32">
					<dim>128</dim>
					<dim>64</dim>
					<dim>3</dim>
					<dim>3</dim>
				</port>
			</input>
			<output>
				<port id="2" precision="FP32" names="inpaint_net/b3conv4_downsample/Conv2D:0">
					<dim>1</dim>
					<dim>128</dim>
					<dim>128</dim>
					<dim>170</dim>
				</port>
			</output>
		</layer>
		<layer id="107" name="inpaint_net/b3conv4_downsample/bias/read" type="Const" version="opset1">
			<data element_type="f32" shape="1, 128, 1, 1" offset="29069476" size="512" />
			<output>
				<port id="0" precision="FP32" names="inpaint_net/b3conv4_downsample/bias/read:0">
					<dim>1</dim>
					<dim>128</dim>
					<dim>1</dim>
					<dim>1</dim>
				</port>
			</output>
		</layer>
		<layer id="108" name="inpaint_net/b3conv4_downsample/BiasAdd/Add" type="Add" version="opset1">
			<data auto_broadcast="numpy" />
			<input>
				<port id="0" precision="FP32">
					<dim>1</dim>
					<dim>128</dim>
					<dim>128</dim>
					<dim>170</dim>
				</port>
				<port id="1" precision="FP32">
					<dim>1</dim>
					<dim>128</dim>
					<dim>1</dim>
					<dim>1</dim>
				</port>
			</input>
			<output>
				<port id="2" precision="FP32" names="inpaint_net/b3conv4_downsample/BiasAdd:0">
					<dim>1</dim>
					<dim>128</dim>
					<dim>128</dim>
					<dim>170</dim>
				</port>
			</output>
		</layer>
		<layer id="109" name="inpaint_net/b3conv4_downsample/Elu" type="Elu" version="opset1">
			<data alpha="1" />
			<input>
				<port id="0" precision="FP32">
					<dim>1</dim>
					<dim>128</dim>
					<dim>128</dim>
					<dim>170</dim>
				</port>
			</input>
			<output>
				<port id="1" precision="FP32" names="inpaint_net/b3conv4_downsample/Elu:0">
					<dim>1</dim>
					<dim>128</dim>
					<dim>128</dim>
					<dim>170</dim>
				</port>
			</output>
		</layer>
		<layer id="110" name="inpaint_net/b3conv5/kernel/read" type="Const" version="opset1">
			<data element_type="f32" shape="128, 128, 3, 3" offset="29069988" size="589824" />
			<output>
				<port id="0" precision="FP32" names="inpaint_net/b3conv5/kernel/read:0">
					<dim>128</dim>
					<dim>128</dim>
					<dim>3</dim>
					<dim>3</dim>
				</port>
			</output>
		</layer>
		<layer id="111" name="inpaint_net/b3conv5/Conv2D" type="Convolution" version="opset1">
			<data strides="1, 1" dilations="1, 1" pads_begin="0, 0" pads_end="0, 0" auto_pad="same_upper" />
			<input>
				<port id="0" precision="FP32">
					<dim>1</dim>
					<dim>128</dim>
					<dim>128</dim>
					<dim>170</dim>
				</port>
				<port id="1" precision="FP32">
					<dim>128</dim>
					<dim>128</dim>
					<dim>3</dim>
					<dim>3</dim>
				</port>
			</input>
			<output>
				<port id="2" precision="FP32" names="inpaint_net/b3conv5/Conv2D:0">
					<dim>1</dim>
					<dim>128</dim>
					<dim>128</dim>
					<dim>170</dim>
				</port>
			</output>
		</layer>
		<layer id="112" name="inpaint_net/b3conv5/bias/read" type="Const" version="opset1">
			<data element_type="f32" shape="1, 128, 1, 1" offset="29659812" size="512" />
			<output>
				<port id="0" precision="FP32" names="inpaint_net/b3conv5/bias/read:0">
					<dim>1</dim>
					<dim>128</dim>
					<dim>1</dim>
					<dim>1</dim>
				</port>
			</output>
		</layer>
		<layer id="113" name="inpaint_net/b3conv5/BiasAdd/Add" type="Add" version="opset1">
			<data auto_broadcast="numpy" />
			<input>
				<port id="0" precision="FP32">
					<dim>1</dim>
					<dim>128</dim>
					<dim>128</dim>
					<dim>170</dim>
				</port>
				<port id="1" precision="FP32">
					<dim>1</dim>
					<dim>128</dim>
					<dim>1</dim>
					<dim>1</dim>
				</port>
			</input>
			<output>
				<port id="2" precision="FP32" names="inpaint_net/b3conv5/BiasAdd:0">
					<dim>1</dim>
					<dim>128</dim>
					<dim>128</dim>
					<dim>170</dim>
				</port>
			</output>
		</layer>
		<layer id="114" name="inpaint_net/b3conv5/Elu" type="Elu" version="opset1">
			<data alpha="1" />
			<input>
				<port id="0" precision="FP32">
					<dim>1</dim>
					<dim>128</dim>
					<dim>128</dim>
					<dim>170</dim>
				</port>
			</input>
			<output>
				<port id="1" precision="FP32" names="inpaint_net/b3conv5/Elu:0">
					<dim>1</dim>
					<dim>128</dim>
					<dim>128</dim>
					<dim>170</dim>
				</port>
			</output>
		</layer>
		<layer id="115" name="inpaint_net/b3conv6/kernel/read" type="Const" version="opset1">
			<data element_type="f32" shape="128, 128, 3, 3" offset="29660324" size="589824" />
			<output>
				<port id="0" precision="FP32" names="inpaint_net/b3conv6/kernel/read:0">
					<dim>128</dim>
					<dim>128</dim>
					<dim>3</dim>
					<dim>3</dim>
				</port>
			</output>
		</layer>
		<layer id="116" name="inpaint_net/b3conv6/Conv2D" type="Convolution" version="opset1">
			<data strides="1, 1" dilations="1, 1" pads_begin="0, 0" pads_end="0, 0" auto_pad="same_upper" />
			<input>
				<port id="0" precision="FP32">
					<dim>1</dim>
					<dim>128</dim>
					<dim>128</dim>
					<dim>170</dim>
				</port>
				<port id="1" precision="FP32">
					<dim>128</dim>
					<dim>128</dim>
					<dim>3</dim>
					<dim>3</dim>
				</port>
			</input>
			<output>
				<port id="2" precision="FP32" names="inpaint_net/b3conv6/Conv2D:0">
					<dim>1</dim>
					<dim>128</dim>
					<dim>128</dim>
					<dim>170</dim>
				</port>
			</output>
		</layer>
		<layer id="117" name="inpaint_net/b3conv6/bias/read" type="Const" version="opset1">
			<data element_type="f32" shape="1, 128, 1, 1" offset="30250148" size="512" />
			<output>
				<port id="0" precision="FP32" names="inpaint_net/b3conv6/bias/read:0">
					<dim>1</dim>
					<dim>128</dim>
					<dim>1</dim>
					<dim>1</dim>
				</port>
			</output>
		</layer>
		<layer id="118" name="inpaint_net/b3conv6/BiasAdd/Add" type="Add" version="opset1">
			<data auto_broadcast="numpy" />
			<input>
				<port id="0" precision="FP32">
					<dim>1</dim>
					<dim>128</dim>
					<dim>128</dim>
					<dim>170</dim>
				</port>
				<port id="1" precision="FP32">
					<dim>1</dim>
					<dim>128</dim>
					<dim>1</dim>
					<dim>1</dim>
				</port>
			</input>
			<output>
				<port id="2" precision="FP32" names="inpaint_net/b3conv6/BiasAdd:0">
					<dim>1</dim>
					<dim>128</dim>
					<dim>128</dim>
					<dim>170</dim>
				</port>
			</output>
		</layer>
		<layer id="119" name="inpaint_net/b3conv6/Elu" type="Elu" version="opset1">
			<data alpha="1" />
			<input>
				<port id="0" precision="FP32">
					<dim>1</dim>
					<dim>128</dim>
					<dim>128</dim>
					<dim>170</dim>
				</port>
			</input>
			<output>
				<port id="1" precision="FP32" names="inpaint_net/b3conv6/Elu:0">
					<dim>1</dim>
					<dim>128</dim>
					<dim>128</dim>
					<dim>170</dim>
				</port>
			</output>
		</layer>
		<layer id="120" name="inpaint_net/b3conv7_atrous/kernel/read" type="Const" version="opset1">
			<data element_type="f32" shape="128, 128, 3, 3" offset="30250660" size="589824" />
			<output>
				<port id="0" precision="FP32" names="inpaint_net/b3conv7_atrous/kernel/read:0">
					<dim>128</dim>
					<dim>128</dim>
					<dim>3</dim>
					<dim>3</dim>
				</port>
			</output>
		</layer>
		<layer id="121" name="inpaint_net/b3conv7_atrous/Conv2D" type="Convolution" version="opset1">
			<data strides="1, 1" dilations="2, 2" pads_begin="2, 2" pads_end="2, 2" auto_pad="explicit" />
			<input>
				<port id="0" precision="FP32">
					<dim>1</dim>
					<dim>128</dim>
					<dim>128</dim>
					<dim>170</dim>
				</port>
				<port id="1" precision="FP32">
					<dim>128</dim>
					<dim>128</dim>
					<dim>3</dim>
					<dim>3</dim>
				</port>
			</input>
			<output>
				<port id="2" precision="FP32" names="inpaint_net/b3conv7_atrous/BatchToSpaceND:0">
					<dim>1</dim>
					<dim>128</dim>
					<dim>128</dim>
					<dim>170</dim>
				</port>
			</output>
		</layer>
		<layer id="122" name="inpaint_net/b3conv7_atrous/bias/read" type="Const" version="opset1">
			<data element_type="f32" shape="1, 128, 1, 1" offset="30840484" size="512" />
			<output>
				<port id="0" precision="FP32" names="inpaint_net/b3conv7_atrous/bias/read:0">
					<dim>1</dim>
					<dim>128</dim>
					<dim>1</dim>
					<dim>1</dim>
				</port>
			</output>
		</layer>
		<layer id="123" name="inpaint_net/b3conv7_atrous/BiasAdd/Add" type="Add" version="opset1">
			<data auto_broadcast="numpy" />
			<input>
				<port id="0" precision="FP32">
					<dim>1</dim>
					<dim>128</dim>
					<dim>128</dim>
					<dim>170</dim>
				</port>
				<port id="1" precision="FP32">
					<dim>1</dim>
					<dim>128</dim>
					<dim>1</dim>
					<dim>1</dim>
				</port>
			</input>
			<output>
				<port id="2" precision="FP32" names="inpaint_net/b3conv7_atrous/BiasAdd:0">
					<dim>1</dim>
					<dim>128</dim>
					<dim>128</dim>
					<dim>170</dim>
				</port>
			</output>
		</layer>
		<layer id="124" name="inpaint_net/b3conv7_atrous/Elu" type="Elu" version="opset1">
			<data alpha="1" />
			<input>
				<port id="0" precision="FP32">
					<dim>1</dim>
					<dim>128</dim>
					<dim>128</dim>
					<dim>170</dim>
				</port>
			</input>
			<output>
				<port id="1" precision="FP32" names="inpaint_net/b3conv7_atrous/Elu:0">
					<dim>1</dim>
					<dim>128</dim>
					<dim>128</dim>
					<dim>170</dim>
				</port>
			</output>
		</layer>
		<layer id="125" name="inpaint_net/b3conv8_atrous/kernel/read" type="Const" version="opset1">
			<data element_type="f32" shape="128, 128, 3, 3" offset="30840996" size="589824" />
			<output>
				<port id="0" precision="FP32" names="inpaint_net/b3conv8_atrous/kernel/read:0">
					<dim>128</dim>
					<dim>128</dim>
					<dim>3</dim>
					<dim>3</dim>
				</port>
			</output>
		</layer>
		<layer id="126" name="inpaint_net/b3conv8_atrous/Conv2D" type="Convolution" version="opset1">
			<data strides="1, 1" dilations="4, 4" pads_begin="4, 4" pads_end="4, 4" auto_pad="explicit" />
			<input>
				<port id="0" precision="FP32">
					<dim>1</dim>
					<dim>128</dim>
					<dim>128</dim>
					<dim>170</dim>
				</port>
				<port id="1" precision="FP32">
					<dim>128</dim>
					<dim>128</dim>
					<dim>3</dim>
					<dim>3</dim>
				</port>
			</input>
			<output>
				<port id="2" precision="FP32" names="inpaint_net/b3conv8_atrous/BatchToSpaceND:0">
					<dim>1</dim>
					<dim>128</dim>
					<dim>128</dim>
					<dim>170</dim>
				</port>
			</output>
		</layer>
		<layer id="127" name="inpaint_net/b3conv8_atrous/bias/read" type="Const" version="opset1">
			<data element_type="f32" shape="1, 128, 1, 1" offset="31430820" size="512" />
			<output>
				<port id="0" precision="FP32" names="inpaint_net/b3conv8_atrous/bias/read:0">
					<dim>1</dim>
					<dim>128</dim>
					<dim>1</dim>
					<dim>1</dim>
				</port>
			</output>
		</layer>
		<layer id="128" name="inpaint_net/b3conv8_atrous/BiasAdd/Add" type="Add" version="opset1">
			<data auto_broadcast="numpy" />
			<input>
				<port id="0" precision="FP32">
					<dim>1</dim>
					<dim>128</dim>
					<dim>128</dim>
					<dim>170</dim>
				</port>
				<port id="1" precision="FP32">
					<dim>1</dim>
					<dim>128</dim>
					<dim>1</dim>
					<dim>1</dim>
				</port>
			</input>
			<output>
				<port id="2" precision="FP32" names="inpaint_net/b3conv8_atrous/BiasAdd:0">
					<dim>1</dim>
					<dim>128</dim>
					<dim>128</dim>
					<dim>170</dim>
				</port>
			</output>
		</layer>
		<layer id="129" name="inpaint_net/b3conv8_atrous/Elu" type="Elu" version="opset1">
			<data alpha="1" />
			<input>
				<port id="0" precision="FP32">
					<dim>1</dim>
					<dim>128</dim>
					<dim>128</dim>
					<dim>170</dim>
				</port>
			</input>
			<output>
				<port id="1" precision="FP32" names="inpaint_net/b3conv8_atrous/Elu:0">
					<dim>1</dim>
					<dim>128</dim>
					<dim>128</dim>
					<dim>170</dim>
				</port>
			</output>
		</layer>
		<layer id="130" name="inpaint_net/b3conv9_atrous/kernel/read" type="Const" version="opset1">
			<data element_type="f32" shape="128, 128, 3, 3" offset="31431332" size="589824" />
			<output>
				<port id="0" precision="FP32" names="inpaint_net/b3conv9_atrous/kernel/read:0">
					<dim>128</dim>
					<dim>128</dim>
					<dim>3</dim>
					<dim>3</dim>
				</port>
			</output>
		</layer>
		<layer id="131" name="inpaint_net/b3conv9_atrous/Conv2D" type="Convolution" version="opset1">
			<data strides="1, 1" dilations="8, 8" pads_begin="8, 8" pads_end="8, 8" auto_pad="explicit" />
			<input>
				<port id="0" precision="FP32">
					<dim>1</dim>
					<dim>128</dim>
					<dim>128</dim>
					<dim>170</dim>
				</port>
				<port id="1" precision="FP32">
					<dim>128</dim>
					<dim>128</dim>
					<dim>3</dim>
					<dim>3</dim>
				</port>
			</input>
			<output>
				<port id="2" precision="FP32" names="inpaint_net/b3conv9_atrous/BatchToSpaceND:0">
					<dim>1</dim>
					<dim>128</dim>
					<dim>128</dim>
					<dim>170</dim>
				</port>
			</output>
		</layer>
		<layer id="132" name="inpaint_net/b3conv9_atrous/bias/read" type="Const" version="opset1">
			<data element_type="f32" shape="1, 128, 1, 1" offset="32021156" size="512" />
			<output>
				<port id="0" precision="FP32" names="inpaint_net/b3conv9_atrous/bias/read:0">
					<dim>1</dim>
					<dim>128</dim>
					<dim>1</dim>
					<dim>1</dim>
				</port>
			</output>
		</layer>
		<layer id="133" name="inpaint_net/b3conv9_atrous/BiasAdd/Add" type="Add" version="opset1">
			<data auto_broadcast="numpy" />
			<input>
				<port id="0" precision="FP32">
					<dim>1</dim>
					<dim>128</dim>
					<dim>128</dim>
					<dim>170</dim>
				</port>
				<port id="1" precision="FP32">
					<dim>1</dim>
					<dim>128</dim>
					<dim>1</dim>
					<dim>1</dim>
				</port>
			</input>
			<output>
				<port id="2" precision="FP32" names="inpaint_net/b3conv9_atrous/BiasAdd:0">
					<dim>1</dim>
					<dim>128</dim>
					<dim>128</dim>
					<dim>170</dim>
				</port>
			</output>
		</layer>
		<layer id="134" name="inpaint_net/b3conv9_atrous/Elu" type="Elu" version="opset1">
			<data alpha="1" />
			<input>
				<port id="0" precision="FP32">
					<dim>1</dim>
					<dim>128</dim>
					<dim>128</dim>
					<dim>170</dim>
				</port>
			</input>
			<output>
				<port id="1" precision="FP32" names="inpaint_net/b3conv9_atrous/Elu:0">
					<dim>1</dim>
					<dim>128</dim>
					<dim>128</dim>
					<dim>170</dim>
				</port>
			</output>
		</layer>
		<layer id="135" name="inpaint_net/b3conv10_atrous/kernel/read" type="Const" version="opset1">
			<data element_type="f32" shape="128, 128, 3, 3" offset="32021668" size="589824" />
			<output>
				<port id="0" precision="FP32" names="inpaint_net/b3conv10_atrous/kernel/read:0">
					<dim>128</dim>
					<dim>128</dim>
					<dim>3</dim>
					<dim>3</dim>
				</port>
			</output>
		</layer>
		<layer id="136" name="inpaint_net/b3conv10_atrous/Conv2D" type="Convolution" version="opset1">
			<data strides="1, 1" dilations="16, 16" pads_begin="16, 16" pads_end="16, 16" auto_pad="explicit" />
			<input>
				<port id="0" precision="FP32">
					<dim>1</dim>
					<dim>128</dim>
					<dim>128</dim>
					<dim>170</dim>
				</port>
				<port id="1" precision="FP32">
					<dim>128</dim>
					<dim>128</dim>
					<dim>3</dim>
					<dim>3</dim>
				</port>
			</input>
			<output>
				<port id="2" precision="FP32" names="inpaint_net/b3conv10_atrous/BatchToSpaceND:0">
					<dim>1</dim>
					<dim>128</dim>
					<dim>128</dim>
					<dim>170</dim>
				</port>
			</output>
		</layer>
		<layer id="137" name="inpaint_net/b3conv10_atrous/bias/read" type="Const" version="opset1">
			<data element_type="f32" shape="1, 128, 1, 1" offset="32611492" size="512" />
			<output>
				<port id="0" precision="FP32" names="inpaint_net/b3conv10_atrous/bias/read:0">
					<dim>1</dim>
					<dim>128</dim>
					<dim>1</dim>
					<dim>1</dim>
				</port>
			</output>
		</layer>
		<layer id="138" name="inpaint_net/b3conv10_atrous/BiasAdd/Add" type="Add" version="opset1">
			<data auto_broadcast="numpy" />
			<input>
				<port id="0" precision="FP32">
					<dim>1</dim>
					<dim>128</dim>
					<dim>128</dim>
					<dim>170</dim>
				</port>
				<port id="1" precision="FP32">
					<dim>1</dim>
					<dim>128</dim>
					<dim>1</dim>
					<dim>1</dim>
				</port>
			</input>
			<output>
				<port id="2" precision="FP32" names="inpaint_net/b3conv10_atrous/BiasAdd:0">
					<dim>1</dim>
					<dim>128</dim>
					<dim>128</dim>
					<dim>170</dim>
				</port>
			</output>
		</layer>
		<layer id="139" name="inpaint_net/b3conv10_atrous/Elu" type="Elu" version="opset1">
			<data alpha="1" />
			<input>
				<port id="0" precision="FP32">
					<dim>1</dim>
					<dim>128</dim>
					<dim>128</dim>
					<dim>170</dim>
				</port>
			</input>
			<output>
				<port id="1" precision="FP32" names="inpaint_net/b3conv10_atrous/Elu:0">
					<dim>1</dim>
					<dim>128</dim>
					<dim>128</dim>
					<dim>170</dim>
				</port>
			</output>
		</layer>
		<layer id="140" name="inpaint_net/b3conv11/kernel/read" type="Const" version="opset1">
			<data element_type="f32" shape="128, 128, 3, 3" offset="32612004" size="589824" />
			<output>
				<port id="0" precision="FP32" names="inpaint_net/b3conv11/kernel/read:0">
					<dim>128</dim>
					<dim>128</dim>
					<dim>3</dim>
					<dim>3</dim>
				</port>
			</output>
		</layer>
		<layer id="141" name="inpaint_net/b3conv11/Conv2D" type="Convolution" version="opset1">
			<data strides="1, 1" dilations="1, 1" pads_begin="0, 0" pads_end="0, 0" auto_pad="same_upper" />
			<input>
				<port id="0" precision="FP32">
					<dim>1</dim>
					<dim>128</dim>
					<dim>128</dim>
					<dim>170</dim>
				</port>
				<port id="1" precision="FP32">
					<dim>128</dim>
					<dim>128</dim>
					<dim>3</dim>
					<dim>3</dim>
				</port>
			</input>
			<output>
				<port id="2" precision="FP32" names="inpaint_net/b3conv11/Conv2D:0">
					<dim>1</dim>
					<dim>128</dim>
					<dim>128</dim>
					<dim>170</dim>
				</port>
			</output>
		</layer>
		<layer id="142" name="inpaint_net/b3conv11/bias/read" type="Const" version="opset1">
			<data element_type="f32" shape="1, 128, 1, 1" offset="33201828" size="512" />
			<output>
				<port id="0" precision="FP32" names="inpaint_net/b3conv11/bias/read:0">
					<dim>1</dim>
					<dim>128</dim>
					<dim>1</dim>
					<dim>1</dim>
				</port>
			</output>
		</layer>
		<layer id="143" name="inpaint_net/b3conv11/BiasAdd/Add" type="Add" version="opset1">
			<data auto_broadcast="numpy" />
			<input>
				<port id="0" precision="FP32">
					<dim>1</dim>
					<dim>128</dim>
					<dim>128</dim>
					<dim>170</dim>
				</port>
				<port id="1" precision="FP32">
					<dim>1</dim>
					<dim>128</dim>
					<dim>1</dim>
					<dim>1</dim>
				</port>
			</input>
			<output>
				<port id="2" precision="FP32" names="inpaint_net/b3conv11/BiasAdd:0">
					<dim>1</dim>
					<dim>128</dim>
					<dim>128</dim>
					<dim>170</dim>
				</port>
			</output>
		</layer>
		<layer id="144" name="inpaint_net/b3conv11/Elu" type="Elu" version="opset1">
			<data alpha="1" />
			<input>
				<port id="0" precision="FP32">
					<dim>1</dim>
					<dim>128</dim>
					<dim>128</dim>
					<dim>170</dim>
				</port>
			</input>
			<output>
				<port id="1" precision="FP32" names="inpaint_net/b3conv11/Elu:0">
					<dim>1</dim>
					<dim>128</dim>
					<dim>128</dim>
					<dim>170</dim>
				</port>
			</output>
		</layer>
		<layer id="145" name="inpaint_net/b3conv12/kernel/read" type="Const" version="opset1">
			<data element_type="f32" shape="128, 128, 3, 3" offset="33202340" size="589824" />
			<output>
				<port id="0" precision="FP32" names="inpaint_net/b3conv12/kernel/read:0">
					<dim>128</dim>
					<dim>128</dim>
					<dim>3</dim>
					<dim>3</dim>
				</port>
			</output>
		</layer>
		<layer id="146" name="inpaint_net/b3conv12/Conv2D" type="Convolution" version="opset1">
			<data strides="1, 1" dilations="1, 1" pads_begin="0, 0" pads_end="0, 0" auto_pad="same_upper" />
			<input>
				<port id="0" precision="FP32">
					<dim>1</dim>
					<dim>128</dim>
					<dim>128</dim>
					<dim>170</dim>
				</port>
				<port id="1" precision="FP32">
					<dim>128</dim>
					<dim>128</dim>
					<dim>3</dim>
					<dim>3</dim>
				</port>
			</input>
			<output>
				<port id="2" precision="FP32" names="inpaint_net/b3conv12/Conv2D:0">
					<dim>1</dim>
					<dim>128</dim>
					<dim>128</dim>
					<dim>170</dim>
				</port>
			</output>
		</layer>
		<layer id="147" name="inpaint_net/b3conv12/bias/read" type="Const" version="opset1">
			<data element_type="f32" shape="1, 128, 1, 1" offset="33792164" size="512" />
			<output>
				<port id="0" precision="FP32" names="inpaint_net/b3conv12/bias/read:0">
					<dim>1</dim>
					<dim>128</dim>
					<dim>1</dim>
					<dim>1</dim>
				</port>
			</output>
		</layer>
		<layer id="148" name="inpaint_net/b3conv12/BiasAdd/Add" type="Add" version="opset1">
			<data auto_broadcast="numpy" />
			<input>
				<port id="0" precision="FP32">
					<dim>1</dim>
					<dim>128</dim>
					<dim>128</dim>
					<dim>170</dim>
				</port>
				<port id="1" precision="FP32">
					<dim>1</dim>
					<dim>128</dim>
					<dim>1</dim>
					<dim>1</dim>
				</port>
			</input>
			<output>
				<port id="2" precision="FP32" names="inpaint_net/b3conv12/BiasAdd:0">
					<dim>1</dim>
					<dim>128</dim>
					<dim>128</dim>
					<dim>170</dim>
				</port>
			</output>
		</layer>
		<layer id="149" name="inpaint_net/b3conv12/Elu" type="Elu" version="opset1">
			<data alpha="1" />
			<input>
				<port id="0" precision="FP32">
					<dim>1</dim>
					<dim>128</dim>
					<dim>128</dim>
					<dim>170</dim>
				</port>
			</input>
			<output>
				<port id="1" precision="FP32" names="inpaint_net/b3conv12/Elu:0">
					<dim>1</dim>
					<dim>128</dim>
					<dim>128</dim>
					<dim>170</dim>
				</port>
			</output>
		</layer>
		<layer id="150" name="inpaint_net/ResizeNearestNeighbor_1/size" type="Const" version="opset1">
			<data element_type="i64" shape="2" offset="33792676" size="16" />
			<output>
				<port id="0" precision="I64" names="inpaint_net/ResizeNearestNeighbor_1/size:0">
					<dim>2</dim>
				</port>
			</output>
		</layer>
		<layer id="151" name="447" type="Const" version="opset1">
			<data element_type="f32" shape="2" offset="33792692" size="8" />
			<output>
				<port id="0" precision="FP32">
					<dim>2</dim>
				</port>
			</output>
		</layer>
		<layer id="152" name="inpaint_net/ResizeNearestNeighbor_1/shapeof" type="ShapeOf" version="opset3">
			<data output_type="i64" />
			<input>
				<port id="0" precision="FP32">
					<dim>1</dim>
					<dim>128</dim>
					<dim>128</dim>
					<dim>170</dim>
				</port>
			</input>
			<output>
				<port id="1" precision="I64">
					<dim>4</dim>
				</port>
			</output>
		</layer>
		<layer id="153" name="inpaint_net/ResizeNearestNeighbor_1/shapeof/GatherNCHWtoNHWC_input_port_1/value953714087" type="Const" version="opset1">
			<data element_type="i32" shape="4" offset="44" size="16" />
			<output>
				<port id="0" precision="I32">
					<dim>4</dim>
				</port>
			</output>
		</layer>
		<layer id="154" name="inpaint_net/ResizeNearestNeighbor_1/shapeof/GatherNCHWtoNHWC_input_port_2/value953914291" type="Const" version="opset1">
			<data element_type="i64" shape="" offset="60" size="8" />
			<output>
				<port id="0" precision="I64" />
			</output>
		</layer>
		<layer id="155" name="inpaint_net/ResizeNearestNeighbor_1/shapeof/GatherNCHWtoNHWC" type="Gather" version="opset8">
			<data batch_dims="0" />
			<input>
				<port id="0" precision="I64">
					<dim>4</dim>
				</port>
				<port id="1" precision="I32">
					<dim>4</dim>
				</port>
				<port id="2" precision="I64" />
			</input>
			<output>
				<port id="3" precision="I64">
					<dim>4</dim>
				</port>
			</output>
		</layer>
		<layer id="156" name="inpaint_net/ResizeNearestNeighbor_1/StridedSlice_input_port_1/value" type="Const" version="opset1">
			<data element_type="i64" shape="1" offset="33792700" size="8" />
			<output>
				<port id="0" precision="I64">
					<dim>1</dim>
				</port>
			</output>
		</layer>
		<layer id="157" name="inpaint_net/ResizeNearestNeighbor_1/StridedSlice_input_port_2/value" type="Const" version="opset1">
			<data element_type="i64" shape="1" offset="33792708" size="8" />
			<output>
				<port id="0" precision="I64">
					<dim>1</dim>
				</port>
			</output>
		</layer>
		<layer id="158" name="inpaint_net/ResizeNearestNeighbor_1/StridedSlice_input_port_3/value" type="Const" version="opset1">
			<data element_type="i64" shape="1" offset="33792700" size="8" />
			<output>
				<port id="0" precision="I64">
					<dim>1</dim>
				</port>
			</output>
		</layer>
		<layer id="159" name="inpaint_net/ResizeNearestNeighbor_1/StridedSlice" type="StridedSlice" version="opset1">
			<data begin_mask="0" end_mask="0" new_axis_mask="0" shrink_axis_mask="0" ellipsis_mask="0" />
			<input>
				<port id="0" precision="I64">
					<dim>4</dim>
				</port>
				<port id="1" precision="I64">
					<dim>1</dim>
				</port>
				<port id="2" precision="I64">
					<dim>1</dim>
				</port>
				<port id="3" precision="I64">
					<dim>1</dim>
				</port>
			</input>
			<output>
				<port id="4" precision="I64">
					<dim>2</dim>
				</port>
			</output>
		</layer>
		<layer id="160" name="446" type="Convert" version="opset1">
			<data destination_type="f32" />
			<input>
				<port id="0" precision="I64">
					<dim>2</dim>
				</port>
			</input>
			<output>
				<port id="1" precision="FP32">
					<dim>2</dim>
				</port>
			</output>
		</layer>
		<layer id="161" name="inpaint_net/ResizeNearestNeighbor_1/Div" type="Divide" version="opset1">
			<data auto_broadcast="numpy" m_pythondiv="true" />
			<input>
				<port id="0" precision="FP32">
					<dim>2</dim>
				</port>
				<port id="1" precision="FP32">
					<dim>2</dim>
				</port>
			</input>
			<output>
				<port id="2" precision="FP32">
					<dim>2</dim>
				</port>
			</output>
		</layer>
		<layer id="162" name="991414006" type="Const" version="opset1">
			<data element_type="i64" shape="2" offset="33792716" size="16" />
			<output>
				<port id="0" precision="I64">
					<dim>2</dim>
				</port>
			</output>
		</layer>
		<layer id="163" name="inpaint_net/ResizeNearestNeighbor_1" type="Interpolate" version="opset4">
			<data mode="nearest" shape_calculation_mode="sizes" coordinate_transformation_mode="align_corners" nearest_mode="round_prefer_ceil" antialias="false" pads_begin="0, 0, 0, 0" pads_end="0, 0, 0, 0" cube_coeff="-0.75" />
			<input>
				<port id="0" precision="FP32">
					<dim>1</dim>
					<dim>128</dim>
					<dim>128</dim>
					<dim>170</dim>
				</port>
				<port id="1" precision="I64">
					<dim>2</dim>
				</port>
				<port id="2" precision="FP32">
					<dim>2</dim>
				</port>
				<port id="3" precision="I64">
					<dim>2</dim>
				</port>
			</input>
			<output>
				<port id="4" precision="FP32" names="inpaint_net/ResizeNearestNeighbor_1:0">
					<dim>1</dim>
					<dim>128</dim>
					<dim>256</dim>
					<dim>340</dim>
				</port>
			</output>
		</layer>
		<layer id="164" name="inpaint_net/b3conv13_upsample/b3conv13_upsample_conv/kernel/read" type="Const" version="opset1">
			<data element_type="f32" shape="64, 128, 3, 3" offset="33792732" size="294912" />
			<output>
				<port id="0" precision="FP32" names="inpaint_net/b3conv13_upsample/b3conv13_upsample_conv/kernel/read:0">
					<dim>64</dim>
					<dim>128</dim>
					<dim>3</dim>
					<dim>3</dim>
				</port>
			</output>
		</layer>
		<layer id="165" name="inpaint_net/b3conv13_upsample/b3conv13_upsample_conv/Conv2D" type="Convolution" version="opset1">
			<data strides="1, 1" dilations="1, 1" pads_begin="0, 0" pads_end="0, 0" auto_pad="same_upper" />
			<input>
				<port id="0" precision="FP32">
					<dim>1</dim>
					<dim>128</dim>
					<dim>256</dim>
					<dim>340</dim>
				</port>
				<port id="1" precision="FP32">
					<dim>64</dim>
					<dim>128</dim>
					<dim>3</dim>
					<dim>3</dim>
				</port>
			</input>
			<output>
				<port id="2" precision="FP32" names="inpaint_net/b3conv13_upsample/b3conv13_upsample_conv/Conv2D:0">
					<dim>1</dim>
					<dim>64</dim>
					<dim>256</dim>
					<dim>340</dim>
				</port>
			</output>
		</layer>
		<layer id="166" name="inpaint_net/b3conv13_upsample/b3conv13_upsample_conv/bias/read" type="Const" version="opset1">
			<data element_type="f32" shape="1, 64, 1, 1" offset="34087644" size="256" />
			<output>
				<port id="0" precision="FP32" names="inpaint_net/b3conv13_upsample/b3conv13_upsample_conv/bias/read:0">
					<dim>1</dim>
					<dim>64</dim>
					<dim>1</dim>
					<dim>1</dim>
				</port>
			</output>
		</layer>
		<layer id="167" name="inpaint_net/b3conv13_upsample/b3conv13_upsample_conv/BiasAdd/Add" type="Add" version="opset1">
			<data auto_broadcast="numpy" />
			<input>
				<port id="0" precision="FP32">
					<dim>1</dim>
					<dim>64</dim>
					<dim>256</dim>
					<dim>340</dim>
				</port>
				<port id="1" precision="FP32">
					<dim>1</dim>
					<dim>64</dim>
					<dim>1</dim>
					<dim>1</dim>
				</port>
			</input>
			<output>
				<port id="2" precision="FP32" names="inpaint_net/b3conv13_upsample/b3conv13_upsample_conv/BiasAdd:0">
					<dim>1</dim>
					<dim>64</dim>
					<dim>256</dim>
					<dim>340</dim>
				</port>
			</output>
		</layer>
		<layer id="168" name="inpaint_net/b3conv13_upsample/b3conv13_upsample_conv/Elu" type="Elu" version="opset1">
			<data alpha="1" />
			<input>
				<port id="0" precision="FP32">
					<dim>1</dim>
					<dim>64</dim>
					<dim>256</dim>
					<dim>340</dim>
				</port>
			</input>
			<output>
				<port id="1" precision="FP32" names="inpaint_net/b3conv13_upsample/b3conv13_upsample_conv/Elu:0">
					<dim>1</dim>
					<dim>64</dim>
					<dim>256</dim>
					<dim>340</dim>
				</port>
			</output>
		</layer>
		<layer id="169" name="inpaint_net/b3conv14/kernel/read" type="Const" version="opset1">
			<data element_type="f32" shape="64, 64, 3, 3" offset="34087900" size="147456" />
			<output>
				<port id="0" precision="FP32" names="inpaint_net/b3conv14/kernel/read:0">
					<dim>64</dim>
					<dim>64</dim>
					<dim>3</dim>
					<dim>3</dim>
				</port>
			</output>
		</layer>
		<layer id="170" name="inpaint_net/b3conv14/Conv2D" type="Convolution" version="opset1">
			<data strides="1, 1" dilations="1, 1" pads_begin="0, 0" pads_end="0, 0" auto_pad="same_upper" />
			<input>
				<port id="0" precision="FP32">
					<dim>1</dim>
					<dim>64</dim>
					<dim>256</dim>
					<dim>340</dim>
				</port>
				<port id="1" precision="FP32">
					<dim>64</dim>
					<dim>64</dim>
					<dim>3</dim>
					<dim>3</dim>
				</port>
			</input>
			<output>
				<port id="2" precision="FP32" names="inpaint_net/b3conv14/Conv2D:0">
					<dim>1</dim>
					<dim>64</dim>
					<dim>256</dim>
					<dim>340</dim>
				</port>
			</output>
		</layer>
		<layer id="171" name="inpaint_net/b3conv14/bias/read" type="Const" version="opset1">
			<data element_type="f32" shape="1, 64, 1, 1" offset="34235356" size="256" />
			<output>
				<port id="0" precision="FP32" names="inpaint_net/b3conv14/bias/read:0">
					<dim>1</dim>
					<dim>64</dim>
					<dim>1</dim>
					<dim>1</dim>
				</port>
			</output>
		</layer>
		<layer id="172" name="inpaint_net/b3conv14/BiasAdd/Add" type="Add" version="opset1">
			<data auto_broadcast="numpy" />
			<input>
				<port id="0" precision="FP32">
					<dim>1</dim>
					<dim>64</dim>
					<dim>256</dim>
					<dim>340</dim>
				</port>
				<port id="1" precision="FP32">
					<dim>1</dim>
					<dim>64</dim>
					<dim>1</dim>
					<dim>1</dim>
				</port>
			</input>
			<output>
				<port id="2" precision="FP32" names="inpaint_net/b3conv14/BiasAdd:0">
					<dim>1</dim>
					<dim>64</dim>
					<dim>256</dim>
					<dim>340</dim>
				</port>
			</output>
		</layer>
		<layer id="173" name="inpaint_net/b3conv14/Elu" type="Elu" version="opset1">
			<data alpha="1" />
			<input>
				<port id="0" precision="FP32">
					<dim>1</dim>
					<dim>64</dim>
					<dim>256</dim>
					<dim>340</dim>
				</port>
			</input>
			<output>
				<port id="1" precision="FP32" names="inpaint_net/b3conv14/Elu:0">
					<dim>1</dim>
					<dim>64</dim>
					<dim>256</dim>
					<dim>340</dim>
				</port>
			</output>
		</layer>
		<layer id="174" name="inpaint_net/ResizeNearestNeighbor_2/size" type="Const" version="opset1">
			<data element_type="i64" shape="2" offset="34235612" size="16" />
			<output>
				<port id="0" precision="I64" names="inpaint_net/ResizeNearestNeighbor_2/size:0">
					<dim>2</dim>
				</port>
			</output>
		</layer>
		<layer id="175" name="457" type="Const" version="opset1">
			<data element_type="f32" shape="2" offset="34235628" size="8" />
			<output>
				<port id="0" precision="FP32">
					<dim>2</dim>
				</port>
			</output>
		</layer>
		<layer id="176" name="inpaint_net/ResizeNearestNeighbor_2/shapeof" type="ShapeOf" version="opset3">
			<data output_type="i64" />
			<input>
				<port id="0" precision="FP32">
					<dim>1</dim>
					<dim>64</dim>
					<dim>256</dim>
					<dim>340</dim>
				</port>
			</input>
			<output>
				<port id="1" precision="I64">
					<dim>4</dim>
				</port>
			</output>
		</layer>
		<layer id="177" name="inpaint_net/ResizeNearestNeighbor_2/shapeof/GatherNCHWtoNHWC_input_port_1/value954313973" type="Const" version="opset1">
			<data element_type="i32" shape="4" offset="44" size="16" />
			<output>
				<port id="0" precision="I32">
					<dim>4</dim>
				</port>
			</output>
		</layer>
		<layer id="178" name="inpaint_net/ResizeNearestNeighbor_2/shapeof/GatherNCHWtoNHWC_input_port_2/value954514177" type="Const" version="opset1">
			<data element_type="i64" shape="" offset="60" size="8" />
			<output>
				<port id="0" precision="I64" />
			</output>
		</layer>
		<layer id="179" name="inpaint_net/ResizeNearestNeighbor_2/shapeof/GatherNCHWtoNHWC" type="Gather" version="opset8">
			<data batch_dims="0" />
			<input>
				<port id="0" precision="I64">
					<dim>4</dim>
				</port>
				<port id="1" precision="I32">
					<dim>4</dim>
				</port>
				<port id="2" precision="I64" />
			</input>
			<output>
				<port id="3" precision="I64">
					<dim>4</dim>
				</port>
			</output>
		</layer>
		<layer id="180" name="inpaint_net/ResizeNearestNeighbor_2/StridedSlice_input_port_1/value" type="Const" version="opset1">
			<data element_type="i64" shape="1" offset="33792700" size="8" />
			<output>
				<port id="0" precision="I64">
					<dim>1</dim>
				</port>
			</output>
		</layer>
		<layer id="181" name="inpaint_net/ResizeNearestNeighbor_2/StridedSlice_input_port_2/value" type="Const" version="opset1">
			<data element_type="i64" shape="1" offset="33792708" size="8" />
			<output>
				<port id="0" precision="I64">
					<dim>1</dim>
				</port>
			</output>
		</layer>
		<layer id="182" name="inpaint_net/ResizeNearestNeighbor_2/StridedSlice_input_port_3/value" type="Const" version="opset1">
			<data element_type="i64" shape="1" offset="33792700" size="8" />
			<output>
				<port id="0" precision="I64">
					<dim>1</dim>
				</port>
			</output>
		</layer>
		<layer id="183" name="inpaint_net/ResizeNearestNeighbor_2/StridedSlice" type="StridedSlice" version="opset1">
			<data begin_mask="0" end_mask="0" new_axis_mask="0" shrink_axis_mask="0" ellipsis_mask="0" />
			<input>
				<port id="0" precision="I64">
					<dim>4</dim>
				</port>
				<port id="1" precision="I64">
					<dim>1</dim>
				</port>
				<port id="2" precision="I64">
					<dim>1</dim>
				</port>
				<port id="3" precision="I64">
					<dim>1</dim>
				</port>
			</input>
			<output>
				<port id="4" precision="I64">
					<dim>2</dim>
				</port>
			</output>
		</layer>
		<layer id="184" name="456" type="Convert" version="opset1">
			<data destination_type="f32" />
			<input>
				<port id="0" precision="I64">
					<dim>2</dim>
				</port>
			</input>
			<output>
				<port id="1" precision="FP32">
					<dim>2</dim>
				</port>
			</output>
		</layer>
		<layer id="185" name="inpaint_net/ResizeNearestNeighbor_2/Div" type="Divide" version="opset1">
			<data auto_broadcast="numpy" m_pythondiv="true" />
			<input>
				<port id="0" precision="FP32">
					<dim>2</dim>
				</port>
				<port id="1" precision="FP32">
					<dim>2</dim>
				</port>
			</input>
			<output>
				<port id="2" precision="FP32">
					<dim>2</dim>
				</port>
			</output>
		</layer>
		<layer id="186" name="992014219" type="Const" version="opset1">
			<data element_type="i64" shape="2" offset="33792716" size="16" />
			<output>
				<port id="0" precision="I64">
					<dim>2</dim>
				</port>
			</output>
		</layer>
		<layer id="187" name="inpaint_net/ResizeNearestNeighbor_2" type="Interpolate" version="opset4">
			<data mode="nearest" shape_calculation_mode="sizes" coordinate_transformation_mode="align_corners" nearest_mode="round_prefer_ceil" antialias="false" pads_begin="0, 0, 0, 0" pads_end="0, 0, 0, 0" cube_coeff="-0.75" />
			<input>
				<port id="0" precision="FP32">
					<dim>1</dim>
					<dim>64</dim>
					<dim>256</dim>
					<dim>340</dim>
				</port>
				<port id="1" precision="I64">
					<dim>2</dim>
				</port>
				<port id="2" precision="FP32">
					<dim>2</dim>
				</port>
				<port id="3" precision="I64">
					<dim>2</dim>
				</port>
			</input>
			<output>
				<port id="4" precision="FP32" names="inpaint_net/ResizeNearestNeighbor_2:0">
					<dim>1</dim>
					<dim>64</dim>
					<dim>512</dim>
					<dim>680</dim>
				</port>
			</output>
		</layer>
		<layer id="188" name="inpaint_net/b3conv15_upsample/b3conv15_upsample_conv/kernel/read" type="Const" version="opset1">
			<data element_type="f32" shape="32, 64, 3, 3" offset="34235636" size="73728" />
			<output>
				<port id="0" precision="FP32" names="inpaint_net/b3conv15_upsample/b3conv15_upsample_conv/kernel/read:0">
					<dim>32</dim>
					<dim>64</dim>
					<dim>3</dim>
					<dim>3</dim>
				</port>
			</output>
		</layer>
		<layer id="189" name="inpaint_net/b3conv15_upsample/b3conv15_upsample_conv/Conv2D" type="Convolution" version="opset1">
			<data strides="1, 1" dilations="1, 1" pads_begin="0, 0" pads_end="0, 0" auto_pad="same_upper" />
			<input>
				<port id="0" precision="FP32">
					<dim>1</dim>
					<dim>64</dim>
					<dim>512</dim>
					<dim>680</dim>
				</port>
				<port id="1" precision="FP32">
					<dim>32</dim>
					<dim>64</dim>
					<dim>3</dim>
					<dim>3</dim>
				</port>
			</input>
			<output>
				<port id="2" precision="FP32" names="inpaint_net/b3conv15_upsample/b3conv15_upsample_conv/Conv2D:0">
					<dim>1</dim>
					<dim>32</dim>
					<dim>512</dim>
					<dim>680</dim>
				</port>
			</output>
		</layer>
		<layer id="190" name="inpaint_net/b3conv15_upsample/b3conv15_upsample_conv/bias/read" type="Const" version="opset1">
			<data element_type="f32" shape="1, 32, 1, 1" offset="34309364" size="128" />
			<output>
				<port id="0" precision="FP32" names="inpaint_net/b3conv15_upsample/b3conv15_upsample_conv/bias/read:0">
					<dim>1</dim>
					<dim>32</dim>
					<dim>1</dim>
					<dim>1</dim>
				</port>
			</output>
		</layer>
		<layer id="191" name="inpaint_net/b3conv15_upsample/b3conv15_upsample_conv/BiasAdd/Add" type="Add" version="opset1">
			<data auto_broadcast="numpy" />
			<input>
				<port id="0" precision="FP32">
					<dim>1</dim>
					<dim>32</dim>
					<dim>512</dim>
					<dim>680</dim>
				</port>
				<port id="1" precision="FP32">
					<dim>1</dim>
					<dim>32</dim>
					<dim>1</dim>
					<dim>1</dim>
				</port>
			</input>
			<output>
				<port id="2" precision="FP32" names="inpaint_net/b3conv15_upsample/b3conv15_upsample_conv/BiasAdd:0">
					<dim>1</dim>
					<dim>32</dim>
					<dim>512</dim>
					<dim>680</dim>
				</port>
			</output>
		</layer>
		<layer id="192" name="inpaint_net/b3conv15_upsample/b3conv15_upsample_conv/Elu" type="Elu" version="opset1">
			<data alpha="1" />
			<input>
				<port id="0" precision="FP32">
					<dim>1</dim>
					<dim>32</dim>
					<dim>512</dim>
					<dim>680</dim>
				</port>
			</input>
			<output>
				<port id="1" precision="FP32" names="inpaint_net/b3conv15_upsample/b3conv15_upsample_conv/Elu:0">
					<dim>1</dim>
					<dim>32</dim>
					<dim>512</dim>
					<dim>680</dim>
				</port>
			</output>
		</layer>
		<layer id="193" name="inpaint_net/b3conv16/kernel/read" type="Const" version="opset1">
			<data element_type="f32" shape="16, 32, 3, 3" offset="34309492" size="18432" />
			<output>
				<port id="0" precision="FP32" names="inpaint_net/b3conv16/kernel/read:0">
					<dim>16</dim>
					<dim>32</dim>
					<dim>3</dim>
					<dim>3</dim>
				</port>
			</output>
		</layer>
		<layer id="194" name="inpaint_net/b3conv16/Conv2D" type="Convolution" version="opset1">
			<data strides="1, 1" dilations="1, 1" pads_begin="0, 0" pads_end="0, 0" auto_pad="same_upper" />
			<input>
				<port id="0" precision="FP32">
					<dim>1</dim>
					<dim>32</dim>
					<dim>512</dim>
					<dim>680</dim>
				</port>
				<port id="1" precision="FP32">
					<dim>16</dim>
					<dim>32</dim>
					<dim>3</dim>
					<dim>3</dim>
				</port>
			</input>
			<output>
				<port id="2" precision="FP32" names="inpaint_net/b3conv16/Conv2D:0">
					<dim>1</dim>
					<dim>16</dim>
					<dim>512</dim>
					<dim>680</dim>
				</port>
			</output>
		</layer>
		<layer id="195" name="inpaint_net/b3conv16/bias/read" type="Const" version="opset1">
			<data element_type="f32" shape="1, 16, 1, 1" offset="34327924" size="64" />
			<output>
				<port id="0" precision="FP32" names="inpaint_net/b3conv16/bias/read:0">
					<dim>1</dim>
					<dim>16</dim>
					<dim>1</dim>
					<dim>1</dim>
				</port>
			</output>
		</layer>
		<layer id="196" name="inpaint_net/b3conv16/BiasAdd/Add" type="Add" version="opset1">
			<data auto_broadcast="numpy" />
			<input>
				<port id="0" precision="FP32">
					<dim>1</dim>
					<dim>16</dim>
					<dim>512</dim>
					<dim>680</dim>
				</port>
				<port id="1" precision="FP32">
					<dim>1</dim>
					<dim>16</dim>
					<dim>1</dim>
					<dim>1</dim>
				</port>
			</input>
			<output>
				<port id="2" precision="FP32" names="inpaint_net/b3conv16/BiasAdd:0">
					<dim>1</dim>
					<dim>16</dim>
					<dim>512</dim>
					<dim>680</dim>
				</port>
			</output>
		</layer>
		<layer id="197" name="inpaint_net/b3conv16/Elu" type="Elu" version="opset1">
			<data alpha="1" />
			<input>
				<port id="0" precision="FP32">
					<dim>1</dim>
					<dim>16</dim>
					<dim>512</dim>
					<dim>680</dim>
				</port>
			</input>
			<output>
				<port id="1" precision="FP32" names="inpaint_net/b3conv16/Elu:0">
					<dim>1</dim>
					<dim>16</dim>
					<dim>512</dim>
					<dim>680</dim>
				</port>
			</output>
		</layer>
		<layer id="198" name="inpaint_net/b3conv16/Elu/Shape" type="ShapeOf" version="opset3">
			<data output_type="i64" />
			<input>
				<port id="0" precision="FP32">
					<dim>1</dim>
					<dim>16</dim>
					<dim>512</dim>
					<dim>680</dim>
				</port>
			</input>
			<output>
				<port id="1" precision="I64">
					<dim>4</dim>
				</port>
			</output>
		</layer>
		<layer id="199" name="inpaint_net/b3conv16/Elu/Shape/Gathered_input_port_1/value1056514216" type="Const" version="opset1">
			<data element_type="i32" shape="2" offset="34327988" size="8" />
			<output>
				<port id="0" precision="I32">
					<dim>2</dim>
				</port>
			</output>
		</layer>
		<layer id="200" name="inpaint_net/b3conv16/Elu/Shape/Gathered_input_port_2/value1056714222" type="Const" version="opset1">
			<data element_type="i64" shape="" offset="60" size="8" />
			<output>
				<port id="0" precision="I64" />
			</output>
		</layer>
		<layer id="201" name="inpaint_net/b3conv16/Elu/Shape/Gathered" type="Gather" version="opset8">
			<data batch_dims="0" />
			<input>
				<port id="0" precision="I64">
					<dim>4</dim>
				</port>
				<port id="1" precision="I32">
					<dim>2</dim>
				</port>
				<port id="2" precision="I64" />
			</input>
			<output>
				<port id="3" precision="I64" names="inpaint_net/ResizeBilinear/size:0">
					<dim>2</dim>
				</port>
			</output>
		</layer>
		<layer id="202" name="437" type="Const" version="opset1">
			<data element_type="f32" shape="2" offset="34235628" size="8" />
			<output>
				<port id="0" precision="FP32">
					<dim>2</dim>
				</port>
			</output>
		</layer>
		<layer id="203" name="inpaint_net/ResizeBilinear/shapeof" type="ShapeOf" version="opset3">
			<data output_type="i64" />
			<input>
				<port id="0" precision="FP32">
					<dim>1</dim>
					<dim>128</dim>
					<dim>128</dim>
					<dim>170</dim>
				</port>
			</input>
			<output>
				<port id="1" precision="I64">
					<dim>4</dim>
				</port>
			</output>
		</layer>
		<layer id="204" name="inpaint_net/ResizeBilinear/shapeof/GatherNCHWtoNHWC_input_port_1/value953113994" type="Const" version="opset1">
			<data element_type="i32" shape="4" offset="44" size="16" />
			<output>
				<port id="0" precision="I32">
					<dim>4</dim>
				</port>
			</output>
		</layer>
		<layer id="205" name="inpaint_net/ResizeBilinear/shapeof/GatherNCHWtoNHWC_input_port_2/value953314192" type="Const" version="opset1">
			<data element_type="i64" shape="" offset="60" size="8" />
			<output>
				<port id="0" precision="I64" />
			</output>
		</layer>
		<layer id="206" name="inpaint_net/ResizeBilinear/shapeof/GatherNCHWtoNHWC" type="Gather" version="opset8">
			<data batch_dims="0" />
			<input>
				<port id="0" precision="I64">
					<dim>4</dim>
				</port>
				<port id="1" precision="I32">
					<dim>4</dim>
				</port>
				<port id="2" precision="I64" />
			</input>
			<output>
				<port id="3" precision="I64">
					<dim>4</dim>
				</port>
			</output>
		</layer>
		<layer id="207" name="inpaint_net/ResizeBilinear/StridedSlice_input_port_1/value" type="Const" version="opset1">
			<data element_type="i64" shape="1" offset="33792700" size="8" />
			<output>
				<port id="0" precision="I64">
					<dim>1</dim>
				</port>
			</output>
		</layer>
		<layer id="208" name="inpaint_net/ResizeBilinear/StridedSlice_input_port_2/value" type="Const" version="opset1">
			<data element_type="i64" shape="1" offset="33792708" size="8" />
			<output>
				<port id="0" precision="I64">
					<dim>1</dim>
				</port>
			</output>
		</layer>
		<layer id="209" name="inpaint_net/ResizeBilinear/StridedSlice_input_port_3/value" type="Const" version="opset1">
			<data element_type="i64" shape="1" offset="33792700" size="8" />
			<output>
				<port id="0" precision="I64">
					<dim>1</dim>
				</port>
			</output>
		</layer>
		<layer id="210" name="inpaint_net/ResizeBilinear/StridedSlice" type="StridedSlice" version="opset1">
			<data begin_mask="0" end_mask="0" new_axis_mask="0" shrink_axis_mask="0" ellipsis_mask="0" />
			<input>
				<port id="0" precision="I64">
					<dim>4</dim>
				</port>
				<port id="1" precision="I64">
					<dim>1</dim>
				</port>
				<port id="2" precision="I64">
					<dim>1</dim>
				</port>
				<port id="3" precision="I64">
					<dim>1</dim>
				</port>
			</input>
			<output>
				<port id="4" precision="I64">
					<dim>2</dim>
				</port>
			</output>
		</layer>
		<layer id="211" name="436" type="Convert" version="opset1">
			<data destination_type="f32" />
			<input>
				<port id="0" precision="I64">
					<dim>2</dim>
				</port>
			</input>
			<output>
				<port id="1" precision="FP32">
					<dim>2</dim>
				</port>
			</output>
		</layer>
		<layer id="212" name="inpaint_net/ResizeBilinear/Div" type="Divide" version="opset1">
			<data auto_broadcast="numpy" m_pythondiv="true" />
			<input>
				<port id="0" precision="FP32">
					<dim>2</dim>
				</port>
				<port id="1" precision="FP32">
					<dim>2</dim>
				</port>
			</input>
			<output>
				<port id="2" precision="FP32">
					<dim>2</dim>
				</port>
			</output>
		</layer>
		<layer id="213" name="990814330" type="Const" version="opset1">
			<data element_type="i64" shape="2" offset="33792716" size="16" />
			<output>
				<port id="0" precision="I64">
					<dim>2</dim>
				</port>
			</output>
		</layer>
		<layer id="214" name="inpaint_net/ResizeBilinear" type="Interpolate" version="opset4">
			<data mode="linear_onnx" shape_calculation_mode="sizes" coordinate_transformation_mode="align_corners" nearest_mode="round_prefer_floor" antialias="false" pads_begin="0, 0, 0, 0" pads_end="0, 0, 0, 0" cube_coeff="-0.75" />
			<input>
				<port id="0" precision="FP32">
					<dim>1</dim>
					<dim>128</dim>
					<dim>128</dim>
					<dim>170</dim>
				</port>
				<port id="1" precision="I64">
					<dim>2</dim>
				</port>
				<port id="2" precision="FP32">
					<dim>2</dim>
				</port>
				<port id="3" precision="I64">
					<dim>2</dim>
				</port>
			</input>
			<output>
				<port id="4" precision="FP32" names="inpaint_net/ResizeBilinear:0">
					<dim>1</dim>
					<dim>128</dim>
					<dim>512</dim>
					<dim>680</dim>
				</port>
			</output>
		</layer>
		<layer id="215" name="inpaint_net/b2conv1/kernel/read" type="Const" version="opset1">
			<data element_type="f32" shape="32, 5, 5, 5" offset="34327996" size="16000" />
			<output>
				<port id="0" precision="FP32" names="inpaint_net/b2conv1/kernel/read:0">
					<dim>32</dim>
					<dim>5</dim>
					<dim>5</dim>
					<dim>5</dim>
				</port>
			</output>
		</layer>
		<layer id="216" name="inpaint_net/b2conv1/Conv2D" type="Convolution" version="opset1">
			<data strides="1, 1" dilations="1, 1" pads_begin="0, 0" pads_end="0, 0" auto_pad="same_upper" />
			<input>
				<port id="0" precision="FP32">
					<dim>1</dim>
					<dim>5</dim>
					<dim>512</dim>
					<dim>680</dim>
				</port>
				<port id="1" precision="FP32">
					<dim>32</dim>
					<dim>5</dim>
					<dim>5</dim>
					<dim>5</dim>
				</port>
			</input>
			<output>
				<port id="2" precision="FP32" names="inpaint_net/b2conv1/Conv2D:0">
					<dim>1</dim>
					<dim>32</dim>
					<dim>512</dim>
					<dim>680</dim>
				</port>
			</output>
		</layer>
		<layer id="217" name="inpaint_net/b2conv1/bias/read" type="Const" version="opset1">
			<data element_type="f32" shape="1, 32, 1, 1" offset="34343996" size="128" />
			<output>
				<port id="0" precision="FP32" names="inpaint_net/b2conv1/bias/read:0">
					<dim>1</dim>
					<dim>32</dim>
					<dim>1</dim>
					<dim>1</dim>
				</port>
			</output>
		</layer>
		<layer id="218" name="inpaint_net/b2conv1/BiasAdd/Add" type="Add" version="opset1">
			<data auto_broadcast="numpy" />
			<input>
				<port id="0" precision="FP32">
					<dim>1</dim>
					<dim>32</dim>
					<dim>512</dim>
					<dim>680</dim>
				</port>
				<port id="1" precision="FP32">
					<dim>1</dim>
					<dim>32</dim>
					<dim>1</dim>
					<dim>1</dim>
				</port>
			</input>
			<output>
				<port id="2" precision="FP32" names="inpaint_net/b2conv1/BiasAdd:0">
					<dim>1</dim>
					<dim>32</dim>
					<dim>512</dim>
					<dim>680</dim>
				</port>
			</output>
		</layer>
		<layer id="219" name="inpaint_net/b2conv1/Elu" type="Elu" version="opset1">
			<data alpha="1" />
			<input>
				<port id="0" precision="FP32">
					<dim>1</dim>
					<dim>32</dim>
					<dim>512</dim>
					<dim>680</dim>
				</port>
			</input>
			<output>
				<port id="1" precision="FP32" names="inpaint_net/b2conv1/Elu:0">
					<dim>1</dim>
					<dim>32</dim>
					<dim>512</dim>
					<dim>680</dim>
				</port>
			</output>
		</layer>
		<layer id="220" name="inpaint_net/b2conv2_downsample/kernel/read" type="Const" version="opset1">
			<data element_type="f32" shape="64, 32, 5, 5" offset="34344124" size="204800" />
			<output>
				<port id="0" precision="FP32" names="inpaint_net/b2conv2_downsample/kernel/read:0">
					<dim>64</dim>
					<dim>32</dim>
					<dim>5</dim>
					<dim>5</dim>
				</port>
			</output>
		</layer>
		<layer id="221" name="inpaint_net/b2conv2_downsample/Conv2D" type="Convolution" version="opset1">
			<data strides="2, 2" dilations="1, 1" pads_begin="0, 0" pads_end="0, 0" auto_pad="same_upper" />
			<input>
				<port id="0" precision="FP32">
					<dim>1</dim>
					<dim>32</dim>
					<dim>512</dim>
					<dim>680</dim>
				</port>
				<port id="1" precision="FP32">
					<dim>64</dim>
					<dim>32</dim>
					<dim>5</dim>
					<dim>5</dim>
				</port>
			</input>
			<output>
				<port id="2" precision="FP32" names="inpaint_net/b2conv2_downsample/Conv2D:0">
					<dim>1</dim>
					<dim>64</dim>
					<dim>256</dim>
					<dim>340</dim>
				</port>
			</output>
		</layer>
		<layer id="222" name="inpaint_net/b2conv2_downsample/bias/read" type="Const" version="opset1">
			<data element_type="f32" shape="1, 64, 1, 1" offset="34548924" size="256" />
			<output>
				<port id="0" precision="FP32" names="inpaint_net/b2conv2_downsample/bias/read:0">
					<dim>1</dim>
					<dim>64</dim>
					<dim>1</dim>
					<dim>1</dim>
				</port>
			</output>
		</layer>
		<layer id="223" name="inpaint_net/b2conv2_downsample/BiasAdd/Add" type="Add" version="opset1">
			<data auto_broadcast="numpy" />
			<input>
				<port id="0" precision="FP32">
					<dim>1</dim>
					<dim>64</dim>
					<dim>256</dim>
					<dim>340</dim>
				</port>
				<port id="1" precision="FP32">
					<dim>1</dim>
					<dim>64</dim>
					<dim>1</dim>
					<dim>1</dim>
				</port>
			</input>
			<output>
				<port id="2" precision="FP32" names="inpaint_net/b2conv2_downsample/BiasAdd:0">
					<dim>1</dim>
					<dim>64</dim>
					<dim>256</dim>
					<dim>340</dim>
				</port>
			</output>
		</layer>
		<layer id="224" name="inpaint_net/b2conv2_downsample/Elu" type="Elu" version="opset1">
			<data alpha="1" />
			<input>
				<port id="0" precision="FP32">
					<dim>1</dim>
					<dim>64</dim>
					<dim>256</dim>
					<dim>340</dim>
				</port>
			</input>
			<output>
				<port id="1" precision="FP32" names="inpaint_net/b2conv2_downsample/Elu:0">
					<dim>1</dim>
					<dim>64</dim>
					<dim>256</dim>
					<dim>340</dim>
				</port>
			</output>
		</layer>
		<layer id="225" name="inpaint_net/b2conv3/kernel/read" type="Const" version="opset1">
			<data element_type="f32" shape="64, 64, 5, 5" offset="34549180" size="409600" />
			<output>
				<port id="0" precision="FP32" names="inpaint_net/b2conv3/kernel/read:0">
					<dim>64</dim>
					<dim>64</dim>
					<dim>5</dim>
					<dim>5</dim>
				</port>
			</output>
		</layer>
		<layer id="226" name="inpaint_net/b2conv3/Conv2D" type="Convolution" version="opset1">
			<data strides="1, 1" dilations="1, 1" pads_begin="0, 0" pads_end="0, 0" auto_pad="same_upper" />
			<input>
				<port id="0" precision="FP32">
					<dim>1</dim>
					<dim>64</dim>
					<dim>256</dim>
					<dim>340</dim>
				</port>
				<port id="1" precision="FP32">
					<dim>64</dim>
					<dim>64</dim>
					<dim>5</dim>
					<dim>5</dim>
				</port>
			</input>
			<output>
				<port id="2" precision="FP32" names="inpaint_net/b2conv3/Conv2D:0">
					<dim>1</dim>
					<dim>64</dim>
					<dim>256</dim>
					<dim>340</dim>
				</port>
			</output>
		</layer>
		<layer id="227" name="inpaint_net/b2conv3/bias/read" type="Const" version="opset1">
			<data element_type="f32" shape="1, 64, 1, 1" offset="34958780" size="256" />
			<output>
				<port id="0" precision="FP32" names="inpaint_net/b2conv3/bias/read:0">
					<dim>1</dim>
					<dim>64</dim>
					<dim>1</dim>
					<dim>1</dim>
				</port>
			</output>
		</layer>
		<layer id="228" name="inpaint_net/b2conv3/BiasAdd/Add" type="Add" version="opset1">
			<data auto_broadcast="numpy" />
			<input>
				<port id="0" precision="FP32">
					<dim>1</dim>
					<dim>64</dim>
					<dim>256</dim>
					<dim>340</dim>
				</port>
				<port id="1" precision="FP32">
					<dim>1</dim>
					<dim>64</dim>
					<dim>1</dim>
					<dim>1</dim>
				</port>
			</input>
			<output>
				<port id="2" precision="FP32" names="inpaint_net/b2conv3/BiasAdd:0">
					<dim>1</dim>
					<dim>64</dim>
					<dim>256</dim>
					<dim>340</dim>
				</port>
			</output>
		</layer>
		<layer id="229" name="inpaint_net/b2conv3/Elu" type="Elu" version="opset1">
			<data alpha="1" />
			<input>
				<port id="0" precision="FP32">
					<dim>1</dim>
					<dim>64</dim>
					<dim>256</dim>
					<dim>340</dim>
				</port>
			</input>
			<output>
				<port id="1" precision="FP32" names="inpaint_net/b2conv3/Elu:0">
					<dim>1</dim>
					<dim>64</dim>
					<dim>256</dim>
					<dim>340</dim>
				</port>
			</output>
		</layer>
		<layer id="230" name="inpaint_net/b2conv4_downsample/kernel/read" type="Const" version="opset1">
			<data element_type="f32" shape="128, 64, 5, 5" offset="34959036" size="819200" />
			<output>
				<port id="0" precision="FP32" names="inpaint_net/b2conv4_downsample/kernel/read:0">
					<dim>128</dim>
					<dim>64</dim>
					<dim>5</dim>
					<dim>5</dim>
				</port>
			</output>
		</layer>
		<layer id="231" name="inpaint_net/b2conv4_downsample/Conv2D" type="Convolution" version="opset1">
			<data strides="2, 2" dilations="1, 1" pads_begin="0, 0" pads_end="0, 0" auto_pad="same_upper" />
			<input>
				<port id="0" precision="FP32">
					<dim>1</dim>
					<dim>64</dim>
					<dim>256</dim>
					<dim>340</dim>
				</port>
				<port id="1" precision="FP32">
					<dim>128</dim>
					<dim>64</dim>
					<dim>5</dim>
					<dim>5</dim>
				</port>
			</input>
			<output>
				<port id="2" precision="FP32" names="inpaint_net/b2conv4_downsample/Conv2D:0">
					<dim>1</dim>
					<dim>128</dim>
					<dim>128</dim>
					<dim>170</dim>
				</port>
			</output>
		</layer>
		<layer id="232" name="inpaint_net/b2conv4_downsample/bias/read" type="Const" version="opset1">
			<data element_type="f32" shape="1, 128, 1, 1" offset="35778236" size="512" />
			<output>
				<port id="0" precision="FP32" names="inpaint_net/b2conv4_downsample/bias/read:0">
					<dim>1</dim>
					<dim>128</dim>
					<dim>1</dim>
					<dim>1</dim>
				</port>
			</output>
		</layer>
		<layer id="233" name="inpaint_net/b2conv4_downsample/BiasAdd/Add" type="Add" version="opset1">
			<data auto_broadcast="numpy" />
			<input>
				<port id="0" precision="FP32">
					<dim>1</dim>
					<dim>128</dim>
					<dim>128</dim>
					<dim>170</dim>
				</port>
				<port id="1" precision="FP32">
					<dim>1</dim>
					<dim>128</dim>
					<dim>1</dim>
					<dim>1</dim>
				</port>
			</input>
			<output>
				<port id="2" precision="FP32" names="inpaint_net/b2conv4_downsample/BiasAdd:0">
					<dim>1</dim>
					<dim>128</dim>
					<dim>128</dim>
					<dim>170</dim>
				</port>
			</output>
		</layer>
		<layer id="234" name="inpaint_net/b2conv4_downsample/Elu" type="Elu" version="opset1">
			<data alpha="1" />
			<input>
				<port id="0" precision="FP32">
					<dim>1</dim>
					<dim>128</dim>
					<dim>128</dim>
					<dim>170</dim>
				</port>
			</input>
			<output>
				<port id="1" precision="FP32" names="inpaint_net/b2conv4_downsample/Elu:0">
					<dim>1</dim>
					<dim>128</dim>
					<dim>128</dim>
					<dim>170</dim>
				</port>
			</output>
		</layer>
		<layer id="235" name="inpaint_net/b2conv5/kernel/read" type="Const" version="opset1">
			<data element_type="f32" shape="128, 128, 5, 5" offset="35778748" size="1638400" />
			<output>
				<port id="0" precision="FP32" names="inpaint_net/b2conv5/kernel/read:0">
					<dim>128</dim>
					<dim>128</dim>
					<dim>5</dim>
					<dim>5</dim>
				</port>
			</output>
		</layer>
		<layer id="236" name="inpaint_net/b2conv5/Conv2D" type="Convolution" version="opset1">
			<data strides="1, 1" dilations="1, 1" pads_begin="0, 0" pads_end="0, 0" auto_pad="same_upper" />
			<input>
				<port id="0" precision="FP32">
					<dim>1</dim>
					<dim>128</dim>
					<dim>128</dim>
					<dim>170</dim>
				</port>
				<port id="1" precision="FP32">
					<dim>128</dim>
					<dim>128</dim>
					<dim>5</dim>
					<dim>5</dim>
				</port>
			</input>
			<output>
				<port id="2" precision="FP32" names="inpaint_net/b2conv5/Conv2D:0">
					<dim>1</dim>
					<dim>128</dim>
					<dim>128</dim>
					<dim>170</dim>
				</port>
			</output>
		</layer>
		<layer id="237" name="inpaint_net/b2conv5/bias/read" type="Const" version="opset1">
			<data element_type="f32" shape="1, 128, 1, 1" offset="37417148" size="512" />
			<output>
				<port id="0" precision="FP32" names="inpaint_net/b2conv5/bias/read:0">
					<dim>1</dim>
					<dim>128</dim>
					<dim>1</dim>
					<dim>1</dim>
				</port>
			</output>
		</layer>
		<layer id="238" name="inpaint_net/b2conv5/BiasAdd/Add" type="Add" version="opset1">
			<data auto_broadcast="numpy" />
			<input>
				<port id="0" precision="FP32">
					<dim>1</dim>
					<dim>128</dim>
					<dim>128</dim>
					<dim>170</dim>
				</port>
				<port id="1" precision="FP32">
					<dim>1</dim>
					<dim>128</dim>
					<dim>1</dim>
					<dim>1</dim>
				</port>
			</input>
			<output>
				<port id="2" precision="FP32" names="inpaint_net/b2conv5/BiasAdd:0">
					<dim>1</dim>
					<dim>128</dim>
					<dim>128</dim>
					<dim>170</dim>
				</port>
			</output>
		</layer>
		<layer id="239" name="inpaint_net/b2conv5/Elu" type="Elu" version="opset1">
			<data alpha="1" />
			<input>
				<port id="0" precision="FP32">
					<dim>1</dim>
					<dim>128</dim>
					<dim>128</dim>
					<dim>170</dim>
				</port>
			</input>
			<output>
				<port id="1" precision="FP32" names="inpaint_net/b2conv5/Elu:0">
					<dim>1</dim>
					<dim>128</dim>
					<dim>128</dim>
					<dim>170</dim>
				</port>
			</output>
		</layer>
		<layer id="240" name="inpaint_net/b2conv6/kernel/read" type="Const" version="opset1">
			<data element_type="f32" shape="128, 128, 5, 5" offset="37417660" size="1638400" />
			<output>
				<port id="0" precision="FP32" names="inpaint_net/b2conv6/kernel/read:0">
					<dim>128</dim>
					<dim>128</dim>
					<dim>5</dim>
					<dim>5</dim>
				</port>
			</output>
		</layer>
		<layer id="241" name="inpaint_net/b2conv6/Conv2D" type="Convolution" version="opset1">
			<data strides="1, 1" dilations="1, 1" pads_begin="0, 0" pads_end="0, 0" auto_pad="same_upper" />
			<input>
				<port id="0" precision="FP32">
					<dim>1</dim>
					<dim>128</dim>
					<dim>128</dim>
					<dim>170</dim>
				</port>
				<port id="1" precision="FP32">
					<dim>128</dim>
					<dim>128</dim>
					<dim>5</dim>
					<dim>5</dim>
				</port>
			</input>
			<output>
				<port id="2" precision="FP32" names="inpaint_net/b2conv6/Conv2D:0">
					<dim>1</dim>
					<dim>128</dim>
					<dim>128</dim>
					<dim>170</dim>
				</port>
			</output>
		</layer>
		<layer id="242" name="inpaint_net/b2conv6/bias/read" type="Const" version="opset1">
			<data element_type="f32" shape="1, 128, 1, 1" offset="39056060" size="512" />
			<output>
				<port id="0" precision="FP32" names="inpaint_net/b2conv6/bias/read:0">
					<dim>1</dim>
					<dim>128</dim>
					<dim>1</dim>
					<dim>1</dim>
				</port>
			</output>
		</layer>
		<layer id="243" name="inpaint_net/b2conv6/BiasAdd/Add" type="Add" version="opset1">
			<data auto_broadcast="numpy" />
			<input>
				<port id="0" precision="FP32">
					<dim>1</dim>
					<dim>128</dim>
					<dim>128</dim>
					<dim>170</dim>
				</port>
				<port id="1" precision="FP32">
					<dim>1</dim>
					<dim>128</dim>
					<dim>1</dim>
					<dim>1</dim>
				</port>
			</input>
			<output>
				<port id="2" precision="FP32" names="inpaint_net/b2conv6/BiasAdd:0">
					<dim>1</dim>
					<dim>128</dim>
					<dim>128</dim>
					<dim>170</dim>
				</port>
			</output>
		</layer>
		<layer id="244" name="inpaint_net/b2conv6/Elu" type="Elu" version="opset1">
			<data alpha="1" />
			<input>
				<port id="0" precision="FP32">
					<dim>1</dim>
					<dim>128</dim>
					<dim>128</dim>
					<dim>170</dim>
				</port>
			</input>
			<output>
				<port id="1" precision="FP32" names="inpaint_net/b2conv6/Elu:0">
					<dim>1</dim>
					<dim>128</dim>
					<dim>128</dim>
					<dim>170</dim>
				</port>
			</output>
		</layer>
		<layer id="245" name="inpaint_net/b2conv7_atrous/kernel/read" type="Const" version="opset1">
			<data element_type="f32" shape="128, 128, 5, 5" offset="39056572" size="1638400" />
			<output>
				<port id="0" precision="FP32" names="inpaint_net/b2conv7_atrous/kernel/read:0">
					<dim>128</dim>
					<dim>128</dim>
					<dim>5</dim>
					<dim>5</dim>
				</port>
			</output>
		</layer>
		<layer id="246" name="inpaint_net/b2conv7_atrous/Conv2D" type="Convolution" version="opset1">
			<data strides="1, 1" dilations="2, 2" pads_begin="4, 4" pads_end="4, 4" auto_pad="explicit" />
			<input>
				<port id="0" precision="FP32">
					<dim>1</dim>
					<dim>128</dim>
					<dim>128</dim>
					<dim>170</dim>
				</port>
				<port id="1" precision="FP32">
					<dim>128</dim>
					<dim>128</dim>
					<dim>5</dim>
					<dim>5</dim>
				</port>
			</input>
			<output>
				<port id="2" precision="FP32" names="inpaint_net/b2conv7_atrous/BatchToSpaceND:0">
					<dim>1</dim>
					<dim>128</dim>
					<dim>128</dim>
					<dim>170</dim>
				</port>
			</output>
		</layer>
		<layer id="247" name="inpaint_net/b2conv7_atrous/bias/read" type="Const" version="opset1">
			<data element_type="f32" shape="1, 128, 1, 1" offset="40694972" size="512" />
			<output>
				<port id="0" precision="FP32" names="inpaint_net/b2conv7_atrous/bias/read:0">
					<dim>1</dim>
					<dim>128</dim>
					<dim>1</dim>
					<dim>1</dim>
				</port>
			</output>
		</layer>
		<layer id="248" name="inpaint_net/b2conv7_atrous/BiasAdd/Add" type="Add" version="opset1">
			<data auto_broadcast="numpy" />
			<input>
				<port id="0" precision="FP32">
					<dim>1</dim>
					<dim>128</dim>
					<dim>128</dim>
					<dim>170</dim>
				</port>
				<port id="1" precision="FP32">
					<dim>1</dim>
					<dim>128</dim>
					<dim>1</dim>
					<dim>1</dim>
				</port>
			</input>
			<output>
				<port id="2" precision="FP32" names="inpaint_net/b2conv7_atrous/BiasAdd:0">
					<dim>1</dim>
					<dim>128</dim>
					<dim>128</dim>
					<dim>170</dim>
				</port>
			</output>
		</layer>
		<layer id="249" name="inpaint_net/b2conv7_atrous/Elu" type="Elu" version="opset1">
			<data alpha="1" />
			<input>
				<port id="0" precision="FP32">
					<dim>1</dim>
					<dim>128</dim>
					<dim>128</dim>
					<dim>170</dim>
				</port>
			</input>
			<output>
				<port id="1" precision="FP32" names="inpaint_net/b2conv7_atrous/Elu:0">
					<dim>1</dim>
					<dim>128</dim>
					<dim>128</dim>
					<dim>170</dim>
				</port>
			</output>
		</layer>
		<layer id="250" name="inpaint_net/b2conv8_atrous/kernel/read" type="Const" version="opset1">
			<data element_type="f32" shape="128, 128, 5, 5" offset="40695484" size="1638400" />
			<output>
				<port id="0" precision="FP32" names="inpaint_net/b2conv8_atrous/kernel/read:0">
					<dim>128</dim>
					<dim>128</dim>
					<dim>5</dim>
					<dim>5</dim>
				</port>
			</output>
		</layer>
		<layer id="251" name="inpaint_net/b2conv8_atrous/Conv2D" type="Convolution" version="opset1">
			<data strides="1, 1" dilations="4, 4" pads_begin="8, 8" pads_end="8, 8" auto_pad="explicit" />
			<input>
				<port id="0" precision="FP32">
					<dim>1</dim>
					<dim>128</dim>
					<dim>128</dim>
					<dim>170</dim>
				</port>
				<port id="1" precision="FP32">
					<dim>128</dim>
					<dim>128</dim>
					<dim>5</dim>
					<dim>5</dim>
				</port>
			</input>
			<output>
				<port id="2" precision="FP32" names="inpaint_net/b2conv8_atrous/BatchToSpaceND:0">
					<dim>1</dim>
					<dim>128</dim>
					<dim>128</dim>
					<dim>170</dim>
				</port>
			</output>
		</layer>
		<layer id="252" name="inpaint_net/b2conv8_atrous/bias/read" type="Const" version="opset1">
			<data element_type="f32" shape="1, 128, 1, 1" offset="42333884" size="512" />
			<output>
				<port id="0" precision="FP32" names="inpaint_net/b2conv8_atrous/bias/read:0">
					<dim>1</dim>
					<dim>128</dim>
					<dim>1</dim>
					<dim>1</dim>
				</port>
			</output>
		</layer>
		<layer id="253" name="inpaint_net/b2conv8_atrous/BiasAdd/Add" type="Add" version="opset1">
			<data auto_broadcast="numpy" />
			<input>
				<port id="0" precision="FP32">
					<dim>1</dim>
					<dim>128</dim>
					<dim>128</dim>
					<dim>170</dim>
				</port>
				<port id="1" precision="FP32">
					<dim>1</dim>
					<dim>128</dim>
					<dim>1</dim>
					<dim>1</dim>
				</port>
			</input>
			<output>
				<port id="2" precision="FP32" names="inpaint_net/b2conv8_atrous/BiasAdd:0">
					<dim>1</dim>
					<dim>128</dim>
					<dim>128</dim>
					<dim>170</dim>
				</port>
			</output>
		</layer>
		<layer id="254" name="inpaint_net/b2conv8_atrous/Elu" type="Elu" version="opset1">
			<data alpha="1" />
			<input>
				<port id="0" precision="FP32">
					<dim>1</dim>
					<dim>128</dim>
					<dim>128</dim>
					<dim>170</dim>
				</port>
			</input>
			<output>
				<port id="1" precision="FP32" names="inpaint_net/b2conv8_atrous/Elu:0">
					<dim>1</dim>
					<dim>128</dim>
					<dim>128</dim>
					<dim>170</dim>
				</port>
			</output>
		</layer>
		<layer id="255" name="inpaint_net/b2conv9_atrous/kernel/read" type="Const" version="opset1">
			<data element_type="f32" shape="128, 128, 5, 5" offset="42334396" size="1638400" />
			<output>
				<port id="0" precision="FP32" names="inpaint_net/b2conv9_atrous/kernel/read:0">
					<dim>128</dim>
					<dim>128</dim>
					<dim>5</dim>
					<dim>5</dim>
				</port>
			</output>
		</layer>
		<layer id="256" name="inpaint_net/b2conv9_atrous/Conv2D" type="Convolution" version="opset1">
			<data strides="1, 1" dilations="8, 8" pads_begin="16, 16" pads_end="16, 16" auto_pad="explicit" />
			<input>
				<port id="0" precision="FP32">
					<dim>1</dim>
					<dim>128</dim>
					<dim>128</dim>
					<dim>170</dim>
				</port>
				<port id="1" precision="FP32">
					<dim>128</dim>
					<dim>128</dim>
					<dim>5</dim>
					<dim>5</dim>
				</port>
			</input>
			<output>
				<port id="2" precision="FP32" names="inpaint_net/b2conv9_atrous/BatchToSpaceND:0">
					<dim>1</dim>
					<dim>128</dim>
					<dim>128</dim>
					<dim>170</dim>
				</port>
			</output>
		</layer>
		<layer id="257" name="inpaint_net/b2conv9_atrous/bias/read" type="Const" version="opset1">
			<data element_type="f32" shape="1, 128, 1, 1" offset="43972796" size="512" />
			<output>
				<port id="0" precision="FP32" names="inpaint_net/b2conv9_atrous/bias/read:0">
					<dim>1</dim>
					<dim>128</dim>
					<dim>1</dim>
					<dim>1</dim>
				</port>
			</output>
		</layer>
		<layer id="258" name="inpaint_net/b2conv9_atrous/BiasAdd/Add" type="Add" version="opset1">
			<data auto_broadcast="numpy" />
			<input>
				<port id="0" precision="FP32">
					<dim>1</dim>
					<dim>128</dim>
					<dim>128</dim>
					<dim>170</dim>
				</port>
				<port id="1" precision="FP32">
					<dim>1</dim>
					<dim>128</dim>
					<dim>1</dim>
					<dim>1</dim>
				</port>
			</input>
			<output>
				<port id="2" precision="FP32" names="inpaint_net/b2conv9_atrous/BiasAdd:0">
					<dim>1</dim>
					<dim>128</dim>
					<dim>128</dim>
					<dim>170</dim>
				</port>
			</output>
		</layer>
		<layer id="259" name="inpaint_net/b2conv9_atrous/Elu" type="Elu" version="opset1">
			<data alpha="1" />
			<input>
				<port id="0" precision="FP32">
					<dim>1</dim>
					<dim>128</dim>
					<dim>128</dim>
					<dim>170</dim>
				</port>
			</input>
			<output>
				<port id="1" precision="FP32" names="inpaint_net/b2conv9_atrous/Elu:0">
					<dim>1</dim>
					<dim>128</dim>
					<dim>128</dim>
					<dim>170</dim>
				</port>
			</output>
		</layer>
		<layer id="260" name="inpaint_net/b2conv10_atrous/kernel/read" type="Const" version="opset1">
			<data element_type="f32" shape="128, 128, 5, 5" offset="43973308" size="1638400" />
			<output>
				<port id="0" precision="FP32" names="inpaint_net/b2conv10_atrous/kernel/read:0">
					<dim>128</dim>
					<dim>128</dim>
					<dim>5</dim>
					<dim>5</dim>
				</port>
			</output>
		</layer>
		<layer id="261" name="inpaint_net/b2conv10_atrous/Conv2D" type="Convolution" version="opset1">
			<data strides="1, 1" dilations="16, 16" pads_begin="32, 32" pads_end="32, 32" auto_pad="explicit" />
			<input>
				<port id="0" precision="FP32">
					<dim>1</dim>
					<dim>128</dim>
					<dim>128</dim>
					<dim>170</dim>
				</port>
				<port id="1" precision="FP32">
					<dim>128</dim>
					<dim>128</dim>
					<dim>5</dim>
					<dim>5</dim>
				</port>
			</input>
			<output>
				<port id="2" precision="FP32" names="inpaint_net/b2conv10_atrous/BatchToSpaceND:0">
					<dim>1</dim>
					<dim>128</dim>
					<dim>128</dim>
					<dim>170</dim>
				</port>
			</output>
		</layer>
		<layer id="262" name="inpaint_net/b2conv10_atrous/bias/read" type="Const" version="opset1">
			<data element_type="f32" shape="1, 128, 1, 1" offset="45611708" size="512" />
			<output>
				<port id="0" precision="FP32" names="inpaint_net/b2conv10_atrous/bias/read:0">
					<dim>1</dim>
					<dim>128</dim>
					<dim>1</dim>
					<dim>1</dim>
				</port>
			</output>
		</layer>
		<layer id="263" name="inpaint_net/b2conv10_atrous/BiasAdd/Add" type="Add" version="opset1">
			<data auto_broadcast="numpy" />
			<input>
				<port id="0" precision="FP32">
					<dim>1</dim>
					<dim>128</dim>
					<dim>128</dim>
					<dim>170</dim>
				</port>
				<port id="1" precision="FP32">
					<dim>1</dim>
					<dim>128</dim>
					<dim>1</dim>
					<dim>1</dim>
				</port>
			</input>
			<output>
				<port id="2" precision="FP32" names="inpaint_net/b2conv10_atrous/BiasAdd:0">
					<dim>1</dim>
					<dim>128</dim>
					<dim>128</dim>
					<dim>170</dim>
				</port>
			</output>
		</layer>
		<layer id="264" name="inpaint_net/b2conv10_atrous/Elu" type="Elu" version="opset1">
			<data alpha="1" />
			<input>
				<port id="0" precision="FP32">
					<dim>1</dim>
					<dim>128</dim>
					<dim>128</dim>
					<dim>170</dim>
				</port>
			</input>
			<output>
				<port id="1" precision="FP32" names="inpaint_net/b2conv10_atrous/Elu:0">
					<dim>1</dim>
					<dim>128</dim>
					<dim>128</dim>
					<dim>170</dim>
				</port>
			</output>
		</layer>
		<layer id="265" name="inpaint_net/b2conv11/kernel/read" type="Const" version="opset1">
			<data element_type="f32" shape="128, 128, 5, 5" offset="45612220" size="1638400" />
			<output>
				<port id="0" precision="FP32" names="inpaint_net/b2conv11/kernel/read:0">
					<dim>128</dim>
					<dim>128</dim>
					<dim>5</dim>
					<dim>5</dim>
				</port>
			</output>
		</layer>
		<layer id="266" name="inpaint_net/b2conv11/Conv2D" type="Convolution" version="opset1">
			<data strides="1, 1" dilations="1, 1" pads_begin="0, 0" pads_end="0, 0" auto_pad="same_upper" />
			<input>
				<port id="0" precision="FP32">
					<dim>1</dim>
					<dim>128</dim>
					<dim>128</dim>
					<dim>170</dim>
				</port>
				<port id="1" precision="FP32">
					<dim>128</dim>
					<dim>128</dim>
					<dim>5</dim>
					<dim>5</dim>
				</port>
			</input>
			<output>
				<port id="2" precision="FP32" names="inpaint_net/b2conv11/Conv2D:0">
					<dim>1</dim>
					<dim>128</dim>
					<dim>128</dim>
					<dim>170</dim>
				</port>
			</output>
		</layer>
		<layer id="267" name="inpaint_net/b2conv11/bias/read" type="Const" version="opset1">
			<data element_type="f32" shape="1, 128, 1, 1" offset="47250620" size="512" />
			<output>
				<port id="0" precision="FP32" names="inpaint_net/b2conv11/bias/read:0">
					<dim>1</dim>
					<dim>128</dim>
					<dim>1</dim>
					<dim>1</dim>
				</port>
			</output>
		</layer>
		<layer id="268" name="inpaint_net/b2conv11/BiasAdd/Add" type="Add" version="opset1">
			<data auto_broadcast="numpy" />
			<input>
				<port id="0" precision="FP32">
					<dim>1</dim>
					<dim>128</dim>
					<dim>128</dim>
					<dim>170</dim>
				</port>
				<port id="1" precision="FP32">
					<dim>1</dim>
					<dim>128</dim>
					<dim>1</dim>
					<dim>1</dim>
				</port>
			</input>
			<output>
				<port id="2" precision="FP32" names="inpaint_net/b2conv11/BiasAdd:0">
					<dim>1</dim>
					<dim>128</dim>
					<dim>128</dim>
					<dim>170</dim>
				</port>
			</output>
		</layer>
		<layer id="269" name="inpaint_net/b2conv11/Elu" type="Elu" version="opset1">
			<data alpha="1" />
			<input>
				<port id="0" precision="FP32">
					<dim>1</dim>
					<dim>128</dim>
					<dim>128</dim>
					<dim>170</dim>
				</port>
			</input>
			<output>
				<port id="1" precision="FP32" names="inpaint_net/b2conv11/Elu:0">
					<dim>1</dim>
					<dim>128</dim>
					<dim>128</dim>
					<dim>170</dim>
				</port>
			</output>
		</layer>
		<layer id="270" name="inpaint_net/b2conv12/kernel/read" type="Const" version="opset1">
			<data element_type="f32" shape="128, 128, 5, 5" offset="47251132" size="1638400" />
			<output>
				<port id="0" precision="FP32" names="inpaint_net/b2conv12/kernel/read:0">
					<dim>128</dim>
					<dim>128</dim>
					<dim>5</dim>
					<dim>5</dim>
				</port>
			</output>
		</layer>
		<layer id="271" name="inpaint_net/b2conv12/Conv2D" type="Convolution" version="opset1">
			<data strides="1, 1" dilations="1, 1" pads_begin="0, 0" pads_end="0, 0" auto_pad="same_upper" />
			<input>
				<port id="0" precision="FP32">
					<dim>1</dim>
					<dim>128</dim>
					<dim>128</dim>
					<dim>170</dim>
				</port>
				<port id="1" precision="FP32">
					<dim>128</dim>
					<dim>128</dim>
					<dim>5</dim>
					<dim>5</dim>
				</port>
			</input>
			<output>
				<port id="2" precision="FP32" names="inpaint_net/b2conv12/Conv2D:0">
					<dim>1</dim>
					<dim>128</dim>
					<dim>128</dim>
					<dim>170</dim>
				</port>
			</output>
		</layer>
		<layer id="272" name="inpaint_net/b2conv12/bias/read" type="Const" version="opset1">
			<data element_type="f32" shape="1, 128, 1, 1" offset="48889532" size="512" />
			<output>
				<port id="0" precision="FP32" names="inpaint_net/b2conv12/bias/read:0">
					<dim>1</dim>
					<dim>128</dim>
					<dim>1</dim>
					<dim>1</dim>
				</port>
			</output>
		</layer>
		<layer id="273" name="inpaint_net/b2conv12/BiasAdd/Add" type="Add" version="opset1">
			<data auto_broadcast="numpy" />
			<input>
				<port id="0" precision="FP32">
					<dim>1</dim>
					<dim>128</dim>
					<dim>128</dim>
					<dim>170</dim>
				</port>
				<port id="1" precision="FP32">
					<dim>1</dim>
					<dim>128</dim>
					<dim>1</dim>
					<dim>1</dim>
				</port>
			</input>
			<output>
				<port id="2" precision="FP32" names="inpaint_net/b2conv12/BiasAdd:0">
					<dim>1</dim>
					<dim>128</dim>
					<dim>128</dim>
					<dim>170</dim>
				</port>
			</output>
		</layer>
		<layer id="274" name="inpaint_net/b2conv12/Elu" type="Elu" version="opset1">
			<data alpha="1" />
			<input>
				<port id="0" precision="FP32">
					<dim>1</dim>
					<dim>128</dim>
					<dim>128</dim>
					<dim>170</dim>
				</port>
			</input>
			<output>
				<port id="1" precision="FP32" names="inpaint_net/b2conv12/Elu:0">
					<dim>1</dim>
					<dim>128</dim>
					<dim>128</dim>
					<dim>170</dim>
				</port>
			</output>
		</layer>
		<layer id="275" name="inpaint_net/ResizeNearestNeighbor/size" type="Const" version="opset1">
			<data element_type="i64" shape="2" offset="33792676" size="16" />
			<output>
				<port id="0" precision="I64" names="inpaint_net/ResizeNearestNeighbor/size:0">
					<dim>2</dim>
				</port>
			</output>
		</layer>
		<layer id="276" name="477" type="Const" version="opset1">
			<data element_type="f32" shape="2" offset="33792692" size="8" />
			<output>
				<port id="0" precision="FP32">
					<dim>2</dim>
				</port>
			</output>
		</layer>
		<layer id="277" name="inpaint_net/ResizeNearestNeighbor/shapeof" type="ShapeOf" version="opset3">
			<data output_type="i64" />
			<input>
				<port id="0" precision="FP32">
					<dim>1</dim>
					<dim>128</dim>
					<dim>128</dim>
					<dim>170</dim>
				</port>
			</input>
			<output>
				<port id="1" precision="I64">
					<dim>4</dim>
				</port>
			</output>
		</layer>
		<layer id="278" name="inpaint_net/ResizeNearestNeighbor/shapeof/GatherNCHWtoNHWC_input_port_1/value955514198" type="Const" version="opset1">
			<data element_type="i32" shape="4" offset="44" size="16" />
			<output>
				<port id="0" precision="I32">
					<dim>4</dim>
				</port>
			</output>
		</layer>
		<layer id="279" name="inpaint_net/ResizeNearestNeighbor/shapeof/GatherNCHWtoNHWC_input_port_2/value955714174" type="Const" version="opset1">
			<data element_type="i64" shape="" offset="60" size="8" />
			<output>
				<port id="0" precision="I64" />
			</output>
		</layer>
		<layer id="280" name="inpaint_net/ResizeNearestNeighbor/shapeof/GatherNCHWtoNHWC" type="Gather" version="opset8">
			<data batch_dims="0" />
			<input>
				<port id="0" precision="I64">
					<dim>4</dim>
				</port>
				<port id="1" precision="I32">
					<dim>4</dim>
				</port>
				<port id="2" precision="I64" />
			</input>
			<output>
				<port id="3" precision="I64">
					<dim>4</dim>
				</port>
			</output>
		</layer>
		<layer id="281" name="inpaint_net/ResizeNearestNeighbor/StridedSlice_input_port_1/value" type="Const" version="opset1">
			<data element_type="i64" shape="1" offset="33792700" size="8" />
			<output>
				<port id="0" precision="I64">
					<dim>1</dim>
				</port>
			</output>
		</layer>
		<layer id="282" name="inpaint_net/ResizeNearestNeighbor/StridedSlice_input_port_2/value" type="Const" version="opset1">
			<data element_type="i64" shape="1" offset="33792708" size="8" />
			<output>
				<port id="0" precision="I64">
					<dim>1</dim>
				</port>
			</output>
		</layer>
		<layer id="283" name="inpaint_net/ResizeNearestNeighbor/StridedSlice_input_port_3/value" type="Const" version="opset1">
			<data element_type="i64" shape="1" offset="33792700" size="8" />
			<output>
				<port id="0" precision="I64">
					<dim>1</dim>
				</port>
			</output>
		</layer>
		<layer id="284" name="inpaint_net/ResizeNearestNeighbor/StridedSlice" type="StridedSlice" version="opset1">
			<data begin_mask="0" end_mask="0" new_axis_mask="0" shrink_axis_mask="0" ellipsis_mask="0" />
			<input>
				<port id="0" precision="I64">
					<dim>4</dim>
				</port>
				<port id="1" precision="I64">
					<dim>1</dim>
				</port>
				<port id="2" precision="I64">
					<dim>1</dim>
				</port>
				<port id="3" precision="I64">
					<dim>1</dim>
				</port>
			</input>
			<output>
				<port id="4" precision="I64">
					<dim>2</dim>
				</port>
			</output>
		</layer>
		<layer id="285" name="476" type="Convert" version="opset1">
			<data destination_type="f32" />
			<input>
				<port id="0" precision="I64">
					<dim>2</dim>
				</port>
			</input>
			<output>
				<port id="1" precision="FP32">
					<dim>2</dim>
				</port>
			</output>
		</layer>
		<layer id="286" name="inpaint_net/ResizeNearestNeighbor/Div" type="Divide" version="opset1">
			<data auto_broadcast="numpy" m_pythondiv="true" />
			<input>
				<port id="0" precision="FP32">
					<dim>2</dim>
				</port>
				<port id="1" precision="FP32">
					<dim>2</dim>
				</port>
			</input>
			<output>
				<port id="2" precision="FP32">
					<dim>2</dim>
				</port>
			</output>
		</layer>
		<layer id="287" name="993213928" type="Const" version="opset1">
			<data element_type="i64" shape="2" offset="33792716" size="16" />
			<output>
				<port id="0" precision="I64">
					<dim>2</dim>
				</port>
			</output>
		</layer>
		<layer id="288" name="inpaint_net/ResizeNearestNeighbor" type="Interpolate" version="opset4">
			<data mode="nearest" shape_calculation_mode="sizes" coordinate_transformation_mode="align_corners" nearest_mode="round_prefer_ceil" antialias="false" pads_begin="0, 0, 0, 0" pads_end="0, 0, 0, 0" cube_coeff="-0.75" />
			<input>
				<port id="0" precision="FP32">
					<dim>1</dim>
					<dim>128</dim>
					<dim>128</dim>
					<dim>170</dim>
				</port>
				<port id="1" precision="I64">
					<dim>2</dim>
				</port>
				<port id="2" precision="FP32">
					<dim>2</dim>
				</port>
				<port id="3" precision="I64">
					<dim>2</dim>
				</port>
			</input>
			<output>
				<port id="4" precision="FP32" names="inpaint_net/ResizeNearestNeighbor:0">
					<dim>1</dim>
					<dim>128</dim>
					<dim>256</dim>
					<dim>340</dim>
				</port>
			</output>
		</layer>
		<layer id="289" name="inpaint_net/b2conv13_upsample/b2conv13_upsample_conv/kernel/read" type="Const" version="opset1">
			<data element_type="f32" shape="64, 128, 3, 3" offset="48890044" size="294912" />
			<output>
				<port id="0" precision="FP32" names="inpaint_net/b2conv13_upsample/b2conv13_upsample_conv/kernel/read:0">
					<dim>64</dim>
					<dim>128</dim>
					<dim>3</dim>
					<dim>3</dim>
				</port>
			</output>
		</layer>
		<layer id="290" name="inpaint_net/b2conv13_upsample/b2conv13_upsample_conv/Conv2D" type="Convolution" version="opset1">
			<data strides="1, 1" dilations="1, 1" pads_begin="0, 0" pads_end="0, 0" auto_pad="same_upper" />
			<input>
				<port id="0" precision="FP32">
					<dim>1</dim>
					<dim>128</dim>
					<dim>256</dim>
					<dim>340</dim>
				</port>
				<port id="1" precision="FP32">
					<dim>64</dim>
					<dim>128</dim>
					<dim>3</dim>
					<dim>3</dim>
				</port>
			</input>
			<output>
				<port id="2" precision="FP32" names="inpaint_net/b2conv13_upsample/b2conv13_upsample_conv/Conv2D:0">
					<dim>1</dim>
					<dim>64</dim>
					<dim>256</dim>
					<dim>340</dim>
				</port>
			</output>
		</layer>
		<layer id="291" name="inpaint_net/b2conv13_upsample/b2conv13_upsample_conv/bias/read" type="Const" version="opset1">
			<data element_type="f32" shape="1, 64, 1, 1" offset="49184956" size="256" />
			<output>
				<port id="0" precision="FP32" names="inpaint_net/b2conv13_upsample/b2conv13_upsample_conv/bias/read:0">
					<dim>1</dim>
					<dim>64</dim>
					<dim>1</dim>
					<dim>1</dim>
				</port>
			</output>
		</layer>
		<layer id="292" name="inpaint_net/b2conv13_upsample/b2conv13_upsample_conv/BiasAdd/Add" type="Add" version="opset1">
			<data auto_broadcast="numpy" />
			<input>
				<port id="0" precision="FP32">
					<dim>1</dim>
					<dim>64</dim>
					<dim>256</dim>
					<dim>340</dim>
				</port>
				<port id="1" precision="FP32">
					<dim>1</dim>
					<dim>64</dim>
					<dim>1</dim>
					<dim>1</dim>
				</port>
			</input>
			<output>
				<port id="2" precision="FP32" names="inpaint_net/b2conv13_upsample/b2conv13_upsample_conv/BiasAdd:0">
					<dim>1</dim>
					<dim>64</dim>
					<dim>256</dim>
					<dim>340</dim>
				</port>
			</output>
		</layer>
		<layer id="293" name="inpaint_net/b2conv13_upsample/b2conv13_upsample_conv/Elu" type="Elu" version="opset1">
			<data alpha="1" />
			<input>
				<port id="0" precision="FP32">
					<dim>1</dim>
					<dim>64</dim>
					<dim>256</dim>
					<dim>340</dim>
				</port>
			</input>
			<output>
				<port id="1" precision="FP32" names="inpaint_net/b2conv13_upsample/b2conv13_upsample_conv/Elu:0">
					<dim>1</dim>
					<dim>64</dim>
					<dim>256</dim>
					<dim>340</dim>
				</port>
			</output>
		</layer>
		<layer id="294" name="inpaint_net/b2conv14/kernel/read" type="Const" version="opset1">
			<data element_type="f32" shape="64, 64, 5, 5" offset="49185212" size="409600" />
			<output>
				<port id="0" precision="FP32" names="inpaint_net/b2conv14/kernel/read:0">
					<dim>64</dim>
					<dim>64</dim>
					<dim>5</dim>
					<dim>5</dim>
				</port>
			</output>
		</layer>
		<layer id="295" name="inpaint_net/b2conv14/Conv2D" type="Convolution" version="opset1">
			<data strides="1, 1" dilations="1, 1" pads_begin="0, 0" pads_end="0, 0" auto_pad="same_upper" />
			<input>
				<port id="0" precision="FP32">
					<dim>1</dim>
					<dim>64</dim>
					<dim>256</dim>
					<dim>340</dim>
				</port>
				<port id="1" precision="FP32">
					<dim>64</dim>
					<dim>64</dim>
					<dim>5</dim>
					<dim>5</dim>
				</port>
			</input>
			<output>
				<port id="2" precision="FP32" names="inpaint_net/b2conv14/Conv2D:0">
					<dim>1</dim>
					<dim>64</dim>
					<dim>256</dim>
					<dim>340</dim>
				</port>
			</output>
		</layer>
		<layer id="296" name="inpaint_net/b2conv14/bias/read" type="Const" version="opset1">
			<data element_type="f32" shape="1, 64, 1, 1" offset="49594812" size="256" />
			<output>
				<port id="0" precision="FP32" names="inpaint_net/b2conv14/bias/read:0">
					<dim>1</dim>
					<dim>64</dim>
					<dim>1</dim>
					<dim>1</dim>
				</port>
			</output>
		</layer>
		<layer id="297" name="inpaint_net/b2conv14/BiasAdd/Add" type="Add" version="opset1">
			<data auto_broadcast="numpy" />
			<input>
				<port id="0" precision="FP32">
					<dim>1</dim>
					<dim>64</dim>
					<dim>256</dim>
					<dim>340</dim>
				</port>
				<port id="1" precision="FP32">
					<dim>1</dim>
					<dim>64</dim>
					<dim>1</dim>
					<dim>1</dim>
				</port>
			</input>
			<output>
				<port id="2" precision="FP32" names="inpaint_net/b2conv14/BiasAdd:0">
					<dim>1</dim>
					<dim>64</dim>
					<dim>256</dim>
					<dim>340</dim>
				</port>
			</output>
		</layer>
		<layer id="298" name="inpaint_net/b2conv14/Elu" type="Elu" version="opset1">
			<data alpha="1" />
			<input>
				<port id="0" precision="FP32">
					<dim>1</dim>
					<dim>64</dim>
					<dim>256</dim>
					<dim>340</dim>
				</port>
			</input>
			<output>
				<port id="1" precision="FP32" names="inpaint_net/b2conv14/Elu:0">
					<dim>1</dim>
					<dim>64</dim>
					<dim>256</dim>
					<dim>340</dim>
				</port>
			</output>
		</layer>
		<layer id="299" name="inpaint_net/b3conv16/Elu/Shape10569/Gathered_input_port_1/value1057314132" type="Const" version="opset1">
			<data element_type="i32" shape="2" offset="34327988" size="8" />
			<output>
				<port id="0" precision="I32">
					<dim>2</dim>
				</port>
			</output>
		</layer>
		<layer id="300" name="inpaint_net/b3conv16/Elu/Shape10569/Gathered_input_port_2/value1057514243" type="Const" version="opset1">
			<data element_type="i64" shape="" offset="60" size="8" />
			<output>
				<port id="0" precision="I64" />
			</output>
		</layer>
		<layer id="301" name="inpaint_net/b3conv16/Elu/Shape10569/Gathered" type="Gather" version="opset8">
			<data batch_dims="0" />
			<input>
				<port id="0" precision="I64">
					<dim>4</dim>
				</port>
				<port id="1" precision="I32">
					<dim>2</dim>
				</port>
				<port id="2" precision="I64" />
			</input>
			<output>
				<port id="3" precision="I64" names="inpaint_net/ResizeBilinear_1/size:0">
					<dim>2</dim>
				</port>
			</output>
		</layer>
		<layer id="302" name="467" type="Const" version="opset1">
			<data element_type="f32" shape="2" offset="34235628" size="8" />
			<output>
				<port id="0" precision="FP32">
					<dim>2</dim>
				</port>
			</output>
		</layer>
		<layer id="303" name="inpaint_net/ResizeBilinear_1/shapeof" type="ShapeOf" version="opset3">
			<data output_type="i64" />
			<input>
				<port id="0" precision="FP32">
					<dim>1</dim>
					<dim>64</dim>
					<dim>256</dim>
					<dim>340</dim>
				</port>
			</input>
			<output>
				<port id="1" precision="I64">
					<dim>4</dim>
				</port>
			</output>
		</layer>
		<layer id="304" name="inpaint_net/ResizeBilinear_1/shapeof/GatherNCHWtoNHWC_input_port_1/value954913991" type="Const" version="opset1">
			<data element_type="i32" shape="4" offset="44" size="16" />
			<output>
				<port id="0" precision="I32">
					<dim>4</dim>
				</port>
			</output>
		</layer>
		<layer id="305" name="inpaint_net/ResizeBilinear_1/shapeof/GatherNCHWtoNHWC_input_port_2/value955114057" type="Const" version="opset1">
			<data element_type="i64" shape="" offset="60" size="8" />
			<output>
				<port id="0" precision="I64" />
			</output>
		</layer>
		<layer id="306" name="inpaint_net/ResizeBilinear_1/shapeof/GatherNCHWtoNHWC" type="Gather" version="opset8">
			<data batch_dims="0" />
			<input>
				<port id="0" precision="I64">
					<dim>4</dim>
				</port>
				<port id="1" precision="I32">
					<dim>4</dim>
				</port>
				<port id="2" precision="I64" />
			</input>
			<output>
				<port id="3" precision="I64">
					<dim>4</dim>
				</port>
			</output>
		</layer>
		<layer id="307" name="inpaint_net/ResizeBilinear_1/StridedSlice_input_port_1/value" type="Const" version="opset1">
			<data element_type="i64" shape="1" offset="33792700" size="8" />
			<output>
				<port id="0" precision="I64">
					<dim>1</dim>
				</port>
			</output>
		</layer>
		<layer id="308" name="inpaint_net/ResizeBilinear_1/StridedSlice_input_port_2/value" type="Const" version="opset1">
			<data element_type="i64" shape="1" offset="33792708" size="8" />
			<output>
				<port id="0" precision="I64">
					<dim>1</dim>
				</port>
			</output>
		</layer>
		<layer id="309" name="inpaint_net/ResizeBilinear_1/StridedSlice_input_port_3/value" type="Const" version="opset1">
			<data element_type="i64" shape="1" offset="33792700" size="8" />
			<output>
				<port id="0" precision="I64">
					<dim>1</dim>
				</port>
			</output>
		</layer>
		<layer id="310" name="inpaint_net/ResizeBilinear_1/StridedSlice" type="StridedSlice" version="opset1">
			<data begin_mask="0" end_mask="0" new_axis_mask="0" shrink_axis_mask="0" ellipsis_mask="0" />
			<input>
				<port id="0" precision="I64">
					<dim>4</dim>
				</port>
				<port id="1" precision="I64">
					<dim>1</dim>
				</port>
				<port id="2" precision="I64">
					<dim>1</dim>
				</port>
				<port id="3" precision="I64">
					<dim>1</dim>
				</port>
			</input>
			<output>
				<port id="4" precision="I64">
					<dim>2</dim>
				</port>
			</output>
		</layer>
		<layer id="311" name="466" type="Convert" version="opset1">
			<data destination_type="f32" />
			<input>
				<port id="0" precision="I64">
					<dim>2</dim>
				</port>
			</input>
			<output>
				<port id="1" precision="FP32">
					<dim>2</dim>
				</port>
			</output>
		</layer>
		<layer id="312" name="inpaint_net/ResizeBilinear_1/Div" type="Divide" version="opset1">
			<data auto_broadcast="numpy" m_pythondiv="true" />
			<input>
				<port id="0" precision="FP32">
					<dim>2</dim>
				</port>
				<port id="1" precision="FP32">
					<dim>2</dim>
				</port>
			</input>
			<output>
				<port id="2" precision="FP32">
					<dim>2</dim>
				</port>
			</output>
		</layer>
		<layer id="313" name="992613988" type="Const" version="opset1">
			<data element_type="i64" shape="2" offset="33792716" size="16" />
			<output>
				<port id="0" precision="I64">
					<dim>2</dim>
				</port>
			</output>
		</layer>
		<layer id="314" name="inpaint_net/ResizeBilinear_1" type="Interpolate" version="opset4">
			<data mode="linear_onnx" shape_calculation_mode="sizes" coordinate_transformation_mode="align_corners" nearest_mode="round_prefer_floor" antialias="false" pads_begin="0, 0, 0, 0" pads_end="0, 0, 0, 0" cube_coeff="-0.75" />
			<input>
				<port id="0" precision="FP32">
					<dim>1</dim>
					<dim>64</dim>
					<dim>256</dim>
					<dim>340</dim>
				</port>
				<port id="1" precision="I64">
					<dim>2</dim>
				</port>
				<port id="2" precision="FP32">
					<dim>2</dim>
				</port>
				<port id="3" precision="I64">
					<dim>2</dim>
				</port>
			</input>
			<output>
				<port id="4" precision="FP32" names="inpaint_net/ResizeBilinear_1:0">
					<dim>1</dim>
					<dim>64</dim>
					<dim>512</dim>
					<dim>680</dim>
				</port>
			</output>
		</layer>
		<layer id="315" name="inpaint_net/concat" type="Concat" version="opset1">
			<data axis="1" />
			<input>
				<port id="0" precision="FP32">
					<dim>1</dim>
					<dim>128</dim>
					<dim>512</dim>
					<dim>680</dim>
				</port>
				<port id="1" precision="FP32">
					<dim>1</dim>
					<dim>64</dim>
					<dim>512</dim>
					<dim>680</dim>
				</port>
				<port id="2" precision="FP32">
					<dim>1</dim>
					<dim>16</dim>
					<dim>512</dim>
					<dim>680</dim>
				</port>
			</input>
			<output>
				<port id="3" precision="FP32" names="inpaint_net/concat:0">
					<dim>1</dim>
					<dim>208</dim>
					<dim>512</dim>
					<dim>680</dim>
				</port>
			</output>
		</layer>
		<layer id="316" name="inpaint_net/mergeconv17/kernel/read" type="Const" version="opset1">
			<data element_type="f32" shape="16, 208, 3, 3" offset="49595068" size="119808" />
			<output>
				<port id="0" precision="FP32" names="inpaint_net/mergeconv17/kernel/read:0">
					<dim>16</dim>
					<dim>208</dim>
					<dim>3</dim>
					<dim>3</dim>
				</port>
			</output>
		</layer>
		<layer id="317" name="inpaint_net/mergeconv17/Conv2D" type="Convolution" version="opset1">
			<data strides="1, 1" dilations="1, 1" pads_begin="0, 0" pads_end="0, 0" auto_pad="same_upper" />
			<input>
				<port id="0" precision="FP32">
					<dim>1</dim>
					<dim>208</dim>
					<dim>512</dim>
					<dim>680</dim>
				</port>
				<port id="1" precision="FP32">
					<dim>16</dim>
					<dim>208</dim>
					<dim>3</dim>
					<dim>3</dim>
				</port>
			</input>
			<output>
				<port id="2" precision="FP32" names="inpaint_net/mergeconv17/Conv2D:0">
					<dim>1</dim>
					<dim>16</dim>
					<dim>512</dim>
					<dim>680</dim>
				</port>
			</output>
		</layer>
		<layer id="318" name="inpaint_net/mergeconv17/bias/read" type="Const" version="opset1">
			<data element_type="f32" shape="1, 16, 1, 1" offset="49714876" size="64" />
			<output>
				<port id="0" precision="FP32" names="inpaint_net/mergeconv17/bias/read:0">
					<dim>1</dim>
					<dim>16</dim>
					<dim>1</dim>
					<dim>1</dim>
				</port>
			</output>
		</layer>
		<layer id="319" name="inpaint_net/mergeconv17/BiasAdd/Add" type="Add" version="opset1">
			<data auto_broadcast="numpy" />
			<input>
				<port id="0" precision="FP32">
					<dim>1</dim>
					<dim>16</dim>
					<dim>512</dim>
					<dim>680</dim>
				</port>
				<port id="1" precision="FP32">
					<dim>1</dim>
					<dim>16</dim>
					<dim>1</dim>
					<dim>1</dim>
				</port>
			</input>
			<output>
				<port id="2" precision="FP32" names="inpaint_net/mergeconv17/BiasAdd:0">
					<dim>1</dim>
					<dim>16</dim>
					<dim>512</dim>
					<dim>680</dim>
				</port>
			</output>
		</layer>
		<layer id="320" name="inpaint_net/mergeconv17/Elu" type="Elu" version="opset1">
			<data alpha="1" />
			<input>
				<port id="0" precision="FP32">
					<dim>1</dim>
					<dim>16</dim>
					<dim>512</dim>
					<dim>680</dim>
				</port>
			</input>
			<output>
				<port id="1" precision="FP32" names="inpaint_net/mergeconv17/Elu:0">
					<dim>1</dim>
					<dim>16</dim>
					<dim>512</dim>
					<dim>680</dim>
				</port>
			</output>
		</layer>
		<layer id="321" name="inpaint_net/mergeconv18/kernel/read" type="Const" version="opset1">
			<data element_type="f32" shape="3, 16, 3, 3" offset="49714940" size="1728" />
			<output>
				<port id="0" precision="FP32" names="inpaint_net/mergeconv18/kernel/read:0">
					<dim>3</dim>
					<dim>16</dim>
					<dim>3</dim>
					<dim>3</dim>
				</port>
			</output>
		</layer>
		<layer id="322" name="inpaint_net/mergeconv18/Conv2D" type="Convolution" version="opset1">
			<data strides="1, 1" dilations="1, 1" pads_begin="0, 0" pads_end="0, 0" auto_pad="same_upper" />
			<input>
				<port id="0" precision="FP32">
					<dim>1</dim>
					<dim>16</dim>
					<dim>512</dim>
					<dim>680</dim>
				</port>
				<port id="1" precision="FP32">
					<dim>3</dim>
					<dim>16</dim>
					<dim>3</dim>
					<dim>3</dim>
				</port>
			</input>
			<output>
				<port id="2" precision="FP32" names="inpaint_net/mergeconv18/Conv2D:0">
					<dim>1</dim>
					<dim>3</dim>
					<dim>512</dim>
					<dim>680</dim>
				</port>
			</output>
		</layer>
		<layer id="323" name="inpaint_net/mergeconv18/bias/read" type="Const" version="opset1">
			<data element_type="f32" shape="1, 3, 1, 1" offset="49716668" size="12" />
			<output>
				<port id="0" precision="FP32" names="inpaint_net/mergeconv18/bias/read:0">
					<dim>1</dim>
					<dim>3</dim>
					<dim>1</dim>
					<dim>1</dim>
				</port>
			</output>
		</layer>
		<layer id="324" name="inpaint_net/mergeconv18/BiasAdd/Add" type="Add" version="opset1">
			<data auto_broadcast="numpy" />
			<input>
				<port id="0" precision="FP32">
					<dim>1</dim>
					<dim>3</dim>
					<dim>512</dim>
					<dim>680</dim>
				</port>
				<port id="1" precision="FP32">
					<dim>1</dim>
					<dim>3</dim>
					<dim>1</dim>
					<dim>1</dim>
				</port>
			</input>
			<output>
				<port id="2" precision="FP32" names="inpaint_net/mergeconv18/BiasAdd:0">
					<dim>1</dim>
					<dim>3</dim>
					<dim>512</dim>
					<dim>680</dim>
				</port>
			</output>
		</layer>
		<layer id="325" name="inpaint_net/clip_by_value" type="Clamp" version="opset1">
			<data min="-1" max="1" />
			<input>
				<port id="0" precision="FP32">
					<dim>1</dim>
					<dim>3</dim>
					<dim>512</dim>
					<dim>680</dim>
				</port>
			</input>
			<output>
				<port id="1" precision="FP32" names="inpaint_net/clip_by_value:0">
					<dim>1</dim>
					<dim>3</dim>
					<dim>512</dim>
					<dim>680</dim>
				</port>
			</output>
		</layer>
		<layer id="326" name="mul_2" type="Multiply" version="opset1">
			<data auto_broadcast="numpy" />
			<input>
				<port id="0" precision="FP32">
					<dim>1</dim>
					<dim>3</dim>
					<dim>512</dim>
					<dim>680</dim>
				</port>
				<port id="1" precision="FP32">
					<dim>1</dim>
					<dim>1</dim>
					<dim>512</dim>
					<dim>680</dim>
				</port>
			</input>
			<output>
				<port id="2" precision="FP32" names="mul_2:0">
					<dim>1</dim>
					<dim>3</dim>
					<dim>512</dim>
					<dim>680</dim>
				</port>
			</output>
		</layer>
		<layer id="327" name="sub_2/x" type="Const" version="opset1">
			<data element_type="f32" shape="1, 1, 1, 1" offset="40" size="4" />
			<output>
				<port id="0" precision="FP32" names="sub_2/x:0">
					<dim>1</dim>
					<dim>1</dim>
					<dim>1</dim>
					<dim>1</dim>
				</port>
			</output>
		</layer>
		<layer id="328" name="sub_2" type="Subtract" version="opset1">
			<data auto_broadcast="numpy" />
			<input>
				<port id="0" precision="FP32">
					<dim>1</dim>
					<dim>1</dim>
					<dim>1</dim>
					<dim>1</dim>
				</port>
				<port id="1" precision="FP32">
					<dim>1</dim>
					<dim>1</dim>
					<dim>512</dim>
					<dim>680</dim>
				</port>
			</input>
			<output>
				<port id="2" precision="FP32" names="sub_2:0">
					<dim>1</dim>
					<dim>1</dim>
					<dim>512</dim>
					<dim>680</dim>
				</port>
			</output>
		</layer>
		<layer id="329" name="mul_3" type="Multiply" version="opset1">
			<data auto_broadcast="numpy" />
			<input>
				<port id="0" precision="FP32">
					<dim>1</dim>
					<dim>3</dim>
					<dim>512</dim>
					<dim>680</dim>
				</port>
				<port id="1" precision="FP32">
					<dim>1</dim>
					<dim>1</dim>
					<dim>512</dim>
					<dim>680</dim>
				</port>
			</input>
			<output>
				<port id="2" precision="FP32" names="mul_3:0">
					<dim>1</dim>
					<dim>3</dim>
					<dim>512</dim>
					<dim>680</dim>
				</port>
			</output>
		</layer>
		<layer id="330" name="add" type="Add" version="opset1">
			<data auto_broadcast="numpy" />
			<input>
				<port id="0" precision="FP32">
					<dim>1</dim>
					<dim>3</dim>
					<dim>512</dim>
					<dim>680</dim>
				</port>
				<port id="1" precision="FP32">
					<dim>1</dim>
					<dim>3</dim>
					<dim>512</dim>
					<dim>680</dim>
				</port>
			</input>
			<output>
				<port id="2" precision="FP32" names="add:0">
					<dim>1</dim>
					<dim>3</dim>
					<dim>512</dim>
					<dim>680</dim>
				</port>
			</output>
		</layer>
		<layer id="331" name="data_mul_7553" type="Const" version="opset1">
			<data element_type="f32" shape="1, 1, 1, 1" offset="49716680" size="4" />
			<output>
				<port id="0" precision="FP32">
					<dim>1</dim>
					<dim>1</dim>
					<dim>1</dim>
					<dim>1</dim>
				</port>
			</output>
		</layer>
		<layer id="332" name="mul_4/Fused_Mul_" type="Multiply" version="opset1">
			<data auto_broadcast="numpy" />
			<input>
				<port id="0" precision="FP32">
					<dim>1</dim>
					<dim>3</dim>
					<dim>512</dim>
					<dim>680</dim>
				</port>
				<port id="1" precision="FP32">
					<dim>1</dim>
					<dim>1</dim>
					<dim>1</dim>
					<dim>1</dim>
				</port>
			</input>
			<output>
				<port id="2" precision="FP32">
					<dim>1</dim>
					<dim>3</dim>
					<dim>512</dim>
					<dim>680</dim>
				</port>
			</output>
		</layer>
		<layer id="333" name="data_add_7555" type="Const" version="opset1">
			<data element_type="f32" shape="1, 1, 1, 1" offset="49716680" size="4" />
			<output>
				<port id="0" precision="FP32">
					<dim>1</dim>
					<dim>1</dim>
					<dim>1</dim>
					<dim>1</dim>
				</port>
			</output>
		</layer>
		<layer id="334" name="add_1/Fused_Add_" type="Add" version="opset1">
			<data auto_broadcast="numpy" />
			<input>
				<port id="0" precision="FP32">
					<dim>1</dim>
					<dim>3</dim>
					<dim>512</dim>
					<dim>680</dim>
				</port>
				<port id="1" precision="FP32">
					<dim>1</dim>
					<dim>1</dim>
					<dim>1</dim>
					<dim>1</dim>
				</port>
			</input>
			<output>
				<port id="2" precision="FP32" names="mul_4:0">
					<dim>1</dim>
					<dim>3</dim>
					<dim>512</dim>
					<dim>680</dim>
				</port>
			</output>
		</layer>
		<layer id="335" name="Minimum/prev" type="Clamp" version="opset1">
			<data min="0" max="255" />
			<input>
				<port id="0" precision="FP32">
					<dim>1</dim>
					<dim>3</dim>
					<dim>512</dim>
					<dim>680</dim>
				</port>
			</input>
			<output>
				<port id="1" precision="FP32">
					<dim>1</dim>
					<dim>3</dim>
					<dim>512</dim>
					<dim>680</dim>
				</port>
			</output>
		</layer>
		<layer id="336" name="9723/value972513958" type="Const" version="opset1">
			<data element_type="i64" shape="4" offset="49716684" size="32" />
			<output>
				<port id="0" precision="I64">
					<dim>4</dim>
				</port>
			</output>
		</layer>
		<layer id="337" name="Minimum" type="Transpose" version="opset1">
			<input>
				<port id="0" precision="FP32">
					<dim>1</dim>
					<dim>3</dim>
					<dim>512</dim>
					<dim>680</dim>
				</port>
				<port id="1" precision="I64">
					<dim>4</dim>
				</port>
			</input>
			<output>
				<port id="2" precision="FP32" names="Minimum,Minimum:0">
					<dim>1</dim>
					<dim>512</dim>
					<dim>680</dim>
					<dim>3</dim>
				</port>
			</output>
		</layer>
		<layer id="338" name="Minimum:0" type="Result" version="opset1">
			<rt_info>
				<attribute name="old_api_map_order" version="0" value="0, 3, 1, 2" />
			</rt_info>
			<input>
				<port id="0" precision="FP32">
					<dim>1</dim>
					<dim>512</dim>
					<dim>680</dim>
					<dim>3</dim>
				</port>
			</input>
		</layer>
	</layers>
	<edges>
		<edge from-layer="0" from-port="0" to-layer="10" to-port="0" />
		<edge from-layer="1" from-port="0" to-layer="3" to-port="0" />
		<edge from-layer="2" from-port="0" to-layer="3" to-port="1" />
		<edge from-layer="3" from-port="2" to-layer="5" to-port="0" />
		<edge from-layer="4" from-port="0" to-layer="5" to-port="1" />
		<edge from-layer="5" from-port="2" to-layer="7" to-port="0" />
		<edge from-layer="6" from-port="0" to-layer="7" to-port="1" />
		<edge from-layer="7" from-port="2" to-layer="12" to-port="0" />
		<edge from-layer="8" from-port="0" to-layer="11" to-port="0" />
		<edge from-layer="9" from-port="0" to-layer="10" to-port="1" />
		<edge from-layer="10" from-port="2" to-layer="11" to-port="1" />
		<edge from-layer="10" from-port="2" to-layer="28" to-port="1" />
		<edge from-layer="10" from-port="2" to-layer="326" to-port="1" />
		<edge from-layer="10" from-port="2" to-layer="328" to-port="1" />
		<edge from-layer="11" from-port="2" to-layer="12" to-port="1" />
		<edge from-layer="12" from-port="2" to-layer="14" to-port="0" />
		<edge from-layer="12" from-port="2" to-layer="29" to-port="0" />
		<edge from-layer="12" from-port="2" to-layer="329" to-port="0" />
		<edge from-layer="13" from-port="0" to-layer="19" to-port="0" />
		<edge from-layer="14" from-port="1" to-layer="17" to-port="0" />
		<edge from-layer="15" from-port="0" to-layer="17" to-port="1" />
		<edge from-layer="16" from-port="0" to-layer="17" to-port="2" />
		<edge from-layer="17" from-port="3" to-layer="18" to-port="0" />
		<edge from-layer="18" from-port="1" to-layer="19" to-port="1" />
		<edge from-layer="19" from-port="2" to-layer="23" to-port="0" />
		<edge from-layer="20" from-port="0" to-layer="23" to-port="1" />
		<edge from-layer="21" from-port="0" to-layer="23" to-port="2" />
		<edge from-layer="22" from-port="0" to-layer="23" to-port="3" />
		<edge from-layer="23" from-port="4" to-layer="25" to-port="0" />
		<edge from-layer="23" from-port="4" to-layer="27" to-port="0" />
		<edge from-layer="24" from-port="0" to-layer="25" to-port="1" />
		<edge from-layer="25" from-port="2" to-layer="29" to-port="1" />
		<edge from-layer="26" from-port="0" to-layer="27" to-port="1" />
		<edge from-layer="27" from-port="2" to-layer="28" to-port="0" />
		<edge from-layer="28" from-port="2" to-layer="29" to-port="2" />
		<edge from-layer="29" from-port="3" to-layer="91" to-port="0" />
		<edge from-layer="29" from-port="3" to-layer="31" to-port="0" />
		<edge from-layer="29" from-port="3" to-layer="216" to-port="0" />
		<edge from-layer="30" from-port="0" to-layer="31" to-port="1" />
		<edge from-layer="31" from-port="2" to-layer="33" to-port="0" />
		<edge from-layer="32" from-port="0" to-layer="33" to-port="1" />
		<edge from-layer="33" from-port="2" to-layer="34" to-port="0" />
		<edge from-layer="34" from-port="1" to-layer="36" to-port="0" />
		<edge from-layer="35" from-port="0" to-layer="36" to-port="1" />
		<edge from-layer="36" from-port="2" to-layer="38" to-port="0" />
		<edge from-layer="37" from-port="0" to-layer="38" to-port="1" />
		<edge from-layer="38" from-port="2" to-layer="39" to-port="0" />
		<edge from-layer="39" from-port="1" to-layer="41" to-port="0" />
		<edge from-layer="40" from-port="0" to-layer="41" to-port="1" />
		<edge from-layer="41" from-port="2" to-layer="43" to-port="0" />
		<edge from-layer="42" from-port="0" to-layer="43" to-port="1" />
		<edge from-layer="43" from-port="2" to-layer="44" to-port="0" />
		<edge from-layer="44" from-port="1" to-layer="46" to-port="0" />
		<edge from-layer="45" from-port="0" to-layer="46" to-port="1" />
		<edge from-layer="46" from-port="2" to-layer="48" to-port="0" />
		<edge from-layer="47" from-port="0" to-layer="48" to-port="1" />
		<edge from-layer="48" from-port="2" to-layer="49" to-port="0" />
		<edge from-layer="49" from-port="1" to-layer="51" to-port="0" />
		<edge from-layer="50" from-port="0" to-layer="51" to-port="1" />
		<edge from-layer="51" from-port="2" to-layer="53" to-port="0" />
		<edge from-layer="52" from-port="0" to-layer="53" to-port="1" />
		<edge from-layer="53" from-port="2" to-layer="54" to-port="0" />
		<edge from-layer="54" from-port="1" to-layer="56" to-port="0" />
		<edge from-layer="55" from-port="0" to-layer="56" to-port="1" />
		<edge from-layer="56" from-port="2" to-layer="58" to-port="0" />
		<edge from-layer="57" from-port="0" to-layer="58" to-port="1" />
		<edge from-layer="58" from-port="2" to-layer="59" to-port="0" />
		<edge from-layer="59" from-port="1" to-layer="61" to-port="0" />
		<edge from-layer="60" from-port="0" to-layer="61" to-port="1" />
		<edge from-layer="61" from-port="2" to-layer="63" to-port="0" />
		<edge from-layer="62" from-port="0" to-layer="63" to-port="1" />
		<edge from-layer="63" from-port="2" to-layer="64" to-port="0" />
		<edge from-layer="64" from-port="1" to-layer="66" to-port="0" />
		<edge from-layer="65" from-port="0" to-layer="66" to-port="1" />
		<edge from-layer="66" from-port="2" to-layer="68" to-port="0" />
		<edge from-layer="67" from-port="0" to-layer="68" to-port="1" />
		<edge from-layer="68" from-port="2" to-layer="69" to-port="0" />
		<edge from-layer="69" from-port="1" to-layer="71" to-port="0" />
		<edge from-layer="70" from-port="0" to-layer="71" to-port="1" />
		<edge from-layer="71" from-port="2" to-layer="73" to-port="0" />
		<edge from-layer="72" from-port="0" to-layer="73" to-port="1" />
		<edge from-layer="73" from-port="2" to-layer="74" to-port="0" />
		<edge from-layer="74" from-port="1" to-layer="76" to-port="0" />
		<edge from-layer="75" from-port="0" to-layer="76" to-port="1" />
		<edge from-layer="76" from-port="2" to-layer="78" to-port="0" />
		<edge from-layer="77" from-port="0" to-layer="78" to-port="1" />
		<edge from-layer="78" from-port="2" to-layer="79" to-port="0" />
		<edge from-layer="79" from-port="1" to-layer="81" to-port="0" />
		<edge from-layer="80" from-port="0" to-layer="81" to-port="1" />
		<edge from-layer="81" from-port="2" to-layer="83" to-port="0" />
		<edge from-layer="82" from-port="0" to-layer="83" to-port="1" />
		<edge from-layer="83" from-port="2" to-layer="84" to-port="0" />
		<edge from-layer="84" from-port="1" to-layer="86" to-port="0" />
		<edge from-layer="85" from-port="0" to-layer="86" to-port="1" />
		<edge from-layer="86" from-port="2" to-layer="88" to-port="0" />
		<edge from-layer="87" from-port="0" to-layer="88" to-port="1" />
		<edge from-layer="88" from-port="2" to-layer="89" to-port="0" />
		<edge from-layer="89" from-port="1" to-layer="203" to-port="0" />
		<edge from-layer="89" from-port="1" to-layer="214" to-port="0" />
		<edge from-layer="90" from-port="0" to-layer="91" to-port="1" />
		<edge from-layer="91" from-port="2" to-layer="93" to-port="0" />
		<edge from-layer="92" from-port="0" to-layer="93" to-port="1" />
		<edge from-layer="93" from-port="2" to-layer="94" to-port="0" />
		<edge from-layer="94" from-port="1" to-layer="96" to-port="0" />
		<edge from-layer="95" from-port="0" to-layer="96" to-port="1" />
		<edge from-layer="96" from-port="2" to-layer="98" to-port="0" />
		<edge from-layer="97" from-port="0" to-layer="98" to-port="1" />
		<edge from-layer="98" from-port="2" to-layer="99" to-port="0" />
		<edge from-layer="99" from-port="1" to-layer="101" to-port="0" />
		<edge from-layer="100" from-port="0" to-layer="101" to-port="1" />
		<edge from-layer="101" from-port="2" to-layer="103" to-port="0" />
		<edge from-layer="102" from-port="0" to-layer="103" to-port="1" />
		<edge from-layer="103" from-port="2" to-layer="104" to-port="0" />
		<edge from-layer="104" from-port="1" to-layer="106" to-port="0" />
		<edge from-layer="105" from-port="0" to-layer="106" to-port="1" />
		<edge from-layer="106" from-port="2" to-layer="108" to-port="0" />
		<edge from-layer="107" from-port="0" to-layer="108" to-port="1" />
		<edge from-layer="108" from-port="2" to-layer="109" to-port="0" />
		<edge from-layer="109" from-port="1" to-layer="111" to-port="0" />
		<edge from-layer="110" from-port="0" to-layer="111" to-port="1" />
		<edge from-layer="111" from-port="2" to-layer="113" to-port="0" />
		<edge from-layer="112" from-port="0" to-layer="113" to-port="1" />
		<edge from-layer="113" from-port="2" to-layer="114" to-port="0" />
		<edge from-layer="114" from-port="1" to-layer="116" to-port="0" />
		<edge from-layer="115" from-port="0" to-layer="116" to-port="1" />
		<edge from-layer="116" from-port="2" to-layer="118" to-port="0" />
		<edge from-layer="117" from-port="0" to-layer="118" to-port="1" />
		<edge from-layer="118" from-port="2" to-layer="119" to-port="0" />
		<edge from-layer="119" from-port="1" to-layer="121" to-port="0" />
		<edge from-layer="120" from-port="0" to-layer="121" to-port="1" />
		<edge from-layer="121" from-port="2" to-layer="123" to-port="0" />
		<edge from-layer="122" from-port="0" to-layer="123" to-port="1" />
		<edge from-layer="123" from-port="2" to-layer="124" to-port="0" />
		<edge from-layer="124" from-port="1" to-layer="126" to-port="0" />
		<edge from-layer="125" from-port="0" to-layer="126" to-port="1" />
		<edge from-layer="126" from-port="2" to-layer="128" to-port="0" />
		<edge from-layer="127" from-port="0" to-layer="128" to-port="1" />
		<edge from-layer="128" from-port="2" to-layer="129" to-port="0" />
		<edge from-layer="129" from-port="1" to-layer="131" to-port="0" />
		<edge from-layer="130" from-port="0" to-layer="131" to-port="1" />
		<edge from-layer="131" from-port="2" to-layer="133" to-port="0" />
		<edge from-layer="132" from-port="0" to-layer="133" to-port="1" />
		<edge from-layer="133" from-port="2" to-layer="134" to-port="0" />
		<edge from-layer="134" from-port="1" to-layer="136" to-port="0" />
		<edge from-layer="135" from-port="0" to-layer="136" to-port="1" />
		<edge from-layer="136" from-port="2" to-layer="138" to-port="0" />
		<edge from-layer="137" from-port="0" to-layer="138" to-port="1" />
		<edge from-layer="138" from-port="2" to-layer="139" to-port="0" />
		<edge from-layer="139" from-port="1" to-layer="141" to-port="0" />
		<edge from-layer="140" from-port="0" to-layer="141" to-port="1" />
		<edge from-layer="141" from-port="2" to-layer="143" to-port="0" />
		<edge from-layer="142" from-port="0" to-layer="143" to-port="1" />
		<edge from-layer="143" from-port="2" to-layer="144" to-port="0" />
		<edge from-layer="144" from-port="1" to-layer="146" to-port="0" />
		<edge from-layer="145" from-port="0" to-layer="146" to-port="1" />
		<edge from-layer="146" from-port="2" to-layer="148" to-port="0" />
		<edge from-layer="147" from-port="0" to-layer="148" to-port="1" />
		<edge from-layer="148" from-port="2" to-layer="149" to-port="0" />
		<edge from-layer="149" from-port="1" to-layer="152" to-port="0" />
		<edge from-layer="149" from-port="1" to-layer="163" to-port="0" />
		<edge from-layer="150" from-port="0" to-layer="163" to-port="1" />
		<edge from-layer="151" from-port="0" to-layer="161" to-port="0" />
		<edge from-layer="152" from-port="1" to-layer="155" to-port="0" />
		<edge from-layer="153" from-port="0" to-layer="155" to-port="1" />
		<edge from-layer="154" from-port="0" to-layer="155" to-port="2" />
		<edge from-layer="155" from-port="3" to-layer="159" to-port="0" />
		<edge from-layer="156" from-port="0" to-layer="159" to-port="1" />
		<edge from-layer="157" from-port="0" to-layer="159" to-port="2" />
		<edge from-layer="158" from-port="0" to-layer="159" to-port="3" />
		<edge from-layer="159" from-port="4" to-layer="160" to-port="0" />
		<edge from-layer="160" from-port="1" to-layer="161" to-port="1" />
		<edge from-layer="161" from-port="2" to-layer="163" to-port="2" />
		<edge from-layer="162" from-port="0" to-layer="163" to-port="3" />
		<edge from-layer="163" from-port="4" to-layer="165" to-port="0" />
		<edge from-layer="164" from-port="0" to-layer="165" to-port="1" />
		<edge from-layer="165" from-port="2" to-layer="167" to-port="0" />
		<edge from-layer="166" from-port="0" to-layer="167" to-port="1" />
		<edge from-layer="167" from-port="2" to-layer="168" to-port="0" />
		<edge from-layer="168" from-port="1" to-layer="170" to-port="0" />
		<edge from-layer="169" from-port="0" to-layer="170" to-port="1" />
		<edge from-layer="170" from-port="2" to-layer="172" to-port="0" />
		<edge from-layer="171" from-port="0" to-layer="172" to-port="1" />
		<edge from-layer="172" from-port="2" to-layer="173" to-port="0" />
		<edge from-layer="173" from-port="1" to-layer="187" to-port="0" />
		<edge from-layer="173" from-port="1" to-layer="176" to-port="0" />
		<edge from-layer="174" from-port="0" to-layer="187" to-port="1" />
		<edge from-layer="175" from-port="0" to-layer="185" to-port="0" />
		<edge from-layer="176" from-port="1" to-layer="179" to-port="0" />
		<edge from-layer="177" from-port="0" to-layer="179" to-port="1" />
		<edge from-layer="178" from-port="0" to-layer="179" to-port="2" />
		<edge from-layer="179" from-port="3" to-layer="183" to-port="0" />
		<edge from-layer="180" from-port="0" to-layer="183" to-port="1" />
		<edge from-layer="181" from-port="0" to-layer="183" to-port="2" />
		<edge from-layer="182" from-port="0" to-layer="183" to-port="3" />
		<edge from-layer="183" from-port="4" to-layer="184" to-port="0" />
		<edge from-layer="184" from-port="1" to-layer="185" to-port="1" />
		<edge from-layer="185" from-port="2" to-layer="187" to-port="2" />
		<edge from-layer="186" from-port="0" to-layer="187" to-port="3" />
		<edge from-layer="187" from-port="4" to-layer="189" to-port="0" />
		<edge from-layer="188" from-port="0" to-layer="189" to-port="1" />
		<edge from-layer="189" from-port="2" to-layer="191" to-port="0" />
		<edge from-layer="190" from-port="0" to-layer="191" to-port="1" />
		<edge from-layer="191" from-port="2" to-layer="192" to-port="0" />
		<edge from-layer="192" from-port="1" to-layer="194" to-port="0" />
		<edge from-layer="193" from-port="0" to-layer="194" to-port="1" />
		<edge from-layer="194" from-port="2" to-layer="196" to-port="0" />
		<edge from-layer="195" from-port="0" to-layer="196" to-port="1" />
		<edge from-layer="196" from-port="2" to-layer="197" to-port="0" />
		<edge from-layer="197" from-port="1" to-layer="198" to-port="0" />
		<edge from-layer="197" from-port="1" to-layer="315" to-port="2" />
		<edge from-layer="198" from-port="1" to-layer="301" to-port="0" />
		<edge from-layer="198" from-port="1" to-layer="201" to-port="0" />
		<edge from-layer="199" from-port="0" to-layer="201" to-port="1" />
		<edge from-layer="200" from-port="0" to-layer="201" to-port="2" />
		<edge from-layer="201" from-port="3" to-layer="214" to-port="1" />
		<edge from-layer="202" from-port="0" to-layer="212" to-port="0" />
		<edge from-layer="203" from-port="1" to-layer="206" to-port="0" />
		<edge from-layer="204" from-port="0" to-layer="206" to-port="1" />
		<edge from-layer="205" from-port="0" to-layer="206" to-port="2" />
		<edge from-layer="206" from-port="3" to-layer="210" to-port="0" />
		<edge from-layer="207" from-port="0" to-layer="210" to-port="1" />
		<edge from-layer="208" from-port="0" to-layer="210" to-port="2" />
		<edge from-layer="209" from-port="0" to-layer="210" to-port="3" />
		<edge from-layer="210" from-port="4" to-layer="211" to-port="0" />
		<edge from-layer="211" from-port="1" to-layer="212" to-port="1" />
		<edge from-layer="212" from-port="2" to-layer="214" to-port="2" />
		<edge from-layer="213" from-port="0" to-layer="214" to-port="3" />
		<edge from-layer="214" from-port="4" to-layer="315" to-port="0" />
		<edge from-layer="215" from-port="0" to-layer="216" to-port="1" />
		<edge from-layer="216" from-port="2" to-layer="218" to-port="0" />
		<edge from-layer="217" from-port="0" to-layer="218" to-port="1" />
		<edge from-layer="218" from-port="2" to-layer="219" to-port="0" />
		<edge from-layer="219" from-port="1" to-layer="221" to-port="0" />
		<edge from-layer="220" from-port="0" to-layer="221" to-port="1" />
		<edge from-layer="221" from-port="2" to-layer="223" to-port="0" />
		<edge from-layer="222" from-port="0" to-layer="223" to-port="1" />
		<edge from-layer="223" from-port="2" to-layer="224" to-port="0" />
		<edge from-layer="224" from-port="1" to-layer="226" to-port="0" />
		<edge from-layer="225" from-port="0" to-layer="226" to-port="1" />
		<edge from-layer="226" from-port="2" to-layer="228" to-port="0" />
		<edge from-layer="227" from-port="0" to-layer="228" to-port="1" />
		<edge from-layer="228" from-port="2" to-layer="229" to-port="0" />
		<edge from-layer="229" from-port="1" to-layer="231" to-port="0" />
		<edge from-layer="230" from-port="0" to-layer="231" to-port="1" />
		<edge from-layer="231" from-port="2" to-layer="233" to-port="0" />
		<edge from-layer="232" from-port="0" to-layer="233" to-port="1" />
		<edge from-layer="233" from-port="2" to-layer="234" to-port="0" />
		<edge from-layer="234" from-port="1" to-layer="236" to-port="0" />
		<edge from-layer="235" from-port="0" to-layer="236" to-port="1" />
		<edge from-layer="236" from-port="2" to-layer="238" to-port="0" />
		<edge from-layer="237" from-port="0" to-layer="238" to-port="1" />
		<edge from-layer="238" from-port="2" to-layer="239" to-port="0" />
		<edge from-layer="239" from-port="1" to-layer="241" to-port="0" />
		<edge from-layer="240" from-port="0" to-layer="241" to-port="1" />
		<edge from-layer="241" from-port="2" to-layer="243" to-port="0" />
		<edge from-layer="242" from-port="0" to-layer="243" to-port="1" />
		<edge from-layer="243" from-port="2" to-layer="244" to-port="0" />
		<edge from-layer="244" from-port="1" to-layer="246" to-port="0" />
		<edge from-layer="245" from-port="0" to-layer="246" to-port="1" />
		<edge from-layer="246" from-port="2" to-layer="248" to-port="0" />
		<edge from-layer="247" from-port="0" to-layer="248" to-port="1" />
		<edge from-layer="248" from-port="2" to-layer="249" to-port="0" />
		<edge from-layer="249" from-port="1" to-layer="251" to-port="0" />
		<edge from-layer="250" from-port="0" to-layer="251" to-port="1" />
		<edge from-layer="251" from-port="2" to-layer="253" to-port="0" />
		<edge from-layer="252" from-port="0" to-layer="253" to-port="1" />
		<edge from-layer="253" from-port="2" to-layer="254" to-port="0" />
		<edge from-layer="254" from-port="1" to-layer="256" to-port="0" />
		<edge from-layer="255" from-port="0" to-layer="256" to-port="1" />
		<edge from-layer="256" from-port="2" to-layer="258" to-port="0" />
		<edge from-layer="257" from-port="0" to-layer="258" to-port="1" />
		<edge from-layer="258" from-port="2" to-layer="259" to-port="0" />
		<edge from-layer="259" from-port="1" to-layer="261" to-port="0" />
		<edge from-layer="260" from-port="0" to-layer="261" to-port="1" />
		<edge from-layer="261" from-port="2" to-layer="263" to-port="0" />
		<edge from-layer="262" from-port="0" to-layer="263" to-port="1" />
		<edge from-layer="263" from-port="2" to-layer="264" to-port="0" />
		<edge from-layer="264" from-port="1" to-layer="266" to-port="0" />
		<edge from-layer="265" from-port="0" to-layer="266" to-port="1" />
		<edge from-layer="266" from-port="2" to-layer="268" to-port="0" />
		<edge from-layer="267" from-port="0" to-layer="268" to-port="1" />
		<edge from-layer="268" from-port="2" to-layer="269" to-port="0" />
		<edge from-layer="269" from-port="1" to-layer="271" to-port="0" />
		<edge from-layer="270" from-port="0" to-layer="271" to-port="1" />
		<edge from-layer="271" from-port="2" to-layer="273" to-port="0" />
		<edge from-layer="272" from-port="0" to-layer="273" to-port="1" />
		<edge from-layer="273" from-port="2" to-layer="274" to-port="0" />
		<edge from-layer="274" from-port="1" to-layer="277" to-port="0" />
		<edge from-layer="274" from-port="1" to-layer="288" to-port="0" />
		<edge from-layer="275" from-port="0" to-layer="288" to-port="1" />
		<edge from-layer="276" from-port="0" to-layer="286" to-port="0" />
		<edge from-layer="277" from-port="1" to-layer="280" to-port="0" />
		<edge from-layer="278" from-port="0" to-layer="280" to-port="1" />
		<edge from-layer="279" from-port="0" to-layer="280" to-port="2" />
		<edge from-layer="280" from-port="3" to-layer="284" to-port="0" />
		<edge from-layer="281" from-port="0" to-layer="284" to-port="1" />
		<edge from-layer="282" from-port="0" to-layer="284" to-port="2" />
		<edge from-layer="283" from-port="0" to-layer="284" to-port="3" />
		<edge from-layer="284" from-port="4" to-layer="285" to-port="0" />
		<edge from-layer="285" from-port="1" to-layer="286" to-port="1" />
		<edge from-layer="286" from-port="2" to-layer="288" to-port="2" />
		<edge from-layer="287" from-port="0" to-layer="288" to-port="3" />
		<edge from-layer="288" from-port="4" to-layer="290" to-port="0" />
		<edge from-layer="289" from-port="0" to-layer="290" to-port="1" />
		<edge from-layer="290" from-port="2" to-layer="292" to-port="0" />
		<edge from-layer="291" from-port="0" to-layer="292" to-port="1" />
		<edge from-layer="292" from-port="2" to-layer="293" to-port="0" />
		<edge from-layer="293" from-port="1" to-layer="295" to-port="0" />
		<edge from-layer="294" from-port="0" to-layer="295" to-port="1" />
		<edge from-layer="295" from-port="2" to-layer="297" to-port="0" />
		<edge from-layer="296" from-port="0" to-layer="297" to-port="1" />
		<edge from-layer="297" from-port="2" to-layer="298" to-port="0" />
		<edge from-layer="298" from-port="1" to-layer="303" to-port="0" />
		<edge from-layer="298" from-port="1" to-layer="314" to-port="0" />
		<edge from-layer="299" from-port="0" to-layer="301" to-port="1" />
		<edge from-layer="300" from-port="0" to-layer="301" to-port="2" />
		<edge from-layer="301" from-port="3" to-layer="314" to-port="1" />
		<edge from-layer="302" from-port="0" to-layer="312" to-port="0" />
		<edge from-layer="303" from-port="1" to-layer="306" to-port="0" />
		<edge from-layer="304" from-port="0" to-layer="306" to-port="1" />
		<edge from-layer="305" from-port="0" to-layer="306" to-port="2" />
		<edge from-layer="306" from-port="3" to-layer="310" to-port="0" />
		<edge from-layer="307" from-port="0" to-layer="310" to-port="1" />
		<edge from-layer="308" from-port="0" to-layer="310" to-port="2" />
		<edge from-layer="309" from-port="0" to-layer="310" to-port="3" />
		<edge from-layer="310" from-port="4" to-layer="311" to-port="0" />
		<edge from-layer="311" from-port="1" to-layer="312" to-port="1" />
		<edge from-layer="312" from-port="2" to-layer="314" to-port="2" />
		<edge from-layer="313" from-port="0" to-layer="314" to-port="3" />
		<edge from-layer="314" from-port="4" to-layer="315" to-port="1" />
		<edge from-layer="315" from-port="3" to-layer="317" to-port="0" />
		<edge from-layer="316" from-port="0" to-layer="317" to-port="1" />
		<edge from-layer="317" from-port="2" to-layer="319" to-port="0" />
		<edge from-layer="318" from-port="0" to-layer="319" to-port="1" />
		<edge from-layer="319" from-port="2" to-layer="320" to-port="0" />
		<edge from-layer="320" from-port="1" to-layer="322" to-port="0" />
		<edge from-layer="321" from-port="0" to-layer="322" to-port="1" />
		<edge from-layer="322" from-port="2" to-layer="324" to-port="0" />
		<edge from-layer="323" from-port="0" to-layer="324" to-port="1" />
		<edge from-layer="324" from-port="2" to-layer="325" to-port="0" />
		<edge from-layer="325" from-port="1" to-layer="326" to-port="0" />
		<edge from-layer="326" from-port="2" to-layer="330" to-port="0" />
		<edge from-layer="327" from-port="0" to-layer="328" to-port="0" />
		<edge from-layer="328" from-port="2" to-layer="329" to-port="1" />
		<edge from-layer="329" from-port="2" to-layer="330" to-port="1" />
		<edge from-layer="330" from-port="2" to-layer="332" to-port="0" />
		<edge from-layer="331" from-port="0" to-layer="332" to-port="1" />
		<edge from-layer="332" from-port="2" to-layer="334" to-port="0" />
		<edge from-layer="333" from-port="0" to-layer="334" to-port="1" />
		<edge from-layer="334" from-port="2" to-layer="335" to-port="0" />
		<edge from-layer="335" from-port="1" to-layer="337" to-port="0" />
		<edge from-layer="336" from-port="0" to-layer="337" to-port="1" />
		<edge from-layer="337" from-port="2" to-layer="338" to-port="0" />
	</edges>
	<rt_info>
		<MO_version value="2022.3.0-9052-9752fafe8eb-releases/2022/3" />
		<Runtime_version value="2022.3.0-9052-9752fafe8eb-releases/2022/3" />
		<conversion_parameters>
			<data_type value="FP32" />
			<framework value="tf" />
			<input value="Placeholder,Placeholder_1" />
			<input_model value="DIR\frozen_model.pb" />
			<input_shape value="[1, 512, 680, 3],[1, 512, 680, 1]" />
			<layout value="Placeholder(NHWC),Placeholder_1(NHWC)" />
			<model_name value="gmcnn-places2-tf" />
			<output value="Minimum" />
			<output_dir value="D:\Python\AI\interactive-image-inpainting\public\gmcnn-places2-tf\FP32" />
		</conversion_parameters>
		<legacy_frontend value="True" />
	</rt_info>
</net>
