<?xml version="1.0"?>
<net name="gmcnn-places2-tf" version="11">
	<layers>
		<layer id="1" name="Placeholder" type="Parameter" version="opset1">
			<data shape="1,512,680,3" element_type="f32" />
			<rt_info>
				<attribute name="old_api_map_element_type" version="0" value="f16" />
				<attribute name="old_api_map_order" version="0" value="0, 2, 3, 1" />
			</rt_info>
			<output>
				<port id="0" precision="FP32" names="Placeholder,Placeholder:0">
					<dim>1</dim>
					<dim>512</dim>
					<dim>680</dim>
					<dim>3</dim>
					<rt_info>
						<attribute name="layout" version="0" layout="[N,H,W,C]" />
					</rt_info>
				</port>
			</output>
		</layer>
		<layer id="0" name="Placeholder_1" type="Parameter" version="opset1">
			<data shape="1,512,680,1" element_type="f32" />
			<rt_info>
				<attribute name="old_api_map_element_type" version="0" value="f16" />
				<attribute name="old_api_map_order" version="0" value="0, 2, 3, 1" />
			</rt_info>
			<output>
				<port id="0" precision="FP32" names="Placeholder_1,Placeholder_1:0">
					<dim>1</dim>
					<dim>512</dim>
					<dim>680</dim>
					<dim>1</dim>
					<rt_info>
						<attribute name="layout" version="0" layout="[N,H,W,C]" />
					</rt_info>
				</port>
			</output>
		</layer>
		<layer id="2" name="Placeholder/Transpose([0 3 1 2])/value971714288" type="Const" version="opset1">
			<data element_type="i64" shape="4" offset="0" size="32" />
			<output>
				<port id="0" precision="I64">
					<dim>4</dim>
				</port>
			</output>
		</layer>
		<layer id="3" name="Placeholder/Transpose([0 3 1 2])" type="Transpose" version="opset1">
			<input>
				<port id="0" precision="FP32">
					<dim>1</dim>
					<dim>512</dim>
					<dim>680</dim>
					<dim>3</dim>
				</port>
				<port id="1" precision="I64">
					<dim>4</dim>
				</port>
			</input>
			<output>
				<port id="2" precision="FP32">
					<dim>1</dim>
					<dim>3</dim>
					<dim>512</dim>
					<dim>680</dim>
				</port>
			</output>
		</layer>
		<layer id="4" name="truediv/y_compressed" type="Const" version="opset1">
			<data element_type="f16" shape="1, 1, 1, 1" offset="32" size="2" />
			<output>
				<port id="0" precision="FP16">
					<dim>1</dim>
					<dim>1</dim>
					<dim>1</dim>
					<dim>1</dim>
				</port>
			</output>
		</layer>
		<layer id="5" name="truediv/y" type="Convert" version="opset1">
			<data destination_type="f32" />
			<rt_info>
				<attribute name="decompression" version="0" />
			</rt_info>
			<input>
				<port id="0" precision="FP16">
					<dim>1</dim>
					<dim>1</dim>
					<dim>1</dim>
					<dim>1</dim>
				</port>
			</input>
			<output>
				<port id="1" precision="FP32" names="truediv/y:0">
					<dim>1</dim>
					<dim>1</dim>
					<dim>1</dim>
					<dim>1</dim>
				</port>
			</output>
		</layer>
		<layer id="6" name="truediv" type="Multiply" version="opset1">
			<data auto_broadcast="numpy" />
			<input>
				<port id="0" precision="FP32">
					<dim>1</dim>
					<dim>3</dim>
					<dim>512</dim>
					<dim>680</dim>
				</port>
				<port id="1" precision="FP32">
					<dim>1</dim>
					<dim>1</dim>
					<dim>1</dim>
					<dim>1</dim>
				</port>
			</input>
			<output>
				<port id="2" precision="FP32" names="truediv:0">
					<dim>1</dim>
					<dim>3</dim>
					<dim>512</dim>
					<dim>680</dim>
				</port>
			</output>
		</layer>
		<layer id="7" name="sub/y_compressed" type="Const" version="opset1">
			<data element_type="f16" shape="1, 1, 1, 1" offset="34" size="2" />
			<output>
				<port id="0" precision="FP16">
					<dim>1</dim>
					<dim>1</dim>
					<dim>1</dim>
					<dim>1</dim>
				</port>
			</output>
		</layer>
		<layer id="8" name="sub/y" type="Convert" version="opset1">
			<data destination_type="f32" />
			<rt_info>
				<attribute name="decompression" version="0" />
			</rt_info>
			<input>
				<port id="0" precision="FP16">
					<dim>1</dim>
					<dim>1</dim>
					<dim>1</dim>
					<dim>1</dim>
				</port>
			</input>
			<output>
				<port id="1" precision="FP32" names="sub/y:0">
					<dim>1</dim>
					<dim>1</dim>
					<dim>1</dim>
					<dim>1</dim>
				</port>
			</output>
		</layer>
		<layer id="9" name="sub" type="Add" version="opset1">
			<data auto_broadcast="numpy" />
			<input>
				<port id="0" precision="FP32">
					<dim>1</dim>
					<dim>3</dim>
					<dim>512</dim>
					<dim>680</dim>
				</port>
				<port id="1" precision="FP32">
					<dim>1</dim>
					<dim>1</dim>
					<dim>1</dim>
					<dim>1</dim>
				</port>
			</input>
			<output>
				<port id="2" precision="FP32" names="sub:0">
					<dim>1</dim>
					<dim>3</dim>
					<dim>512</dim>
					<dim>680</dim>
				</port>
			</output>
		</layer>
		<layer id="10" name="sub_1/x_compressed" type="Const" version="opset1">
			<data element_type="f16" shape="1, 1, 1, 1" offset="36" size="2" />
			<output>
				<port id="0" precision="FP16">
					<dim>1</dim>
					<dim>1</dim>
					<dim>1</dim>
					<dim>1</dim>
				</port>
			</output>
		</layer>
		<layer id="11" name="sub_1/x" type="Convert" version="opset1">
			<data destination_type="f32" />
			<rt_info>
				<attribute name="decompression" version="0" />
			</rt_info>
			<input>
				<port id="0" precision="FP16">
					<dim>1</dim>
					<dim>1</dim>
					<dim>1</dim>
					<dim>1</dim>
				</port>
			</input>
			<output>
				<port id="1" precision="FP32" names="sub_1/x:0">
					<dim>1</dim>
					<dim>1</dim>
					<dim>1</dim>
					<dim>1</dim>
				</port>
			</output>
		</layer>
		<layer id="12" name="Placeholder_1/Transpose([0 3 1 2])/value972114162" type="Const" version="opset1">
			<data element_type="i64" shape="4" offset="0" size="32" />
			<output>
				<port id="0" precision="I64">
					<dim>4</dim>
				</port>
			</output>
		</layer>
		<layer id="13" name="Placeholder_1/Transpose([0 3 1 2])" type="Transpose" version="opset1">
			<input>
				<port id="0" precision="FP32">
					<dim>1</dim>
					<dim>512</dim>
					<dim>680</dim>
					<dim>1</dim>
				</port>
				<port id="1" precision="I64">
					<dim>4</dim>
				</port>
			</input>
			<output>
				<port id="2" precision="FP32">
					<dim>1</dim>
					<dim>1</dim>
					<dim>512</dim>
					<dim>680</dim>
				</port>
			</output>
		</layer>
		<layer id="14" name="sub_1" type="Subtract" version="opset1">
			<data auto_broadcast="numpy" />
			<input>
				<port id="0" precision="FP32">
					<dim>1</dim>
					<dim>1</dim>
					<dim>1</dim>
					<dim>1</dim>
				</port>
				<port id="1" precision="FP32">
					<dim>1</dim>
					<dim>1</dim>
					<dim>512</dim>
					<dim>680</dim>
				</port>
			</input>
			<output>
				<port id="2" precision="FP32" names="sub_1:0">
					<dim>1</dim>
					<dim>1</dim>
					<dim>512</dim>
					<dim>680</dim>
				</port>
			</output>
		</layer>
		<layer id="15" name="mul" type="Multiply" version="opset1">
			<data auto_broadcast="numpy" />
			<input>
				<port id="0" precision="FP32">
					<dim>1</dim>
					<dim>3</dim>
					<dim>512</dim>
					<dim>680</dim>
				</port>
				<port id="1" precision="FP32">
					<dim>1</dim>
					<dim>1</dim>
					<dim>512</dim>
					<dim>680</dim>
				</port>
			</input>
			<output>
				<port id="2" precision="FP32" names="mul:0">
					<dim>1</dim>
					<dim>3</dim>
					<dim>512</dim>
					<dim>680</dim>
				</port>
			</output>
		</layer>
		<layer id="16" name="ones_like/Const_compressed" type="Const" version="opset1">
			<data element_type="f16" shape="" offset="36" size="2" />
			<output>
				<port id="0" precision="FP16" />
			</output>
		</layer>
		<layer id="17" name="ones_like/Const" type="Convert" version="opset1">
			<data destination_type="f32" />
			<rt_info>
				<attribute name="decompression" version="0" />
			</rt_info>
			<input>
				<port id="0" precision="FP16" />
			</input>
			<output>
				<port id="1" precision="FP32" names="ones_like/Const:0" />
			</output>
		</layer>
		<layer id="18" name="ones_like/Shape" type="ShapeOf" version="opset3">
			<data output_type="i32" />
			<input>
				<port id="0" precision="FP32">
					<dim>1</dim>
					<dim>3</dim>
					<dim>512</dim>
					<dim>680</dim>
				</port>
			</input>
			<output>
				<port id="1" precision="I32">
					<dim>4</dim>
				</port>
			</output>
		</layer>
		<layer id="19" name="ones_like/Shape/GatherNCHWtoNHWC_input_port_1/value952513898" type="Const" version="opset1">
			<data element_type="i32" shape="4" offset="38" size="16" />
			<output>
				<port id="0" precision="I32">
					<dim>4</dim>
				</port>
			</output>
		</layer>
		<layer id="20" name="ones_like/Shape/GatherNCHWtoNHWC_input_port_2/value952714174" type="Const" version="opset1">
			<data element_type="i64" shape="" offset="54" size="8" />
			<output>
				<port id="0" precision="I64" />
			</output>
		</layer>
		<layer id="21" name="ones_like/Shape/GatherNCHWtoNHWC" type="Gather" version="opset8">
			<data batch_dims="0" />
			<input>
				<port id="0" precision="I32">
					<dim>4</dim>
				</port>
				<port id="1" precision="I32">
					<dim>4</dim>
				</port>
				<port id="2" precision="I64" />
			</input>
			<output>
				<port id="3" precision="I32">
					<dim>4</dim>
				</port>
			</output>
		</layer>
		<layer id="22" name="ones_like/Broadcast/Cast_1" type="Convert" version="opset1">
			<data destination_type="i64" />
			<input>
				<port id="0" precision="I32">
					<dim>4</dim>
				</port>
			</input>
			<output>
				<port id="1" precision="I64" names="ones_like/Shape:0">
					<dim>4</dim>
				</port>
			</output>
		</layer>
		<layer id="23" name="ones_like/Broadcast" type="Broadcast" version="opset3">
			<data mode="numpy" />
			<input>
				<port id="0" precision="FP32" />
				<port id="1" precision="I64">
					<dim>4</dim>
				</port>
			</input>
			<output>
				<port id="2" precision="FP32" names="ones_like:0">
					<dim>1</dim>
					<dim>512</dim>
					<dim>680</dim>
					<dim>3</dim>
				</port>
			</output>
		</layer>
		<layer id="24" name="strided_slice/stack" type="Const" version="opset1">
			<data element_type="i64" shape="4" offset="62" size="32" />
			<output>
				<port id="0" precision="I64" names="strided_slice/stack:0">
					<dim>4</dim>
				</port>
			</output>
		</layer>
		<layer id="25" name="strided_slice/stack_1" type="Const" version="opset1">
			<data element_type="i64" shape="4" offset="94" size="32" />
			<output>
				<port id="0" precision="I64" names="strided_slice/stack_1:0">
					<dim>4</dim>
				</port>
			</output>
		</layer>
		<layer id="26" name="strided_slice/stack_2" type="Const" version="opset1">
			<data element_type="i64" shape="4" offset="126" size="32" />
			<output>
				<port id="0" precision="I64" names="strided_slice/stack_2:0">
					<dim>4</dim>
				</port>
			</output>
		</layer>
		<layer id="27" name="strided_slice" type="StridedSlice" version="opset1">
			<data begin_mask="1, 1, 1, 0" end_mask="1, 1, 1, 0" new_axis_mask="0, 0, 0, 0" shrink_axis_mask="0, 0, 0, 0" ellipsis_mask="0, 0, 0, 0" />
			<input>
				<port id="0" precision="FP32">
					<dim>1</dim>
					<dim>512</dim>
					<dim>680</dim>
					<dim>3</dim>
				</port>
				<port id="1" precision="I64">
					<dim>4</dim>
				</port>
				<port id="2" precision="I64">
					<dim>4</dim>
				</port>
				<port id="3" precision="I64">
					<dim>4</dim>
				</port>
			</input>
			<output>
				<port id="4" precision="FP32">
					<dim>1</dim>
					<dim>512</dim>
					<dim>680</dim>
					<dim>1</dim>
				</port>
			</output>
		</layer>
		<layer id="28" name="995614216" type="Const" version="opset1">
			<data element_type="i64" shape="4" offset="0" size="32" />
			<output>
				<port id="0" precision="I64">
					<dim>4</dim>
				</port>
			</output>
		</layer>
		<layer id="29" name="concat/TransposeNHWCtoNCHW" type="Transpose" version="opset1">
			<input>
				<port id="0" precision="FP32">
					<dim>1</dim>
					<dim>512</dim>
					<dim>680</dim>
					<dim>1</dim>
				</port>
				<port id="1" precision="I64">
					<dim>4</dim>
				</port>
			</input>
			<output>
				<port id="2" precision="FP32">
					<dim>1</dim>
					<dim>1</dim>
					<dim>512</dim>
					<dim>680</dim>
				</port>
			</output>
		</layer>
		<layer id="30" name="994414264" type="Const" version="opset1">
			<data element_type="i64" shape="4" offset="0" size="32" />
			<output>
				<port id="0" precision="I64">
					<dim>4</dim>
				</port>
			</output>
		</layer>
		<layer id="31" name="mul_1/TransposeNHWCtoNCHW" type="Transpose" version="opset1">
			<input>
				<port id="0" precision="FP32">
					<dim>1</dim>
					<dim>512</dim>
					<dim>680</dim>
					<dim>1</dim>
				</port>
				<port id="1" precision="I64">
					<dim>4</dim>
				</port>
			</input>
			<output>
				<port id="2" precision="FP32" names="strided_slice:0">
					<dim>1</dim>
					<dim>1</dim>
					<dim>512</dim>
					<dim>680</dim>
				</port>
			</output>
		</layer>
		<layer id="32" name="mul_1" type="Multiply" version="opset1">
			<data auto_broadcast="numpy" />
			<input>
				<port id="0" precision="FP32">
					<dim>1</dim>
					<dim>1</dim>
					<dim>512</dim>
					<dim>680</dim>
				</port>
				<port id="1" precision="FP32">
					<dim>1</dim>
					<dim>1</dim>
					<dim>512</dim>
					<dim>680</dim>
				</port>
			</input>
			<output>
				<port id="2" precision="FP32" names="mul_1:0">
					<dim>1</dim>
					<dim>1</dim>
					<dim>512</dim>
					<dim>680</dim>
				</port>
			</output>
		</layer>
		<layer id="33" name="concat" type="Concat" version="opset1">
			<data axis="1" />
			<input>
				<port id="0" precision="FP32">
					<dim>1</dim>
					<dim>3</dim>
					<dim>512</dim>
					<dim>680</dim>
				</port>
				<port id="1" precision="FP32">
					<dim>1</dim>
					<dim>1</dim>
					<dim>512</dim>
					<dim>680</dim>
				</port>
				<port id="2" precision="FP32">
					<dim>1</dim>
					<dim>1</dim>
					<dim>512</dim>
					<dim>680</dim>
				</port>
			</input>
			<output>
				<port id="3" precision="FP32" names="concat:0">
					<dim>1</dim>
					<dim>5</dim>
					<dim>512</dim>
					<dim>680</dim>
				</port>
			</output>
		</layer>
		<layer id="34" name="inpaint_net/b1conv1/kernel/read_compressed" type="Const" version="opset1">
			<data element_type="f16" shape="32, 5, 7, 7" offset="158" size="15680" />
			<output>
				<port id="0" precision="FP16">
					<dim>32</dim>
					<dim>5</dim>
					<dim>7</dim>
					<dim>7</dim>
				</port>
			</output>
		</layer>
		<layer id="35" name="inpaint_net/b1conv1/kernel/read" type="Convert" version="opset1">
			<data destination_type="f32" />
			<rt_info>
				<attribute name="decompression" version="0" />
			</rt_info>
			<input>
				<port id="0" precision="FP16">
					<dim>32</dim>
					<dim>5</dim>
					<dim>7</dim>
					<dim>7</dim>
				</port>
			</input>
			<output>
				<port id="1" precision="FP32" names="inpaint_net/b1conv1/kernel/read:0">
					<dim>32</dim>
					<dim>5</dim>
					<dim>7</dim>
					<dim>7</dim>
				</port>
			</output>
		</layer>
		<layer id="36" name="inpaint_net/b1conv1/Conv2D" type="Convolution" version="opset1">
			<data strides="1, 1" dilations="1, 1" pads_begin="0, 0" pads_end="0, 0" auto_pad="same_upper" />
			<input>
				<port id="0" precision="FP32">
					<dim>1</dim>
					<dim>5</dim>
					<dim>512</dim>
					<dim>680</dim>
				</port>
				<port id="1" precision="FP32">
					<dim>32</dim>
					<dim>5</dim>
					<dim>7</dim>
					<dim>7</dim>
				</port>
			</input>
			<output>
				<port id="2" precision="FP32" names="inpaint_net/b1conv1/Conv2D:0">
					<dim>1</dim>
					<dim>32</dim>
					<dim>512</dim>
					<dim>680</dim>
				</port>
			</output>
		</layer>
		<layer id="37" name="inpaint_net/b1conv1/bias/read_compressed" type="Const" version="opset1">
			<data element_type="f16" shape="1, 32, 1, 1" offset="15838" size="64" />
			<output>
				<port id="0" precision="FP16">
					<dim>1</dim>
					<dim>32</dim>
					<dim>1</dim>
					<dim>1</dim>
				</port>
			</output>
		</layer>
		<layer id="38" name="inpaint_net/b1conv1/bias/read" type="Convert" version="opset1">
			<data destination_type="f32" />
			<rt_info>
				<attribute name="decompression" version="0" />
			</rt_info>
			<input>
				<port id="0" precision="FP16">
					<dim>1</dim>
					<dim>32</dim>
					<dim>1</dim>
					<dim>1</dim>
				</port>
			</input>
			<output>
				<port id="1" precision="FP32" names="inpaint_net/b1conv1/bias/read:0">
					<dim>1</dim>
					<dim>32</dim>
					<dim>1</dim>
					<dim>1</dim>
				</port>
			</output>
		</layer>
		<layer id="39" name="inpaint_net/b1conv1/BiasAdd/Add" type="Add" version="opset1">
			<data auto_broadcast="numpy" />
			<input>
				<port id="0" precision="FP32">
					<dim>1</dim>
					<dim>32</dim>
					<dim>512</dim>
					<dim>680</dim>
				</port>
				<port id="1" precision="FP32">
					<dim>1</dim>
					<dim>32</dim>
					<dim>1</dim>
					<dim>1</dim>
				</port>
			</input>
			<output>
				<port id="2" precision="FP32" names="inpaint_net/b1conv1/BiasAdd:0">
					<dim>1</dim>
					<dim>32</dim>
					<dim>512</dim>
					<dim>680</dim>
				</port>
			</output>
		</layer>
		<layer id="40" name="inpaint_net/b1conv1/Elu" type="Elu" version="opset1">
			<data alpha="1" />
			<input>
				<port id="0" precision="FP32">
					<dim>1</dim>
					<dim>32</dim>
					<dim>512</dim>
					<dim>680</dim>
				</port>
			</input>
			<output>
				<port id="1" precision="FP32" names="inpaint_net/b1conv1/Elu:0">
					<dim>1</dim>
					<dim>32</dim>
					<dim>512</dim>
					<dim>680</dim>
				</port>
			</output>
		</layer>
		<layer id="41" name="inpaint_net/b1conv2_downsample/kernel/read_compressed" type="Const" version="opset1">
			<data element_type="f16" shape="64, 32, 7, 7" offset="15902" size="200704" />
			<output>
				<port id="0" precision="FP16">
					<dim>64</dim>
					<dim>32</dim>
					<dim>7</dim>
					<dim>7</dim>
				</port>
			</output>
		</layer>
		<layer id="42" name="inpaint_net/b1conv2_downsample/kernel/read" type="Convert" version="opset1">
			<data destination_type="f32" />
			<rt_info>
				<attribute name="decompression" version="0" />
			</rt_info>
			<input>
				<port id="0" precision="FP16">
					<dim>64</dim>
					<dim>32</dim>
					<dim>7</dim>
					<dim>7</dim>
				</port>
			</input>
			<output>
				<port id="1" precision="FP32" names="inpaint_net/b1conv2_downsample/kernel/read:0">
					<dim>64</dim>
					<dim>32</dim>
					<dim>7</dim>
					<dim>7</dim>
				</port>
			</output>
		</layer>
		<layer id="43" name="inpaint_net/b1conv2_downsample/Conv2D" type="Convolution" version="opset1">
			<data strides="2, 2" dilations="1, 1" pads_begin="0, 0" pads_end="0, 0" auto_pad="same_upper" />
			<input>
				<port id="0" precision="FP32">
					<dim>1</dim>
					<dim>32</dim>
					<dim>512</dim>
					<dim>680</dim>
				</port>
				<port id="1" precision="FP32">
					<dim>64</dim>
					<dim>32</dim>
					<dim>7</dim>
					<dim>7</dim>
				</port>
			</input>
			<output>
				<port id="2" precision="FP32" names="inpaint_net/b1conv2_downsample/Conv2D:0">
					<dim>1</dim>
					<dim>64</dim>
					<dim>256</dim>
					<dim>340</dim>
				</port>
			</output>
		</layer>
		<layer id="44" name="inpaint_net/b1conv2_downsample/bias/read_compressed" type="Const" version="opset1">
			<data element_type="f16" shape="1, 64, 1, 1" offset="216606" size="128" />
			<output>
				<port id="0" precision="FP16">
					<dim>1</dim>
					<dim>64</dim>
					<dim>1</dim>
					<dim>1</dim>
				</port>
			</output>
		</layer>
		<layer id="45" name="inpaint_net/b1conv2_downsample/bias/read" type="Convert" version="opset1">
			<data destination_type="f32" />
			<rt_info>
				<attribute name="decompression" version="0" />
			</rt_info>
			<input>
				<port id="0" precision="FP16">
					<dim>1</dim>
					<dim>64</dim>
					<dim>1</dim>
					<dim>1</dim>
				</port>
			</input>
			<output>
				<port id="1" precision="FP32" names="inpaint_net/b1conv2_downsample/bias/read:0">
					<dim>1</dim>
					<dim>64</dim>
					<dim>1</dim>
					<dim>1</dim>
				</port>
			</output>
		</layer>
		<layer id="46" name="inpaint_net/b1conv2_downsample/BiasAdd/Add" type="Add" version="opset1">
			<data auto_broadcast="numpy" />
			<input>
				<port id="0" precision="FP32">
					<dim>1</dim>
					<dim>64</dim>
					<dim>256</dim>
					<dim>340</dim>
				</port>
				<port id="1" precision="FP32">
					<dim>1</dim>
					<dim>64</dim>
					<dim>1</dim>
					<dim>1</dim>
				</port>
			</input>
			<output>
				<port id="2" precision="FP32" names="inpaint_net/b1conv2_downsample/BiasAdd:0">
					<dim>1</dim>
					<dim>64</dim>
					<dim>256</dim>
					<dim>340</dim>
				</port>
			</output>
		</layer>
		<layer id="47" name="inpaint_net/b1conv2_downsample/Elu" type="Elu" version="opset1">
			<data alpha="1" />
			<input>
				<port id="0" precision="FP32">
					<dim>1</dim>
					<dim>64</dim>
					<dim>256</dim>
					<dim>340</dim>
				</port>
			</input>
			<output>
				<port id="1" precision="FP32" names="inpaint_net/b1conv2_downsample/Elu:0">
					<dim>1</dim>
					<dim>64</dim>
					<dim>256</dim>
					<dim>340</dim>
				</port>
			</output>
		</layer>
		<layer id="48" name="inpaint_net/b1conv3/kernel/read_compressed" type="Const" version="opset1">
			<data element_type="f16" shape="64, 64, 7, 7" offset="216734" size="401408" />
			<output>
				<port id="0" precision="FP16">
					<dim>64</dim>
					<dim>64</dim>
					<dim>7</dim>
					<dim>7</dim>
				</port>
			</output>
		</layer>
		<layer id="49" name="inpaint_net/b1conv3/kernel/read" type="Convert" version="opset1">
			<data destination_type="f32" />
			<rt_info>
				<attribute name="decompression" version="0" />
			</rt_info>
			<input>
				<port id="0" precision="FP16">
					<dim>64</dim>
					<dim>64</dim>
					<dim>7</dim>
					<dim>7</dim>
				</port>
			</input>
			<output>
				<port id="1" precision="FP32" names="inpaint_net/b1conv3/kernel/read:0">
					<dim>64</dim>
					<dim>64</dim>
					<dim>7</dim>
					<dim>7</dim>
				</port>
			</output>
		</layer>
		<layer id="50" name="inpaint_net/b1conv3/Conv2D" type="Convolution" version="opset1">
			<data strides="1, 1" dilations="1, 1" pads_begin="0, 0" pads_end="0, 0" auto_pad="same_upper" />
			<input>
				<port id="0" precision="FP32">
					<dim>1</dim>
					<dim>64</dim>
					<dim>256</dim>
					<dim>340</dim>
				</port>
				<port id="1" precision="FP32">
					<dim>64</dim>
					<dim>64</dim>
					<dim>7</dim>
					<dim>7</dim>
				</port>
			</input>
			<output>
				<port id="2" precision="FP32" names="inpaint_net/b1conv3/Conv2D:0">
					<dim>1</dim>
					<dim>64</dim>
					<dim>256</dim>
					<dim>340</dim>
				</port>
			</output>
		</layer>
		<layer id="51" name="inpaint_net/b1conv3/bias/read_compressed" type="Const" version="opset1">
			<data element_type="f16" shape="1, 64, 1, 1" offset="618142" size="128" />
			<output>
				<port id="0" precision="FP16">
					<dim>1</dim>
					<dim>64</dim>
					<dim>1</dim>
					<dim>1</dim>
				</port>
			</output>
		</layer>
		<layer id="52" name="inpaint_net/b1conv3/bias/read" type="Convert" version="opset1">
			<data destination_type="f32" />
			<rt_info>
				<attribute name="decompression" version="0" />
			</rt_info>
			<input>
				<port id="0" precision="FP16">
					<dim>1</dim>
					<dim>64</dim>
					<dim>1</dim>
					<dim>1</dim>
				</port>
			</input>
			<output>
				<port id="1" precision="FP32" names="inpaint_net/b1conv3/bias/read:0">
					<dim>1</dim>
					<dim>64</dim>
					<dim>1</dim>
					<dim>1</dim>
				</port>
			</output>
		</layer>
		<layer id="53" name="inpaint_net/b1conv3/BiasAdd/Add" type="Add" version="opset1">
			<data auto_broadcast="numpy" />
			<input>
				<port id="0" precision="FP32">
					<dim>1</dim>
					<dim>64</dim>
					<dim>256</dim>
					<dim>340</dim>
				</port>
				<port id="1" precision="FP32">
					<dim>1</dim>
					<dim>64</dim>
					<dim>1</dim>
					<dim>1</dim>
				</port>
			</input>
			<output>
				<port id="2" precision="FP32" names="inpaint_net/b1conv3/BiasAdd:0">
					<dim>1</dim>
					<dim>64</dim>
					<dim>256</dim>
					<dim>340</dim>
				</port>
			</output>
		</layer>
		<layer id="54" name="inpaint_net/b1conv3/Elu" type="Elu" version="opset1">
			<data alpha="1" />
			<input>
				<port id="0" precision="FP32">
					<dim>1</dim>
					<dim>64</dim>
					<dim>256</dim>
					<dim>340</dim>
				</port>
			</input>
			<output>
				<port id="1" precision="FP32" names="inpaint_net/b1conv3/Elu:0">
					<dim>1</dim>
					<dim>64</dim>
					<dim>256</dim>
					<dim>340</dim>
				</port>
			</output>
		</layer>
		<layer id="55" name="inpaint_net/b1conv4_downsample/kernel/read_compressed" type="Const" version="opset1">
			<data element_type="f16" shape="128, 64, 7, 7" offset="618270" size="802816" />
			<output>
				<port id="0" precision="FP16">
					<dim>128</dim>
					<dim>64</dim>
					<dim>7</dim>
					<dim>7</dim>
				</port>
			</output>
		</layer>
		<layer id="56" name="inpaint_net/b1conv4_downsample/kernel/read" type="Convert" version="opset1">
			<data destination_type="f32" />
			<rt_info>
				<attribute name="decompression" version="0" />
			</rt_info>
			<input>
				<port id="0" precision="FP16">
					<dim>128</dim>
					<dim>64</dim>
					<dim>7</dim>
					<dim>7</dim>
				</port>
			</input>
			<output>
				<port id="1" precision="FP32" names="inpaint_net/b1conv4_downsample/kernel/read:0">
					<dim>128</dim>
					<dim>64</dim>
					<dim>7</dim>
					<dim>7</dim>
				</port>
			</output>
		</layer>
		<layer id="57" name="inpaint_net/b1conv4_downsample/Conv2D" type="Convolution" version="opset1">
			<data strides="2, 2" dilations="1, 1" pads_begin="0, 0" pads_end="0, 0" auto_pad="same_upper" />
			<input>
				<port id="0" precision="FP32">
					<dim>1</dim>
					<dim>64</dim>
					<dim>256</dim>
					<dim>340</dim>
				</port>
				<port id="1" precision="FP32">
					<dim>128</dim>
					<dim>64</dim>
					<dim>7</dim>
					<dim>7</dim>
				</port>
			</input>
			<output>
				<port id="2" precision="FP32" names="inpaint_net/b1conv4_downsample/Conv2D:0">
					<dim>1</dim>
					<dim>128</dim>
					<dim>128</dim>
					<dim>170</dim>
				</port>
			</output>
		</layer>
		<layer id="58" name="inpaint_net/b1conv4_downsample/bias/read_compressed" type="Const" version="opset1">
			<data element_type="f16" shape="1, 128, 1, 1" offset="1421086" size="256" />
			<output>
				<port id="0" precision="FP16">
					<dim>1</dim>
					<dim>128</dim>
					<dim>1</dim>
					<dim>1</dim>
				</port>
			</output>
		</layer>
		<layer id="59" name="inpaint_net/b1conv4_downsample/bias/read" type="Convert" version="opset1">
			<data destination_type="f32" />
			<rt_info>
				<attribute name="decompression" version="0" />
			</rt_info>
			<input>
				<port id="0" precision="FP16">
					<dim>1</dim>
					<dim>128</dim>
					<dim>1</dim>
					<dim>1</dim>
				</port>
			</input>
			<output>
				<port id="1" precision="FP32" names="inpaint_net/b1conv4_downsample/bias/read:0">
					<dim>1</dim>
					<dim>128</dim>
					<dim>1</dim>
					<dim>1</dim>
				</port>
			</output>
		</layer>
		<layer id="60" name="inpaint_net/b1conv4_downsample/BiasAdd/Add" type="Add" version="opset1">
			<data auto_broadcast="numpy" />
			<input>
				<port id="0" precision="FP32">
					<dim>1</dim>
					<dim>128</dim>
					<dim>128</dim>
					<dim>170</dim>
				</port>
				<port id="1" precision="FP32">
					<dim>1</dim>
					<dim>128</dim>
					<dim>1</dim>
					<dim>1</dim>
				</port>
			</input>
			<output>
				<port id="2" precision="FP32" names="inpaint_net/b1conv4_downsample/BiasAdd:0">
					<dim>1</dim>
					<dim>128</dim>
					<dim>128</dim>
					<dim>170</dim>
				</port>
			</output>
		</layer>
		<layer id="61" name="inpaint_net/b1conv4_downsample/Elu" type="Elu" version="opset1">
			<data alpha="1" />
			<input>
				<port id="0" precision="FP32">
					<dim>1</dim>
					<dim>128</dim>
					<dim>128</dim>
					<dim>170</dim>
				</port>
			</input>
			<output>
				<port id="1" precision="FP32" names="inpaint_net/b1conv4_downsample/Elu:0">
					<dim>1</dim>
					<dim>128</dim>
					<dim>128</dim>
					<dim>170</dim>
				</port>
			</output>
		</layer>
		<layer id="62" name="inpaint_net/b1conv5/kernel/read_compressed" type="Const" version="opset1">
			<data element_type="f16" shape="128, 128, 7, 7" offset="1421342" size="1605632" />
			<output>
				<port id="0" precision="FP16">
					<dim>128</dim>
					<dim>128</dim>
					<dim>7</dim>
					<dim>7</dim>
				</port>
			</output>
		</layer>
		<layer id="63" name="inpaint_net/b1conv5/kernel/read" type="Convert" version="opset1">
			<data destination_type="f32" />
			<rt_info>
				<attribute name="decompression" version="0" />
			</rt_info>
			<input>
				<port id="0" precision="FP16">
					<dim>128</dim>
					<dim>128</dim>
					<dim>7</dim>
					<dim>7</dim>
				</port>
			</input>
			<output>
				<port id="1" precision="FP32" names="inpaint_net/b1conv5/kernel/read:0">
					<dim>128</dim>
					<dim>128</dim>
					<dim>7</dim>
					<dim>7</dim>
				</port>
			</output>
		</layer>
		<layer id="64" name="inpaint_net/b1conv5/Conv2D" type="Convolution" version="opset1">
			<data strides="1, 1" dilations="1, 1" pads_begin="0, 0" pads_end="0, 0" auto_pad="same_upper" />
			<input>
				<port id="0" precision="FP32">
					<dim>1</dim>
					<dim>128</dim>
					<dim>128</dim>
					<dim>170</dim>
				</port>
				<port id="1" precision="FP32">
					<dim>128</dim>
					<dim>128</dim>
					<dim>7</dim>
					<dim>7</dim>
				</port>
			</input>
			<output>
				<port id="2" precision="FP32" names="inpaint_net/b1conv5/Conv2D:0">
					<dim>1</dim>
					<dim>128</dim>
					<dim>128</dim>
					<dim>170</dim>
				</port>
			</output>
		</layer>
		<layer id="65" name="inpaint_net/b1conv5/bias/read_compressed" type="Const" version="opset1">
			<data element_type="f16" shape="1, 128, 1, 1" offset="3026974" size="256" />
			<output>
				<port id="0" precision="FP16">
					<dim>1</dim>
					<dim>128</dim>
					<dim>1</dim>
					<dim>1</dim>
				</port>
			</output>
		</layer>
		<layer id="66" name="inpaint_net/b1conv5/bias/read" type="Convert" version="opset1">
			<data destination_type="f32" />
			<rt_info>
				<attribute name="decompression" version="0" />
			</rt_info>
			<input>
				<port id="0" precision="FP16">
					<dim>1</dim>
					<dim>128</dim>
					<dim>1</dim>
					<dim>1</dim>
				</port>
			</input>
			<output>
				<port id="1" precision="FP32" names="inpaint_net/b1conv5/bias/read:0">
					<dim>1</dim>
					<dim>128</dim>
					<dim>1</dim>
					<dim>1</dim>
				</port>
			</output>
		</layer>
		<layer id="67" name="inpaint_net/b1conv5/BiasAdd/Add" type="Add" version="opset1">
			<data auto_broadcast="numpy" />
			<input>
				<port id="0" precision="FP32">
					<dim>1</dim>
					<dim>128</dim>
					<dim>128</dim>
					<dim>170</dim>
				</port>
				<port id="1" precision="FP32">
					<dim>1</dim>
					<dim>128</dim>
					<dim>1</dim>
					<dim>1</dim>
				</port>
			</input>
			<output>
				<port id="2" precision="FP32" names="inpaint_net/b1conv5/BiasAdd:0">
					<dim>1</dim>
					<dim>128</dim>
					<dim>128</dim>
					<dim>170</dim>
				</port>
			</output>
		</layer>
		<layer id="68" name="inpaint_net/b1conv5/Elu" type="Elu" version="opset1">
			<data alpha="1" />
			<input>
				<port id="0" precision="FP32">
					<dim>1</dim>
					<dim>128</dim>
					<dim>128</dim>
					<dim>170</dim>
				</port>
			</input>
			<output>
				<port id="1" precision="FP32" names="inpaint_net/b1conv5/Elu:0">
					<dim>1</dim>
					<dim>128</dim>
					<dim>128</dim>
					<dim>170</dim>
				</port>
			</output>
		</layer>
		<layer id="69" name="inpaint_net/b1conv6/kernel/read_compressed" type="Const" version="opset1">
			<data element_type="f16" shape="128, 128, 7, 7" offset="3027230" size="1605632" />
			<output>
				<port id="0" precision="FP16">
					<dim>128</dim>
					<dim>128</dim>
					<dim>7</dim>
					<dim>7</dim>
				</port>
			</output>
		</layer>
		<layer id="70" name="inpaint_net/b1conv6/kernel/read" type="Convert" version="opset1">
			<data destination_type="f32" />
			<rt_info>
				<attribute name="decompression" version="0" />
			</rt_info>
			<input>
				<port id="0" precision="FP16">
					<dim>128</dim>
					<dim>128</dim>
					<dim>7</dim>
					<dim>7</dim>
				</port>
			</input>
			<output>
				<port id="1" precision="FP32" names="inpaint_net/b1conv6/kernel/read:0">
					<dim>128</dim>
					<dim>128</dim>
					<dim>7</dim>
					<dim>7</dim>
				</port>
			</output>
		</layer>
		<layer id="71" name="inpaint_net/b1conv6/Conv2D" type="Convolution" version="opset1">
			<data strides="1, 1" dilations="1, 1" pads_begin="0, 0" pads_end="0, 0" auto_pad="same_upper" />
			<input>
				<port id="0" precision="FP32">
					<dim>1</dim>
					<dim>128</dim>
					<dim>128</dim>
					<dim>170</dim>
				</port>
				<port id="1" precision="FP32">
					<dim>128</dim>
					<dim>128</dim>
					<dim>7</dim>
					<dim>7</dim>
				</port>
			</input>
			<output>
				<port id="2" precision="FP32" names="inpaint_net/b1conv6/Conv2D:0">
					<dim>1</dim>
					<dim>128</dim>
					<dim>128</dim>
					<dim>170</dim>
				</port>
			</output>
		</layer>
		<layer id="72" name="inpaint_net/b1conv6/bias/read_compressed" type="Const" version="opset1">
			<data element_type="f16" shape="1, 128, 1, 1" offset="4632862" size="256" />
			<output>
				<port id="0" precision="FP16">
					<dim>1</dim>
					<dim>128</dim>
					<dim>1</dim>
					<dim>1</dim>
				</port>
			</output>
		</layer>
		<layer id="73" name="inpaint_net/b1conv6/bias/read" type="Convert" version="opset1">
			<data destination_type="f32" />
			<rt_info>
				<attribute name="decompression" version="0" />
			</rt_info>
			<input>
				<port id="0" precision="FP16">
					<dim>1</dim>
					<dim>128</dim>
					<dim>1</dim>
					<dim>1</dim>
				</port>
			</input>
			<output>
				<port id="1" precision="FP32" names="inpaint_net/b1conv6/bias/read:0">
					<dim>1</dim>
					<dim>128</dim>
					<dim>1</dim>
					<dim>1</dim>
				</port>
			</output>
		</layer>
		<layer id="74" name="inpaint_net/b1conv6/BiasAdd/Add" type="Add" version="opset1">
			<data auto_broadcast="numpy" />
			<input>
				<port id="0" precision="FP32">
					<dim>1</dim>
					<dim>128</dim>
					<dim>128</dim>
					<dim>170</dim>
				</port>
				<port id="1" precision="FP32">
					<dim>1</dim>
					<dim>128</dim>
					<dim>1</dim>
					<dim>1</dim>
				</port>
			</input>
			<output>
				<port id="2" precision="FP32" names="inpaint_net/b1conv6/BiasAdd:0">
					<dim>1</dim>
					<dim>128</dim>
					<dim>128</dim>
					<dim>170</dim>
				</port>
			</output>
		</layer>
		<layer id="75" name="inpaint_net/b1conv6/Elu" type="Elu" version="opset1">
			<data alpha="1" />
			<input>
				<port id="0" precision="FP32">
					<dim>1</dim>
					<dim>128</dim>
					<dim>128</dim>
					<dim>170</dim>
				</port>
			</input>
			<output>
				<port id="1" precision="FP32" names="inpaint_net/b1conv6/Elu:0">
					<dim>1</dim>
					<dim>128</dim>
					<dim>128</dim>
					<dim>170</dim>
				</port>
			</output>
		</layer>
		<layer id="76" name="inpaint_net/b1conv7_atrous/kernel/read_compressed" type="Const" version="opset1">
			<data element_type="f16" shape="128, 128, 7, 7" offset="4633118" size="1605632" />
			<output>
				<port id="0" precision="FP16">
					<dim>128</dim>
					<dim>128</dim>
					<dim>7</dim>
					<dim>7</dim>
				</port>
			</output>
		</layer>
		<layer id="77" name="inpaint_net/b1conv7_atrous/kernel/read" type="Convert" version="opset1">
			<data destination_type="f32" />
			<rt_info>
				<attribute name="decompression" version="0" />
			</rt_info>
			<input>
				<port id="0" precision="FP16">
					<dim>128</dim>
					<dim>128</dim>
					<dim>7</dim>
					<dim>7</dim>
				</port>
			</input>
			<output>
				<port id="1" precision="FP32" names="inpaint_net/b1conv7_atrous/kernel/read:0">
					<dim>128</dim>
					<dim>128</dim>
					<dim>7</dim>
					<dim>7</dim>
				</port>
			</output>
		</layer>
		<layer id="78" name="inpaint_net/b1conv7_atrous/Conv2D" type="Convolution" version="opset1">
			<data strides="1, 1" dilations="2, 2" pads_begin="6, 6" pads_end="6, 6" auto_pad="explicit" />
			<input>
				<port id="0" precision="FP32">
					<dim>1</dim>
					<dim>128</dim>
					<dim>128</dim>
					<dim>170</dim>
				</port>
				<port id="1" precision="FP32">
					<dim>128</dim>
					<dim>128</dim>
					<dim>7</dim>
					<dim>7</dim>
				</port>
			</input>
			<output>
				<port id="2" precision="FP32" names="inpaint_net/b1conv7_atrous/BatchToSpaceND:0">
					<dim>1</dim>
					<dim>128</dim>
					<dim>128</dim>
					<dim>170</dim>
				</port>
			</output>
		</layer>
		<layer id="79" name="inpaint_net/b1conv7_atrous/bias/read_compressed" type="Const" version="opset1">
			<data element_type="f16" shape="1, 128, 1, 1" offset="6238750" size="256" />
			<output>
				<port id="0" precision="FP16">
					<dim>1</dim>
					<dim>128</dim>
					<dim>1</dim>
					<dim>1</dim>
				</port>
			</output>
		</layer>
		<layer id="80" name="inpaint_net/b1conv7_atrous/bias/read" type="Convert" version="opset1">
			<data destination_type="f32" />
			<rt_info>
				<attribute name="decompression" version="0" />
			</rt_info>
			<input>
				<port id="0" precision="FP16">
					<dim>1</dim>
					<dim>128</dim>
					<dim>1</dim>
					<dim>1</dim>
				</port>
			</input>
			<output>
				<port id="1" precision="FP32" names="inpaint_net/b1conv7_atrous/bias/read:0">
					<dim>1</dim>
					<dim>128</dim>
					<dim>1</dim>
					<dim>1</dim>
				</port>
			</output>
		</layer>
		<layer id="81" name="inpaint_net/b1conv7_atrous/BiasAdd/Add" type="Add" version="opset1">
			<data auto_broadcast="numpy" />
			<input>
				<port id="0" precision="FP32">
					<dim>1</dim>
					<dim>128</dim>
					<dim>128</dim>
					<dim>170</dim>
				</port>
				<port id="1" precision="FP32">
					<dim>1</dim>
					<dim>128</dim>
					<dim>1</dim>
					<dim>1</dim>
				</port>
			</input>
			<output>
				<port id="2" precision="FP32" names="inpaint_net/b1conv7_atrous/BiasAdd:0">
					<dim>1</dim>
					<dim>128</dim>
					<dim>128</dim>
					<dim>170</dim>
				</port>
			</output>
		</layer>
		<layer id="82" name="inpaint_net/b1conv7_atrous/Elu" type="Elu" version="opset1">
			<data alpha="1" />
			<input>
				<port id="0" precision="FP32">
					<dim>1</dim>
					<dim>128</dim>
					<dim>128</dim>
					<dim>170</dim>
				</port>
			</input>
			<output>
				<port id="1" precision="FP32" names="inpaint_net/b1conv7_atrous/Elu:0">
					<dim>1</dim>
					<dim>128</dim>
					<dim>128</dim>
					<dim>170</dim>
				</port>
			</output>
		</layer>
		<layer id="83" name="inpaint_net/b1conv8_atrous/kernel/read_compressed" type="Const" version="opset1">
			<data element_type="f16" shape="128, 128, 7, 7" offset="6239006" size="1605632" />
			<output>
				<port id="0" precision="FP16">
					<dim>128</dim>
					<dim>128</dim>
					<dim>7</dim>
					<dim>7</dim>
				</port>
			</output>
		</layer>
		<layer id="84" name="inpaint_net/b1conv8_atrous/kernel/read" type="Convert" version="opset1">
			<data destination_type="f32" />
			<rt_info>
				<attribute name="decompression" version="0" />
			</rt_info>
			<input>
				<port id="0" precision="FP16">
					<dim>128</dim>
					<dim>128</dim>
					<dim>7</dim>
					<dim>7</dim>
				</port>
			</input>
			<output>
				<port id="1" precision="FP32" names="inpaint_net/b1conv8_atrous/kernel/read:0">
					<dim>128</dim>
					<dim>128</dim>
					<dim>7</dim>
					<dim>7</dim>
				</port>
			</output>
		</layer>
		<layer id="85" name="inpaint_net/b1conv8_atrous/Conv2D" type="Convolution" version="opset1">
			<data strides="1, 1" dilations="4, 4" pads_begin="12, 12" pads_end="12, 12" auto_pad="explicit" />
			<input>
				<port id="0" precision="FP32">
					<dim>1</dim>
					<dim>128</dim>
					<dim>128</dim>
					<dim>170</dim>
				</port>
				<port id="1" precision="FP32">
					<dim>128</dim>
					<dim>128</dim>
					<dim>7</dim>
					<dim>7</dim>
				</port>
			</input>
			<output>
				<port id="2" precision="FP32" names="inpaint_net/b1conv8_atrous/BatchToSpaceND:0">
					<dim>1</dim>
					<dim>128</dim>
					<dim>128</dim>
					<dim>170</dim>
				</port>
			</output>
		</layer>
		<layer id="86" name="inpaint_net/b1conv8_atrous/bias/read_compressed" type="Const" version="opset1">
			<data element_type="f16" shape="1, 128, 1, 1" offset="7844638" size="256" />
			<output>
				<port id="0" precision="FP16">
					<dim>1</dim>
					<dim>128</dim>
					<dim>1</dim>
					<dim>1</dim>
				</port>
			</output>
		</layer>
		<layer id="87" name="inpaint_net/b1conv8_atrous/bias/read" type="Convert" version="opset1">
			<data destination_type="f32" />
			<rt_info>
				<attribute name="decompression" version="0" />
			</rt_info>
			<input>
				<port id="0" precision="FP16">
					<dim>1</dim>
					<dim>128</dim>
					<dim>1</dim>
					<dim>1</dim>
				</port>
			</input>
			<output>
				<port id="1" precision="FP32" names="inpaint_net/b1conv8_atrous/bias/read:0">
					<dim>1</dim>
					<dim>128</dim>
					<dim>1</dim>
					<dim>1</dim>
				</port>
			</output>
		</layer>
		<layer id="88" name="inpaint_net/b1conv8_atrous/BiasAdd/Add" type="Add" version="opset1">
			<data auto_broadcast="numpy" />
			<input>
				<port id="0" precision="FP32">
					<dim>1</dim>
					<dim>128</dim>
					<dim>128</dim>
					<dim>170</dim>
				</port>
				<port id="1" precision="FP32">
					<dim>1</dim>
					<dim>128</dim>
					<dim>1</dim>
					<dim>1</dim>
				</port>
			</input>
			<output>
				<port id="2" precision="FP32" names="inpaint_net/b1conv8_atrous/BiasAdd:0">
					<dim>1</dim>
					<dim>128</dim>
					<dim>128</dim>
					<dim>170</dim>
				</port>
			</output>
		</layer>
		<layer id="89" name="inpaint_net/b1conv8_atrous/Elu" type="Elu" version="opset1">
			<data alpha="1" />
			<input>
				<port id="0" precision="FP32">
					<dim>1</dim>
					<dim>128</dim>
					<dim>128</dim>
					<dim>170</dim>
				</port>
			</input>
			<output>
				<port id="1" precision="FP32" names="inpaint_net/b1conv8_atrous/Elu:0">
					<dim>1</dim>
					<dim>128</dim>
					<dim>128</dim>
					<dim>170</dim>
				</port>
			</output>
		</layer>
		<layer id="90" name="inpaint_net/b1conv9_atrous/kernel/read_compressed" type="Const" version="opset1">
			<data element_type="f16" shape="128, 128, 7, 7" offset="7844894" size="1605632" />
			<output>
				<port id="0" precision="FP16">
					<dim>128</dim>
					<dim>128</dim>
					<dim>7</dim>
					<dim>7</dim>
				</port>
			</output>
		</layer>
		<layer id="91" name="inpaint_net/b1conv9_atrous/kernel/read" type="Convert" version="opset1">
			<data destination_type="f32" />
			<rt_info>
				<attribute name="decompression" version="0" />
			</rt_info>
			<input>
				<port id="0" precision="FP16">
					<dim>128</dim>
					<dim>128</dim>
					<dim>7</dim>
					<dim>7</dim>
				</port>
			</input>
			<output>
				<port id="1" precision="FP32" names="inpaint_net/b1conv9_atrous/kernel/read:0">
					<dim>128</dim>
					<dim>128</dim>
					<dim>7</dim>
					<dim>7</dim>
				</port>
			</output>
		</layer>
		<layer id="92" name="inpaint_net/b1conv9_atrous/Conv2D" type="Convolution" version="opset1">
			<data strides="1, 1" dilations="8, 8" pads_begin="24, 24" pads_end="24, 24" auto_pad="explicit" />
			<input>
				<port id="0" precision="FP32">
					<dim>1</dim>
					<dim>128</dim>
					<dim>128</dim>
					<dim>170</dim>
				</port>
				<port id="1" precision="FP32">
					<dim>128</dim>
					<dim>128</dim>
					<dim>7</dim>
					<dim>7</dim>
				</port>
			</input>
			<output>
				<port id="2" precision="FP32" names="inpaint_net/b1conv9_atrous/BatchToSpaceND:0">
					<dim>1</dim>
					<dim>128</dim>
					<dim>128</dim>
					<dim>170</dim>
				</port>
			</output>
		</layer>
		<layer id="93" name="inpaint_net/b1conv9_atrous/bias/read_compressed" type="Const" version="opset1">
			<data element_type="f16" shape="1, 128, 1, 1" offset="9450526" size="256" />
			<output>
				<port id="0" precision="FP16">
					<dim>1</dim>
					<dim>128</dim>
					<dim>1</dim>
					<dim>1</dim>
				</port>
			</output>
		</layer>
		<layer id="94" name="inpaint_net/b1conv9_atrous/bias/read" type="Convert" version="opset1">
			<data destination_type="f32" />
			<rt_info>
				<attribute name="decompression" version="0" />
			</rt_info>
			<input>
				<port id="0" precision="FP16">
					<dim>1</dim>
					<dim>128</dim>
					<dim>1</dim>
					<dim>1</dim>
				</port>
			</input>
			<output>
				<port id="1" precision="FP32" names="inpaint_net/b1conv9_atrous/bias/read:0">
					<dim>1</dim>
					<dim>128</dim>
					<dim>1</dim>
					<dim>1</dim>
				</port>
			</output>
		</layer>
		<layer id="95" name="inpaint_net/b1conv9_atrous/BiasAdd/Add" type="Add" version="opset1">
			<data auto_broadcast="numpy" />
			<input>
				<port id="0" precision="FP32">
					<dim>1</dim>
					<dim>128</dim>
					<dim>128</dim>
					<dim>170</dim>
				</port>
				<port id="1" precision="FP32">
					<dim>1</dim>
					<dim>128</dim>
					<dim>1</dim>
					<dim>1</dim>
				</port>
			</input>
			<output>
				<port id="2" precision="FP32" names="inpaint_net/b1conv9_atrous/BiasAdd:0">
					<dim>1</dim>
					<dim>128</dim>
					<dim>128</dim>
					<dim>170</dim>
				</port>
			</output>
		</layer>
		<layer id="96" name="inpaint_net/b1conv9_atrous/Elu" type="Elu" version="opset1">
			<data alpha="1" />
			<input>
				<port id="0" precision="FP32">
					<dim>1</dim>
					<dim>128</dim>
					<dim>128</dim>
					<dim>170</dim>
				</port>
			</input>
			<output>
				<port id="1" precision="FP32" names="inpaint_net/b1conv9_atrous/Elu:0">
					<dim>1</dim>
					<dim>128</dim>
					<dim>128</dim>
					<dim>170</dim>
				</port>
			</output>
		</layer>
		<layer id="97" name="inpaint_net/b1conv10_atrous/kernel/read_compressed" type="Const" version="opset1">
			<data element_type="f16" shape="128, 128, 7, 7" offset="9450782" size="1605632" />
			<output>
				<port id="0" precision="FP16">
					<dim>128</dim>
					<dim>128</dim>
					<dim>7</dim>
					<dim>7</dim>
				</port>
			</output>
		</layer>
		<layer id="98" name="inpaint_net/b1conv10_atrous/kernel/read" type="Convert" version="opset1">
			<data destination_type="f32" />
			<rt_info>
				<attribute name="decompression" version="0" />
			</rt_info>
			<input>
				<port id="0" precision="FP16">
					<dim>128</dim>
					<dim>128</dim>
					<dim>7</dim>
					<dim>7</dim>
				</port>
			</input>
			<output>
				<port id="1" precision="FP32" names="inpaint_net/b1conv10_atrous/kernel/read:0">
					<dim>128</dim>
					<dim>128</dim>
					<dim>7</dim>
					<dim>7</dim>
				</port>
			</output>
		</layer>
		<layer id="99" name="inpaint_net/b1conv10_atrous/Conv2D" type="Convolution" version="opset1">
			<data strides="1, 1" dilations="16, 16" pads_begin="48, 48" pads_end="48, 48" auto_pad="explicit" />
			<input>
				<port id="0" precision="FP32">
					<dim>1</dim>
					<dim>128</dim>
					<dim>128</dim>
					<dim>170</dim>
				</port>
				<port id="1" precision="FP32">
					<dim>128</dim>
					<dim>128</dim>
					<dim>7</dim>
					<dim>7</dim>
				</port>
			</input>
			<output>
				<port id="2" precision="FP32" names="inpaint_net/b1conv10_atrous/BatchToSpaceND:0">
					<dim>1</dim>
					<dim>128</dim>
					<dim>128</dim>
					<dim>170</dim>
				</port>
			</output>
		</layer>
		<layer id="100" name="inpaint_net/b1conv10_atrous/bias/read_compressed" type="Const" version="opset1">
			<data element_type="f16" shape="1, 128, 1, 1" offset="11056414" size="256" />
			<output>
				<port id="0" precision="FP16">
					<dim>1</dim>
					<dim>128</dim>
					<dim>1</dim>
					<dim>1</dim>
				</port>
			</output>
		</layer>
		<layer id="101" name="inpaint_net/b1conv10_atrous/bias/read" type="Convert" version="opset1">
			<data destination_type="f32" />
			<rt_info>
				<attribute name="decompression" version="0" />
			</rt_info>
			<input>
				<port id="0" precision="FP16">
					<dim>1</dim>
					<dim>128</dim>
					<dim>1</dim>
					<dim>1</dim>
				</port>
			</input>
			<output>
				<port id="1" precision="FP32" names="inpaint_net/b1conv10_atrous/bias/read:0">
					<dim>1</dim>
					<dim>128</dim>
					<dim>1</dim>
					<dim>1</dim>
				</port>
			</output>
		</layer>
		<layer id="102" name="inpaint_net/b1conv10_atrous/BiasAdd/Add" type="Add" version="opset1">
			<data auto_broadcast="numpy" />
			<input>
				<port id="0" precision="FP32">
					<dim>1</dim>
					<dim>128</dim>
					<dim>128</dim>
					<dim>170</dim>
				</port>
				<port id="1" precision="FP32">
					<dim>1</dim>
					<dim>128</dim>
					<dim>1</dim>
					<dim>1</dim>
				</port>
			</input>
			<output>
				<port id="2" precision="FP32" names="inpaint_net/b1conv10_atrous/BiasAdd:0">
					<dim>1</dim>
					<dim>128</dim>
					<dim>128</dim>
					<dim>170</dim>
				</port>
			</output>
		</layer>
		<layer id="103" name="inpaint_net/b1conv10_atrous/Elu" type="Elu" version="opset1">
			<data alpha="1" />
			<input>
				<port id="0" precision="FP32">
					<dim>1</dim>
					<dim>128</dim>
					<dim>128</dim>
					<dim>170</dim>
				</port>
			</input>
			<output>
				<port id="1" precision="FP32" names="inpaint_net/b1conv10_atrous/Elu:0">
					<dim>1</dim>
					<dim>128</dim>
					<dim>128</dim>
					<dim>170</dim>
				</port>
			</output>
		</layer>
		<layer id="104" name="inpaint_net/b1conv11/kernel/read_compressed" type="Const" version="opset1">
			<data element_type="f16" shape="128, 128, 7, 7" offset="11056670" size="1605632" />
			<output>
				<port id="0" precision="FP16">
					<dim>128</dim>
					<dim>128</dim>
					<dim>7</dim>
					<dim>7</dim>
				</port>
			</output>
		</layer>
		<layer id="105" name="inpaint_net/b1conv11/kernel/read" type="Convert" version="opset1">
			<data destination_type="f32" />
			<rt_info>
				<attribute name="decompression" version="0" />
			</rt_info>
			<input>
				<port id="0" precision="FP16">
					<dim>128</dim>
					<dim>128</dim>
					<dim>7</dim>
					<dim>7</dim>
				</port>
			</input>
			<output>
				<port id="1" precision="FP32" names="inpaint_net/b1conv11/kernel/read:0">
					<dim>128</dim>
					<dim>128</dim>
					<dim>7</dim>
					<dim>7</dim>
				</port>
			</output>
		</layer>
		<layer id="106" name="inpaint_net/b1conv11/Conv2D" type="Convolution" version="opset1">
			<data strides="1, 1" dilations="1, 1" pads_begin="0, 0" pads_end="0, 0" auto_pad="same_upper" />
			<input>
				<port id="0" precision="FP32">
					<dim>1</dim>
					<dim>128</dim>
					<dim>128</dim>
					<dim>170</dim>
				</port>
				<port id="1" precision="FP32">
					<dim>128</dim>
					<dim>128</dim>
					<dim>7</dim>
					<dim>7</dim>
				</port>
			</input>
			<output>
				<port id="2" precision="FP32" names="inpaint_net/b1conv11/Conv2D:0">
					<dim>1</dim>
					<dim>128</dim>
					<dim>128</dim>
					<dim>170</dim>
				</port>
			</output>
		</layer>
		<layer id="107" name="inpaint_net/b1conv11/bias/read_compressed" type="Const" version="opset1">
			<data element_type="f16" shape="1, 128, 1, 1" offset="12662302" size="256" />
			<output>
				<port id="0" precision="FP16">
					<dim>1</dim>
					<dim>128</dim>
					<dim>1</dim>
					<dim>1</dim>
				</port>
			</output>
		</layer>
		<layer id="108" name="inpaint_net/b1conv11/bias/read" type="Convert" version="opset1">
			<data destination_type="f32" />
			<rt_info>
				<attribute name="decompression" version="0" />
			</rt_info>
			<input>
				<port id="0" precision="FP16">
					<dim>1</dim>
					<dim>128</dim>
					<dim>1</dim>
					<dim>1</dim>
				</port>
			</input>
			<output>
				<port id="1" precision="FP32" names="inpaint_net/b1conv11/bias/read:0">
					<dim>1</dim>
					<dim>128</dim>
					<dim>1</dim>
					<dim>1</dim>
				</port>
			</output>
		</layer>
		<layer id="109" name="inpaint_net/b1conv11/BiasAdd/Add" type="Add" version="opset1">
			<data auto_broadcast="numpy" />
			<input>
				<port id="0" precision="FP32">
					<dim>1</dim>
					<dim>128</dim>
					<dim>128</dim>
					<dim>170</dim>
				</port>
				<port id="1" precision="FP32">
					<dim>1</dim>
					<dim>128</dim>
					<dim>1</dim>
					<dim>1</dim>
				</port>
			</input>
			<output>
				<port id="2" precision="FP32" names="inpaint_net/b1conv11/BiasAdd:0">
					<dim>1</dim>
					<dim>128</dim>
					<dim>128</dim>
					<dim>170</dim>
				</port>
			</output>
		</layer>
		<layer id="110" name="inpaint_net/b1conv11/Elu" type="Elu" version="opset1">
			<data alpha="1" />
			<input>
				<port id="0" precision="FP32">
					<dim>1</dim>
					<dim>128</dim>
					<dim>128</dim>
					<dim>170</dim>
				</port>
			</input>
			<output>
				<port id="1" precision="FP32" names="inpaint_net/b1conv11/Elu:0">
					<dim>1</dim>
					<dim>128</dim>
					<dim>128</dim>
					<dim>170</dim>
				</port>
			</output>
		</layer>
		<layer id="111" name="inpaint_net/b1conv12/kernel/read_compressed" type="Const" version="opset1">
			<data element_type="f16" shape="128, 128, 7, 7" offset="12662558" size="1605632" />
			<output>
				<port id="0" precision="FP16">
					<dim>128</dim>
					<dim>128</dim>
					<dim>7</dim>
					<dim>7</dim>
				</port>
			</output>
		</layer>
		<layer id="112" name="inpaint_net/b1conv12/kernel/read" type="Convert" version="opset1">
			<data destination_type="f32" />
			<rt_info>
				<attribute name="decompression" version="0" />
			</rt_info>
			<input>
				<port id="0" precision="FP16">
					<dim>128</dim>
					<dim>128</dim>
					<dim>7</dim>
					<dim>7</dim>
				</port>
			</input>
			<output>
				<port id="1" precision="FP32" names="inpaint_net/b1conv12/kernel/read:0">
					<dim>128</dim>
					<dim>128</dim>
					<dim>7</dim>
					<dim>7</dim>
				</port>
			</output>
		</layer>
		<layer id="113" name="inpaint_net/b1conv12/Conv2D" type="Convolution" version="opset1">
			<data strides="1, 1" dilations="1, 1" pads_begin="0, 0" pads_end="0, 0" auto_pad="same_upper" />
			<input>
				<port id="0" precision="FP32">
					<dim>1</dim>
					<dim>128</dim>
					<dim>128</dim>
					<dim>170</dim>
				</port>
				<port id="1" precision="FP32">
					<dim>128</dim>
					<dim>128</dim>
					<dim>7</dim>
					<dim>7</dim>
				</port>
			</input>
			<output>
				<port id="2" precision="FP32" names="inpaint_net/b1conv12/Conv2D:0">
					<dim>1</dim>
					<dim>128</dim>
					<dim>128</dim>
					<dim>170</dim>
				</port>
			</output>
		</layer>
		<layer id="114" name="inpaint_net/b1conv12/bias/read_compressed" type="Const" version="opset1">
			<data element_type="f16" shape="1, 128, 1, 1" offset="14268190" size="256" />
			<output>
				<port id="0" precision="FP16">
					<dim>1</dim>
					<dim>128</dim>
					<dim>1</dim>
					<dim>1</dim>
				</port>
			</output>
		</layer>
		<layer id="115" name="inpaint_net/b1conv12/bias/read" type="Convert" version="opset1">
			<data destination_type="f32" />
			<rt_info>
				<attribute name="decompression" version="0" />
			</rt_info>
			<input>
				<port id="0" precision="FP16">
					<dim>1</dim>
					<dim>128</dim>
					<dim>1</dim>
					<dim>1</dim>
				</port>
			</input>
			<output>
				<port id="1" precision="FP32" names="inpaint_net/b1conv12/bias/read:0">
					<dim>1</dim>
					<dim>128</dim>
					<dim>1</dim>
					<dim>1</dim>
				</port>
			</output>
		</layer>
		<layer id="116" name="inpaint_net/b1conv12/BiasAdd/Add" type="Add" version="opset1">
			<data auto_broadcast="numpy" />
			<input>
				<port id="0" precision="FP32">
					<dim>1</dim>
					<dim>128</dim>
					<dim>128</dim>
					<dim>170</dim>
				</port>
				<port id="1" precision="FP32">
					<dim>1</dim>
					<dim>128</dim>
					<dim>1</dim>
					<dim>1</dim>
				</port>
			</input>
			<output>
				<port id="2" precision="FP32" names="inpaint_net/b1conv12/BiasAdd:0">
					<dim>1</dim>
					<dim>128</dim>
					<dim>128</dim>
					<dim>170</dim>
				</port>
			</output>
		</layer>
		<layer id="117" name="inpaint_net/b1conv12/Elu" type="Elu" version="opset1">
			<data alpha="1" />
			<input>
				<port id="0" precision="FP32">
					<dim>1</dim>
					<dim>128</dim>
					<dim>128</dim>
					<dim>170</dim>
				</port>
			</input>
			<output>
				<port id="1" precision="FP32" names="inpaint_net/b1conv12/Elu:0">
					<dim>1</dim>
					<dim>128</dim>
					<dim>128</dim>
					<dim>170</dim>
				</port>
			</output>
		</layer>
		<layer id="118" name="inpaint_net/b3conv1/kernel/read_compressed" type="Const" version="opset1">
			<data element_type="f16" shape="32, 5, 5, 5" offset="14268446" size="8000" />
			<output>
				<port id="0" precision="FP16">
					<dim>32</dim>
					<dim>5</dim>
					<dim>5</dim>
					<dim>5</dim>
				</port>
			</output>
		</layer>
		<layer id="119" name="inpaint_net/b3conv1/kernel/read" type="Convert" version="opset1">
			<data destination_type="f32" />
			<rt_info>
				<attribute name="decompression" version="0" />
			</rt_info>
			<input>
				<port id="0" precision="FP16">
					<dim>32</dim>
					<dim>5</dim>
					<dim>5</dim>
					<dim>5</dim>
				</port>
			</input>
			<output>
				<port id="1" precision="FP32" names="inpaint_net/b3conv1/kernel/read:0">
					<dim>32</dim>
					<dim>5</dim>
					<dim>5</dim>
					<dim>5</dim>
				</port>
			</output>
		</layer>
		<layer id="120" name="inpaint_net/b3conv1/Conv2D" type="Convolution" version="opset1">
			<data strides="1, 1" dilations="1, 1" pads_begin="0, 0" pads_end="0, 0" auto_pad="same_upper" />
			<input>
				<port id="0" precision="FP32">
					<dim>1</dim>
					<dim>5</dim>
					<dim>512</dim>
					<dim>680</dim>
				</port>
				<port id="1" precision="FP32">
					<dim>32</dim>
					<dim>5</dim>
					<dim>5</dim>
					<dim>5</dim>
				</port>
			</input>
			<output>
				<port id="2" precision="FP32" names="inpaint_net/b3conv1/Conv2D:0">
					<dim>1</dim>
					<dim>32</dim>
					<dim>512</dim>
					<dim>680</dim>
				</port>
			</output>
		</layer>
		<layer id="121" name="inpaint_net/b3conv1/bias/read_compressed" type="Const" version="opset1">
			<data element_type="f16" shape="1, 32, 1, 1" offset="14276446" size="64" />
			<output>
				<port id="0" precision="FP16">
					<dim>1</dim>
					<dim>32</dim>
					<dim>1</dim>
					<dim>1</dim>
				</port>
			</output>
		</layer>
		<layer id="122" name="inpaint_net/b3conv1/bias/read" type="Convert" version="opset1">
			<data destination_type="f32" />
			<rt_info>
				<attribute name="decompression" version="0" />
			</rt_info>
			<input>
				<port id="0" precision="FP16">
					<dim>1</dim>
					<dim>32</dim>
					<dim>1</dim>
					<dim>1</dim>
				</port>
			</input>
			<output>
				<port id="1" precision="FP32" names="inpaint_net/b3conv1/bias/read:0">
					<dim>1</dim>
					<dim>32</dim>
					<dim>1</dim>
					<dim>1</dim>
				</port>
			</output>
		</layer>
		<layer id="123" name="inpaint_net/b3conv1/BiasAdd/Add" type="Add" version="opset1">
			<data auto_broadcast="numpy" />
			<input>
				<port id="0" precision="FP32">
					<dim>1</dim>
					<dim>32</dim>
					<dim>512</dim>
					<dim>680</dim>
				</port>
				<port id="1" precision="FP32">
					<dim>1</dim>
					<dim>32</dim>
					<dim>1</dim>
					<dim>1</dim>
				</port>
			</input>
			<output>
				<port id="2" precision="FP32" names="inpaint_net/b3conv1/BiasAdd:0">
					<dim>1</dim>
					<dim>32</dim>
					<dim>512</dim>
					<dim>680</dim>
				</port>
			</output>
		</layer>
		<layer id="124" name="inpaint_net/b3conv1/Elu" type="Elu" version="opset1">
			<data alpha="1" />
			<input>
				<port id="0" precision="FP32">
					<dim>1</dim>
					<dim>32</dim>
					<dim>512</dim>
					<dim>680</dim>
				</port>
			</input>
			<output>
				<port id="1" precision="FP32" names="inpaint_net/b3conv1/Elu:0">
					<dim>1</dim>
					<dim>32</dim>
					<dim>512</dim>
					<dim>680</dim>
				</port>
			</output>
		</layer>
		<layer id="125" name="inpaint_net/b3conv2_downsample/kernel/read_compressed" type="Const" version="opset1">
			<data element_type="f16" shape="64, 32, 3, 3" offset="14276510" size="36864" />
			<output>
				<port id="0" precision="FP16">
					<dim>64</dim>
					<dim>32</dim>
					<dim>3</dim>
					<dim>3</dim>
				</port>
			</output>
		</layer>
		<layer id="126" name="inpaint_net/b3conv2_downsample/kernel/read" type="Convert" version="opset1">
			<data destination_type="f32" />
			<rt_info>
				<attribute name="decompression" version="0" />
			</rt_info>
			<input>
				<port id="0" precision="FP16">
					<dim>64</dim>
					<dim>32</dim>
					<dim>3</dim>
					<dim>3</dim>
				</port>
			</input>
			<output>
				<port id="1" precision="FP32" names="inpaint_net/b3conv2_downsample/kernel/read:0">
					<dim>64</dim>
					<dim>32</dim>
					<dim>3</dim>
					<dim>3</dim>
				</port>
			</output>
		</layer>
		<layer id="127" name="inpaint_net/b3conv2_downsample/Conv2D" type="Convolution" version="opset1">
			<data strides="2, 2" dilations="1, 1" pads_begin="0, 0" pads_end="0, 0" auto_pad="same_upper" />
			<input>
				<port id="0" precision="FP32">
					<dim>1</dim>
					<dim>32</dim>
					<dim>512</dim>
					<dim>680</dim>
				</port>
				<port id="1" precision="FP32">
					<dim>64</dim>
					<dim>32</dim>
					<dim>3</dim>
					<dim>3</dim>
				</port>
			</input>
			<output>
				<port id="2" precision="FP32" names="inpaint_net/b3conv2_downsample/Conv2D:0">
					<dim>1</dim>
					<dim>64</dim>
					<dim>256</dim>
					<dim>340</dim>
				</port>
			</output>
		</layer>
		<layer id="128" name="inpaint_net/b3conv2_downsample/bias/read_compressed" type="Const" version="opset1">
			<data element_type="f16" shape="1, 64, 1, 1" offset="14313374" size="128" />
			<output>
				<port id="0" precision="FP16">
					<dim>1</dim>
					<dim>64</dim>
					<dim>1</dim>
					<dim>1</dim>
				</port>
			</output>
		</layer>
		<layer id="129" name="inpaint_net/b3conv2_downsample/bias/read" type="Convert" version="opset1">
			<data destination_type="f32" />
			<rt_info>
				<attribute name="decompression" version="0" />
			</rt_info>
			<input>
				<port id="0" precision="FP16">
					<dim>1</dim>
					<dim>64</dim>
					<dim>1</dim>
					<dim>1</dim>
				</port>
			</input>
			<output>
				<port id="1" precision="FP32" names="inpaint_net/b3conv2_downsample/bias/read:0">
					<dim>1</dim>
					<dim>64</dim>
					<dim>1</dim>
					<dim>1</dim>
				</port>
			</output>
		</layer>
		<layer id="130" name="inpaint_net/b3conv2_downsample/BiasAdd/Add" type="Add" version="opset1">
			<data auto_broadcast="numpy" />
			<input>
				<port id="0" precision="FP32">
					<dim>1</dim>
					<dim>64</dim>
					<dim>256</dim>
					<dim>340</dim>
				</port>
				<port id="1" precision="FP32">
					<dim>1</dim>
					<dim>64</dim>
					<dim>1</dim>
					<dim>1</dim>
				</port>
			</input>
			<output>
				<port id="2" precision="FP32" names="inpaint_net/b3conv2_downsample/BiasAdd:0">
					<dim>1</dim>
					<dim>64</dim>
					<dim>256</dim>
					<dim>340</dim>
				</port>
			</output>
		</layer>
		<layer id="131" name="inpaint_net/b3conv2_downsample/Elu" type="Elu" version="opset1">
			<data alpha="1" />
			<input>
				<port id="0" precision="FP32">
					<dim>1</dim>
					<dim>64</dim>
					<dim>256</dim>
					<dim>340</dim>
				</port>
			</input>
			<output>
				<port id="1" precision="FP32" names="inpaint_net/b3conv2_downsample/Elu:0">
					<dim>1</dim>
					<dim>64</dim>
					<dim>256</dim>
					<dim>340</dim>
				</port>
			</output>
		</layer>
		<layer id="132" name="inpaint_net/b3conv3/kernel/read_compressed" type="Const" version="opset1">
			<data element_type="f16" shape="64, 64, 3, 3" offset="14313502" size="73728" />
			<output>
				<port id="0" precision="FP16">
					<dim>64</dim>
					<dim>64</dim>
					<dim>3</dim>
					<dim>3</dim>
				</port>
			</output>
		</layer>
		<layer id="133" name="inpaint_net/b3conv3/kernel/read" type="Convert" version="opset1">
			<data destination_type="f32" />
			<rt_info>
				<attribute name="decompression" version="0" />
			</rt_info>
			<input>
				<port id="0" precision="FP16">
					<dim>64</dim>
					<dim>64</dim>
					<dim>3</dim>
					<dim>3</dim>
				</port>
			</input>
			<output>
				<port id="1" precision="FP32" names="inpaint_net/b3conv3/kernel/read:0">
					<dim>64</dim>
					<dim>64</dim>
					<dim>3</dim>
					<dim>3</dim>
				</port>
			</output>
		</layer>
		<layer id="134" name="inpaint_net/b3conv3/Conv2D" type="Convolution" version="opset1">
			<data strides="1, 1" dilations="1, 1" pads_begin="0, 0" pads_end="0, 0" auto_pad="same_upper" />
			<input>
				<port id="0" precision="FP32">
					<dim>1</dim>
					<dim>64</dim>
					<dim>256</dim>
					<dim>340</dim>
				</port>
				<port id="1" precision="FP32">
					<dim>64</dim>
					<dim>64</dim>
					<dim>3</dim>
					<dim>3</dim>
				</port>
			</input>
			<output>
				<port id="2" precision="FP32" names="inpaint_net/b3conv3/Conv2D:0">
					<dim>1</dim>
					<dim>64</dim>
					<dim>256</dim>
					<dim>340</dim>
				</port>
			</output>
		</layer>
		<layer id="135" name="inpaint_net/b3conv3/bias/read_compressed" type="Const" version="opset1">
			<data element_type="f16" shape="1, 64, 1, 1" offset="14387230" size="128" />
			<output>
				<port id="0" precision="FP16">
					<dim>1</dim>
					<dim>64</dim>
					<dim>1</dim>
					<dim>1</dim>
				</port>
			</output>
		</layer>
		<layer id="136" name="inpaint_net/b3conv3/bias/read" type="Convert" version="opset1">
			<data destination_type="f32" />
			<rt_info>
				<attribute name="decompression" version="0" />
			</rt_info>
			<input>
				<port id="0" precision="FP16">
					<dim>1</dim>
					<dim>64</dim>
					<dim>1</dim>
					<dim>1</dim>
				</port>
			</input>
			<output>
				<port id="1" precision="FP32" names="inpaint_net/b3conv3/bias/read:0">
					<dim>1</dim>
					<dim>64</dim>
					<dim>1</dim>
					<dim>1</dim>
				</port>
			</output>
		</layer>
		<layer id="137" name="inpaint_net/b3conv3/BiasAdd/Add" type="Add" version="opset1">
			<data auto_broadcast="numpy" />
			<input>
				<port id="0" precision="FP32">
					<dim>1</dim>
					<dim>64</dim>
					<dim>256</dim>
					<dim>340</dim>
				</port>
				<port id="1" precision="FP32">
					<dim>1</dim>
					<dim>64</dim>
					<dim>1</dim>
					<dim>1</dim>
				</port>
			</input>
			<output>
				<port id="2" precision="FP32" names="inpaint_net/b3conv3/BiasAdd:0">
					<dim>1</dim>
					<dim>64</dim>
					<dim>256</dim>
					<dim>340</dim>
				</port>
			</output>
		</layer>
		<layer id="138" name="inpaint_net/b3conv3/Elu" type="Elu" version="opset1">
			<data alpha="1" />
			<input>
				<port id="0" precision="FP32">
					<dim>1</dim>
					<dim>64</dim>
					<dim>256</dim>
					<dim>340</dim>
				</port>
			</input>
			<output>
				<port id="1" precision="FP32" names="inpaint_net/b3conv3/Elu:0">
					<dim>1</dim>
					<dim>64</dim>
					<dim>256</dim>
					<dim>340</dim>
				</port>
			</output>
		</layer>
		<layer id="139" name="inpaint_net/b3conv4_downsample/kernel/read_compressed" type="Const" version="opset1">
			<data element_type="f16" shape="128, 64, 3, 3" offset="14387358" size="147456" />
			<output>
				<port id="0" precision="FP16">
					<dim>128</dim>
					<dim>64</dim>
					<dim>3</dim>
					<dim>3</dim>
				</port>
			</output>
		</layer>
		<layer id="140" name="inpaint_net/b3conv4_downsample/kernel/read" type="Convert" version="opset1">
			<data destination_type="f32" />
			<rt_info>
				<attribute name="decompression" version="0" />
			</rt_info>
			<input>
				<port id="0" precision="FP16">
					<dim>128</dim>
					<dim>64</dim>
					<dim>3</dim>
					<dim>3</dim>
				</port>
			</input>
			<output>
				<port id="1" precision="FP32" names="inpaint_net/b3conv4_downsample/kernel/read:0">
					<dim>128</dim>
					<dim>64</dim>
					<dim>3</dim>
					<dim>3</dim>
				</port>
			</output>
		</layer>
		<layer id="141" name="inpaint_net/b3conv4_downsample/Conv2D" type="Convolution" version="opset1">
			<data strides="2, 2" dilations="1, 1" pads_begin="0, 0" pads_end="0, 0" auto_pad="same_upper" />
			<input>
				<port id="0" precision="FP32">
					<dim>1</dim>
					<dim>64</dim>
					<dim>256</dim>
					<dim>340</dim>
				</port>
				<port id="1" precision="FP32">
					<dim>128</dim>
					<dim>64</dim>
					<dim>3</dim>
					<dim>3</dim>
				</port>
			</input>
			<output>
				<port id="2" precision="FP32" names="inpaint_net/b3conv4_downsample/Conv2D:0">
					<dim>1</dim>
					<dim>128</dim>
					<dim>128</dim>
					<dim>170</dim>
				</port>
			</output>
		</layer>
		<layer id="142" name="inpaint_net/b3conv4_downsample/bias/read_compressed" type="Const" version="opset1">
			<data element_type="f16" shape="1, 128, 1, 1" offset="14534814" size="256" />
			<output>
				<port id="0" precision="FP16">
					<dim>1</dim>
					<dim>128</dim>
					<dim>1</dim>
					<dim>1</dim>
				</port>
			</output>
		</layer>
		<layer id="143" name="inpaint_net/b3conv4_downsample/bias/read" type="Convert" version="opset1">
			<data destination_type="f32" />
			<rt_info>
				<attribute name="decompression" version="0" />
			</rt_info>
			<input>
				<port id="0" precision="FP16">
					<dim>1</dim>
					<dim>128</dim>
					<dim>1</dim>
					<dim>1</dim>
				</port>
			</input>
			<output>
				<port id="1" precision="FP32" names="inpaint_net/b3conv4_downsample/bias/read:0">
					<dim>1</dim>
					<dim>128</dim>
					<dim>1</dim>
					<dim>1</dim>
				</port>
			</output>
		</layer>
		<layer id="144" name="inpaint_net/b3conv4_downsample/BiasAdd/Add" type="Add" version="opset1">
			<data auto_broadcast="numpy" />
			<input>
				<port id="0" precision="FP32">
					<dim>1</dim>
					<dim>128</dim>
					<dim>128</dim>
					<dim>170</dim>
				</port>
				<port id="1" precision="FP32">
					<dim>1</dim>
					<dim>128</dim>
					<dim>1</dim>
					<dim>1</dim>
				</port>
			</input>
			<output>
				<port id="2" precision="FP32" names="inpaint_net/b3conv4_downsample/BiasAdd:0">
					<dim>1</dim>
					<dim>128</dim>
					<dim>128</dim>
					<dim>170</dim>
				</port>
			</output>
		</layer>
		<layer id="145" name="inpaint_net/b3conv4_downsample/Elu" type="Elu" version="opset1">
			<data alpha="1" />
			<input>
				<port id="0" precision="FP32">
					<dim>1</dim>
					<dim>128</dim>
					<dim>128</dim>
					<dim>170</dim>
				</port>
			</input>
			<output>
				<port id="1" precision="FP32" names="inpaint_net/b3conv4_downsample/Elu:0">
					<dim>1</dim>
					<dim>128</dim>
					<dim>128</dim>
					<dim>170</dim>
				</port>
			</output>
		</layer>
		<layer id="146" name="inpaint_net/b3conv5/kernel/read_compressed" type="Const" version="opset1">
			<data element_type="f16" shape="128, 128, 3, 3" offset="14535070" size="294912" />
			<output>
				<port id="0" precision="FP16">
					<dim>128</dim>
					<dim>128</dim>
					<dim>3</dim>
					<dim>3</dim>
				</port>
			</output>
		</layer>
		<layer id="147" name="inpaint_net/b3conv5/kernel/read" type="Convert" version="opset1">
			<data destination_type="f32" />
			<rt_info>
				<attribute name="decompression" version="0" />
			</rt_info>
			<input>
				<port id="0" precision="FP16">
					<dim>128</dim>
					<dim>128</dim>
					<dim>3</dim>
					<dim>3</dim>
				</port>
			</input>
			<output>
				<port id="1" precision="FP32" names="inpaint_net/b3conv5/kernel/read:0">
					<dim>128</dim>
					<dim>128</dim>
					<dim>3</dim>
					<dim>3</dim>
				</port>
			</output>
		</layer>
		<layer id="148" name="inpaint_net/b3conv5/Conv2D" type="Convolution" version="opset1">
			<data strides="1, 1" dilations="1, 1" pads_begin="0, 0" pads_end="0, 0" auto_pad="same_upper" />
			<input>
				<port id="0" precision="FP32">
					<dim>1</dim>
					<dim>128</dim>
					<dim>128</dim>
					<dim>170</dim>
				</port>
				<port id="1" precision="FP32">
					<dim>128</dim>
					<dim>128</dim>
					<dim>3</dim>
					<dim>3</dim>
				</port>
			</input>
			<output>
				<port id="2" precision="FP32" names="inpaint_net/b3conv5/Conv2D:0">
					<dim>1</dim>
					<dim>128</dim>
					<dim>128</dim>
					<dim>170</dim>
				</port>
			</output>
		</layer>
		<layer id="149" name="inpaint_net/b3conv5/bias/read_compressed" type="Const" version="opset1">
			<data element_type="f16" shape="1, 128, 1, 1" offset="14829982" size="256" />
			<output>
				<port id="0" precision="FP16">
					<dim>1</dim>
					<dim>128</dim>
					<dim>1</dim>
					<dim>1</dim>
				</port>
			</output>
		</layer>
		<layer id="150" name="inpaint_net/b3conv5/bias/read" type="Convert" version="opset1">
			<data destination_type="f32" />
			<rt_info>
				<attribute name="decompression" version="0" />
			</rt_info>
			<input>
				<port id="0" precision="FP16">
					<dim>1</dim>
					<dim>128</dim>
					<dim>1</dim>
					<dim>1</dim>
				</port>
			</input>
			<output>
				<port id="1" precision="FP32" names="inpaint_net/b3conv5/bias/read:0">
					<dim>1</dim>
					<dim>128</dim>
					<dim>1</dim>
					<dim>1</dim>
				</port>
			</output>
		</layer>
		<layer id="151" name="inpaint_net/b3conv5/BiasAdd/Add" type="Add" version="opset1">
			<data auto_broadcast="numpy" />
			<input>
				<port id="0" precision="FP32">
					<dim>1</dim>
					<dim>128</dim>
					<dim>128</dim>
					<dim>170</dim>
				</port>
				<port id="1" precision="FP32">
					<dim>1</dim>
					<dim>128</dim>
					<dim>1</dim>
					<dim>1</dim>
				</port>
			</input>
			<output>
				<port id="2" precision="FP32" names="inpaint_net/b3conv5/BiasAdd:0">
					<dim>1</dim>
					<dim>128</dim>
					<dim>128</dim>
					<dim>170</dim>
				</port>
			</output>
		</layer>
		<layer id="152" name="inpaint_net/b3conv5/Elu" type="Elu" version="opset1">
			<data alpha="1" />
			<input>
				<port id="0" precision="FP32">
					<dim>1</dim>
					<dim>128</dim>
					<dim>128</dim>
					<dim>170</dim>
				</port>
			</input>
			<output>
				<port id="1" precision="FP32" names="inpaint_net/b3conv5/Elu:0">
					<dim>1</dim>
					<dim>128</dim>
					<dim>128</dim>
					<dim>170</dim>
				</port>
			</output>
		</layer>
		<layer id="153" name="inpaint_net/b3conv6/kernel/read_compressed" type="Const" version="opset1">
			<data element_type="f16" shape="128, 128, 3, 3" offset="14830238" size="294912" />
			<output>
				<port id="0" precision="FP16">
					<dim>128</dim>
					<dim>128</dim>
					<dim>3</dim>
					<dim>3</dim>
				</port>
			</output>
		</layer>
		<layer id="154" name="inpaint_net/b3conv6/kernel/read" type="Convert" version="opset1">
			<data destination_type="f32" />
			<rt_info>
				<attribute name="decompression" version="0" />
			</rt_info>
			<input>
				<port id="0" precision="FP16">
					<dim>128</dim>
					<dim>128</dim>
					<dim>3</dim>
					<dim>3</dim>
				</port>
			</input>
			<output>
				<port id="1" precision="FP32" names="inpaint_net/b3conv6/kernel/read:0">
					<dim>128</dim>
					<dim>128</dim>
					<dim>3</dim>
					<dim>3</dim>
				</port>
			</output>
		</layer>
		<layer id="155" name="inpaint_net/b3conv6/Conv2D" type="Convolution" version="opset1">
			<data strides="1, 1" dilations="1, 1" pads_begin="0, 0" pads_end="0, 0" auto_pad="same_upper" />
			<input>
				<port id="0" precision="FP32">
					<dim>1</dim>
					<dim>128</dim>
					<dim>128</dim>
					<dim>170</dim>
				</port>
				<port id="1" precision="FP32">
					<dim>128</dim>
					<dim>128</dim>
					<dim>3</dim>
					<dim>3</dim>
				</port>
			</input>
			<output>
				<port id="2" precision="FP32" names="inpaint_net/b3conv6/Conv2D:0">
					<dim>1</dim>
					<dim>128</dim>
					<dim>128</dim>
					<dim>170</dim>
				</port>
			</output>
		</layer>
		<layer id="156" name="inpaint_net/b3conv6/bias/read_compressed" type="Const" version="opset1">
			<data element_type="f16" shape="1, 128, 1, 1" offset="15125150" size="256" />
			<output>
				<port id="0" precision="FP16">
					<dim>1</dim>
					<dim>128</dim>
					<dim>1</dim>
					<dim>1</dim>
				</port>
			</output>
		</layer>
		<layer id="157" name="inpaint_net/b3conv6/bias/read" type="Convert" version="opset1">
			<data destination_type="f32" />
			<rt_info>
				<attribute name="decompression" version="0" />
			</rt_info>
			<input>
				<port id="0" precision="FP16">
					<dim>1</dim>
					<dim>128</dim>
					<dim>1</dim>
					<dim>1</dim>
				</port>
			</input>
			<output>
				<port id="1" precision="FP32" names="inpaint_net/b3conv6/bias/read:0">
					<dim>1</dim>
					<dim>128</dim>
					<dim>1</dim>
					<dim>1</dim>
				</port>
			</output>
		</layer>
		<layer id="158" name="inpaint_net/b3conv6/BiasAdd/Add" type="Add" version="opset1">
			<data auto_broadcast="numpy" />
			<input>
				<port id="0" precision="FP32">
					<dim>1</dim>
					<dim>128</dim>
					<dim>128</dim>
					<dim>170</dim>
				</port>
				<port id="1" precision="FP32">
					<dim>1</dim>
					<dim>128</dim>
					<dim>1</dim>
					<dim>1</dim>
				</port>
			</input>
			<output>
				<port id="2" precision="FP32" names="inpaint_net/b3conv6/BiasAdd:0">
					<dim>1</dim>
					<dim>128</dim>
					<dim>128</dim>
					<dim>170</dim>
				</port>
			</output>
		</layer>
		<layer id="159" name="inpaint_net/b3conv6/Elu" type="Elu" version="opset1">
			<data alpha="1" />
			<input>
				<port id="0" precision="FP32">
					<dim>1</dim>
					<dim>128</dim>
					<dim>128</dim>
					<dim>170</dim>
				</port>
			</input>
			<output>
				<port id="1" precision="FP32" names="inpaint_net/b3conv6/Elu:0">
					<dim>1</dim>
					<dim>128</dim>
					<dim>128</dim>
					<dim>170</dim>
				</port>
			</output>
		</layer>
		<layer id="160" name="inpaint_net/b3conv7_atrous/kernel/read_compressed" type="Const" version="opset1">
			<data element_type="f16" shape="128, 128, 3, 3" offset="15125406" size="294912" />
			<output>
				<port id="0" precision="FP16">
					<dim>128</dim>
					<dim>128</dim>
					<dim>3</dim>
					<dim>3</dim>
				</port>
			</output>
		</layer>
		<layer id="161" name="inpaint_net/b3conv7_atrous/kernel/read" type="Convert" version="opset1">
			<data destination_type="f32" />
			<rt_info>
				<attribute name="decompression" version="0" />
			</rt_info>
			<input>
				<port id="0" precision="FP16">
					<dim>128</dim>
					<dim>128</dim>
					<dim>3</dim>
					<dim>3</dim>
				</port>
			</input>
			<output>
				<port id="1" precision="FP32" names="inpaint_net/b3conv7_atrous/kernel/read:0">
					<dim>128</dim>
					<dim>128</dim>
					<dim>3</dim>
					<dim>3</dim>
				</port>
			</output>
		</layer>
		<layer id="162" name="inpaint_net/b3conv7_atrous/Conv2D" type="Convolution" version="opset1">
			<data strides="1, 1" dilations="2, 2" pads_begin="2, 2" pads_end="2, 2" auto_pad="explicit" />
			<input>
				<port id="0" precision="FP32">
					<dim>1</dim>
					<dim>128</dim>
					<dim>128</dim>
					<dim>170</dim>
				</port>
				<port id="1" precision="FP32">
					<dim>128</dim>
					<dim>128</dim>
					<dim>3</dim>
					<dim>3</dim>
				</port>
			</input>
			<output>
				<port id="2" precision="FP32" names="inpaint_net/b3conv7_atrous/BatchToSpaceND:0">
					<dim>1</dim>
					<dim>128</dim>
					<dim>128</dim>
					<dim>170</dim>
				</port>
			</output>
		</layer>
		<layer id="163" name="inpaint_net/b3conv7_atrous/bias/read_compressed" type="Const" version="opset1">
			<data element_type="f16" shape="1, 128, 1, 1" offset="15420318" size="256" />
			<output>
				<port id="0" precision="FP16">
					<dim>1</dim>
					<dim>128</dim>
					<dim>1</dim>
					<dim>1</dim>
				</port>
			</output>
		</layer>
		<layer id="164" name="inpaint_net/b3conv7_atrous/bias/read" type="Convert" version="opset1">
			<data destination_type="f32" />
			<rt_info>
				<attribute name="decompression" version="0" />
			</rt_info>
			<input>
				<port id="0" precision="FP16">
					<dim>1</dim>
					<dim>128</dim>
					<dim>1</dim>
					<dim>1</dim>
				</port>
			</input>
			<output>
				<port id="1" precision="FP32" names="inpaint_net/b3conv7_atrous/bias/read:0">
					<dim>1</dim>
					<dim>128</dim>
					<dim>1</dim>
					<dim>1</dim>
				</port>
			</output>
		</layer>
		<layer id="165" name="inpaint_net/b3conv7_atrous/BiasAdd/Add" type="Add" version="opset1">
			<data auto_broadcast="numpy" />
			<input>
				<port id="0" precision="FP32">
					<dim>1</dim>
					<dim>128</dim>
					<dim>128</dim>
					<dim>170</dim>
				</port>
				<port id="1" precision="FP32">
					<dim>1</dim>
					<dim>128</dim>
					<dim>1</dim>
					<dim>1</dim>
				</port>
			</input>
			<output>
				<port id="2" precision="FP32" names="inpaint_net/b3conv7_atrous/BiasAdd:0">
					<dim>1</dim>
					<dim>128</dim>
					<dim>128</dim>
					<dim>170</dim>
				</port>
			</output>
		</layer>
		<layer id="166" name="inpaint_net/b3conv7_atrous/Elu" type="Elu" version="opset1">
			<data alpha="1" />
			<input>
				<port id="0" precision="FP32">
					<dim>1</dim>
					<dim>128</dim>
					<dim>128</dim>
					<dim>170</dim>
				</port>
			</input>
			<output>
				<port id="1" precision="FP32" names="inpaint_net/b3conv7_atrous/Elu:0">
					<dim>1</dim>
					<dim>128</dim>
					<dim>128</dim>
					<dim>170</dim>
				</port>
			</output>
		</layer>
		<layer id="167" name="inpaint_net/b3conv8_atrous/kernel/read_compressed" type="Const" version="opset1">
			<data element_type="f16" shape="128, 128, 3, 3" offset="15420574" size="294912" />
			<output>
				<port id="0" precision="FP16">
					<dim>128</dim>
					<dim>128</dim>
					<dim>3</dim>
					<dim>3</dim>
				</port>
			</output>
		</layer>
		<layer id="168" name="inpaint_net/b3conv8_atrous/kernel/read" type="Convert" version="opset1">
			<data destination_type="f32" />
			<rt_info>
				<attribute name="decompression" version="0" />
			</rt_info>
			<input>
				<port id="0" precision="FP16">
					<dim>128</dim>
					<dim>128</dim>
					<dim>3</dim>
					<dim>3</dim>
				</port>
			</input>
			<output>
				<port id="1" precision="FP32" names="inpaint_net/b3conv8_atrous/kernel/read:0">
					<dim>128</dim>
					<dim>128</dim>
					<dim>3</dim>
					<dim>3</dim>
				</port>
			</output>
		</layer>
		<layer id="169" name="inpaint_net/b3conv8_atrous/Conv2D" type="Convolution" version="opset1">
			<data strides="1, 1" dilations="4, 4" pads_begin="4, 4" pads_end="4, 4" auto_pad="explicit" />
			<input>
				<port id="0" precision="FP32">
					<dim>1</dim>
					<dim>128</dim>
					<dim>128</dim>
					<dim>170</dim>
				</port>
				<port id="1" precision="FP32">
					<dim>128</dim>
					<dim>128</dim>
					<dim>3</dim>
					<dim>3</dim>
				</port>
			</input>
			<output>
				<port id="2" precision="FP32" names="inpaint_net/b3conv8_atrous/BatchToSpaceND:0">
					<dim>1</dim>
					<dim>128</dim>
					<dim>128</dim>
					<dim>170</dim>
				</port>
			</output>
		</layer>
		<layer id="170" name="inpaint_net/b3conv8_atrous/bias/read_compressed" type="Const" version="opset1">
			<data element_type="f16" shape="1, 128, 1, 1" offset="15715486" size="256" />
			<output>
				<port id="0" precision="FP16">
					<dim>1</dim>
					<dim>128</dim>
					<dim>1</dim>
					<dim>1</dim>
				</port>
			</output>
		</layer>
		<layer id="171" name="inpaint_net/b3conv8_atrous/bias/read" type="Convert" version="opset1">
			<data destination_type="f32" />
			<rt_info>
				<attribute name="decompression" version="0" />
			</rt_info>
			<input>
				<port id="0" precision="FP16">
					<dim>1</dim>
					<dim>128</dim>
					<dim>1</dim>
					<dim>1</dim>
				</port>
			</input>
			<output>
				<port id="1" precision="FP32" names="inpaint_net/b3conv8_atrous/bias/read:0">
					<dim>1</dim>
					<dim>128</dim>
					<dim>1</dim>
					<dim>1</dim>
				</port>
			</output>
		</layer>
		<layer id="172" name="inpaint_net/b3conv8_atrous/BiasAdd/Add" type="Add" version="opset1">
			<data auto_broadcast="numpy" />
			<input>
				<port id="0" precision="FP32">
					<dim>1</dim>
					<dim>128</dim>
					<dim>128</dim>
					<dim>170</dim>
				</port>
				<port id="1" precision="FP32">
					<dim>1</dim>
					<dim>128</dim>
					<dim>1</dim>
					<dim>1</dim>
				</port>
			</input>
			<output>
				<port id="2" precision="FP32" names="inpaint_net/b3conv8_atrous/BiasAdd:0">
					<dim>1</dim>
					<dim>128</dim>
					<dim>128</dim>
					<dim>170</dim>
				</port>
			</output>
		</layer>
		<layer id="173" name="inpaint_net/b3conv8_atrous/Elu" type="Elu" version="opset1">
			<data alpha="1" />
			<input>
				<port id="0" precision="FP32">
					<dim>1</dim>
					<dim>128</dim>
					<dim>128</dim>
					<dim>170</dim>
				</port>
			</input>
			<output>
				<port id="1" precision="FP32" names="inpaint_net/b3conv8_atrous/Elu:0">
					<dim>1</dim>
					<dim>128</dim>
					<dim>128</dim>
					<dim>170</dim>
				</port>
			</output>
		</layer>
		<layer id="174" name="inpaint_net/b3conv9_atrous/kernel/read_compressed" type="Const" version="opset1">
			<data element_type="f16" shape="128, 128, 3, 3" offset="15715742" size="294912" />
			<output>
				<port id="0" precision="FP16">
					<dim>128</dim>
					<dim>128</dim>
					<dim>3</dim>
					<dim>3</dim>
				</port>
			</output>
		</layer>
		<layer id="175" name="inpaint_net/b3conv9_atrous/kernel/read" type="Convert" version="opset1">
			<data destination_type="f32" />
			<rt_info>
				<attribute name="decompression" version="0" />
			</rt_info>
			<input>
				<port id="0" precision="FP16">
					<dim>128</dim>
					<dim>128</dim>
					<dim>3</dim>
					<dim>3</dim>
				</port>
			</input>
			<output>
				<port id="1" precision="FP32" names="inpaint_net/b3conv9_atrous/kernel/read:0">
					<dim>128</dim>
					<dim>128</dim>
					<dim>3</dim>
					<dim>3</dim>
				</port>
			</output>
		</layer>
		<layer id="176" name="inpaint_net/b3conv9_atrous/Conv2D" type="Convolution" version="opset1">
			<data strides="1, 1" dilations="8, 8" pads_begin="8, 8" pads_end="8, 8" auto_pad="explicit" />
			<input>
				<port id="0" precision="FP32">
					<dim>1</dim>
					<dim>128</dim>
					<dim>128</dim>
					<dim>170</dim>
				</port>
				<port id="1" precision="FP32">
					<dim>128</dim>
					<dim>128</dim>
					<dim>3</dim>
					<dim>3</dim>
				</port>
			</input>
			<output>
				<port id="2" precision="FP32" names="inpaint_net/b3conv9_atrous/BatchToSpaceND:0">
					<dim>1</dim>
					<dim>128</dim>
					<dim>128</dim>
					<dim>170</dim>
				</port>
			</output>
		</layer>
		<layer id="177" name="inpaint_net/b3conv9_atrous/bias/read_compressed" type="Const" version="opset1">
			<data element_type="f16" shape="1, 128, 1, 1" offset="16010654" size="256" />
			<output>
				<port id="0" precision="FP16">
					<dim>1</dim>
					<dim>128</dim>
					<dim>1</dim>
					<dim>1</dim>
				</port>
			</output>
		</layer>
		<layer id="178" name="inpaint_net/b3conv9_atrous/bias/read" type="Convert" version="opset1">
			<data destination_type="f32" />
			<rt_info>
				<attribute name="decompression" version="0" />
			</rt_info>
			<input>
				<port id="0" precision="FP16">
					<dim>1</dim>
					<dim>128</dim>
					<dim>1</dim>
					<dim>1</dim>
				</port>
			</input>
			<output>
				<port id="1" precision="FP32" names="inpaint_net/b3conv9_atrous/bias/read:0">
					<dim>1</dim>
					<dim>128</dim>
					<dim>1</dim>
					<dim>1</dim>
				</port>
			</output>
		</layer>
		<layer id="179" name="inpaint_net/b3conv9_atrous/BiasAdd/Add" type="Add" version="opset1">
			<data auto_broadcast="numpy" />
			<input>
				<port id="0" precision="FP32">
					<dim>1</dim>
					<dim>128</dim>
					<dim>128</dim>
					<dim>170</dim>
				</port>
				<port id="1" precision="FP32">
					<dim>1</dim>
					<dim>128</dim>
					<dim>1</dim>
					<dim>1</dim>
				</port>
			</input>
			<output>
				<port id="2" precision="FP32" names="inpaint_net/b3conv9_atrous/BiasAdd:0">
					<dim>1</dim>
					<dim>128</dim>
					<dim>128</dim>
					<dim>170</dim>
				</port>
			</output>
		</layer>
		<layer id="180" name="inpaint_net/b3conv9_atrous/Elu" type="Elu" version="opset1">
			<data alpha="1" />
			<input>
				<port id="0" precision="FP32">
					<dim>1</dim>
					<dim>128</dim>
					<dim>128</dim>
					<dim>170</dim>
				</port>
			</input>
			<output>
				<port id="1" precision="FP32" names="inpaint_net/b3conv9_atrous/Elu:0">
					<dim>1</dim>
					<dim>128</dim>
					<dim>128</dim>
					<dim>170</dim>
				</port>
			</output>
		</layer>
		<layer id="181" name="inpaint_net/b3conv10_atrous/kernel/read_compressed" type="Const" version="opset1">
			<data element_type="f16" shape="128, 128, 3, 3" offset="16010910" size="294912" />
			<output>
				<port id="0" precision="FP16">
					<dim>128</dim>
					<dim>128</dim>
					<dim>3</dim>
					<dim>3</dim>
				</port>
			</output>
		</layer>
		<layer id="182" name="inpaint_net/b3conv10_atrous/kernel/read" type="Convert" version="opset1">
			<data destination_type="f32" />
			<rt_info>
				<attribute name="decompression" version="0" />
			</rt_info>
			<input>
				<port id="0" precision="FP16">
					<dim>128</dim>
					<dim>128</dim>
					<dim>3</dim>
					<dim>3</dim>
				</port>
			</input>
			<output>
				<port id="1" precision="FP32" names="inpaint_net/b3conv10_atrous/kernel/read:0">
					<dim>128</dim>
					<dim>128</dim>
					<dim>3</dim>
					<dim>3</dim>
				</port>
			</output>
		</layer>
		<layer id="183" name="inpaint_net/b3conv10_atrous/Conv2D" type="Convolution" version="opset1">
			<data strides="1, 1" dilations="16, 16" pads_begin="16, 16" pads_end="16, 16" auto_pad="explicit" />
			<input>
				<port id="0" precision="FP32">
					<dim>1</dim>
					<dim>128</dim>
					<dim>128</dim>
					<dim>170</dim>
				</port>
				<port id="1" precision="FP32">
					<dim>128</dim>
					<dim>128</dim>
					<dim>3</dim>
					<dim>3</dim>
				</port>
			</input>
			<output>
				<port id="2" precision="FP32" names="inpaint_net/b3conv10_atrous/BatchToSpaceND:0">
					<dim>1</dim>
					<dim>128</dim>
					<dim>128</dim>
					<dim>170</dim>
				</port>
			</output>
		</layer>
		<layer id="184" name="inpaint_net/b3conv10_atrous/bias/read_compressed" type="Const" version="opset1">
			<data element_type="f16" shape="1, 128, 1, 1" offset="16305822" size="256" />
			<output>
				<port id="0" precision="FP16">
					<dim>1</dim>
					<dim>128</dim>
					<dim>1</dim>
					<dim>1</dim>
				</port>
			</output>
		</layer>
		<layer id="185" name="inpaint_net/b3conv10_atrous/bias/read" type="Convert" version="opset1">
			<data destination_type="f32" />
			<rt_info>
				<attribute name="decompression" version="0" />
			</rt_info>
			<input>
				<port id="0" precision="FP16">
					<dim>1</dim>
					<dim>128</dim>
					<dim>1</dim>
					<dim>1</dim>
				</port>
			</input>
			<output>
				<port id="1" precision="FP32" names="inpaint_net/b3conv10_atrous/bias/read:0">
					<dim>1</dim>
					<dim>128</dim>
					<dim>1</dim>
					<dim>1</dim>
				</port>
			</output>
		</layer>
		<layer id="186" name="inpaint_net/b3conv10_atrous/BiasAdd/Add" type="Add" version="opset1">
			<data auto_broadcast="numpy" />
			<input>
				<port id="0" precision="FP32">
					<dim>1</dim>
					<dim>128</dim>
					<dim>128</dim>
					<dim>170</dim>
				</port>
				<port id="1" precision="FP32">
					<dim>1</dim>
					<dim>128</dim>
					<dim>1</dim>
					<dim>1</dim>
				</port>
			</input>
			<output>
				<port id="2" precision="FP32" names="inpaint_net/b3conv10_atrous/BiasAdd:0">
					<dim>1</dim>
					<dim>128</dim>
					<dim>128</dim>
					<dim>170</dim>
				</port>
			</output>
		</layer>
		<layer id="187" name="inpaint_net/b3conv10_atrous/Elu" type="Elu" version="opset1">
			<data alpha="1" />
			<input>
				<port id="0" precision="FP32">
					<dim>1</dim>
					<dim>128</dim>
					<dim>128</dim>
					<dim>170</dim>
				</port>
			</input>
			<output>
				<port id="1" precision="FP32" names="inpaint_net/b3conv10_atrous/Elu:0">
					<dim>1</dim>
					<dim>128</dim>
					<dim>128</dim>
					<dim>170</dim>
				</port>
			</output>
		</layer>
		<layer id="188" name="inpaint_net/b3conv11/kernel/read_compressed" type="Const" version="opset1">
			<data element_type="f16" shape="128, 128, 3, 3" offset="16306078" size="294912" />
			<output>
				<port id="0" precision="FP16">
					<dim>128</dim>
					<dim>128</dim>
					<dim>3</dim>
					<dim>3</dim>
				</port>
			</output>
		</layer>
		<layer id="189" name="inpaint_net/b3conv11/kernel/read" type="Convert" version="opset1">
			<data destination_type="f32" />
			<rt_info>
				<attribute name="decompression" version="0" />
			</rt_info>
			<input>
				<port id="0" precision="FP16">
					<dim>128</dim>
					<dim>128</dim>
					<dim>3</dim>
					<dim>3</dim>
				</port>
			</input>
			<output>
				<port id="1" precision="FP32" names="inpaint_net/b3conv11/kernel/read:0">
					<dim>128</dim>
					<dim>128</dim>
					<dim>3</dim>
					<dim>3</dim>
				</port>
			</output>
		</layer>
		<layer id="190" name="inpaint_net/b3conv11/Conv2D" type="Convolution" version="opset1">
			<data strides="1, 1" dilations="1, 1" pads_begin="0, 0" pads_end="0, 0" auto_pad="same_upper" />
			<input>
				<port id="0" precision="FP32">
					<dim>1</dim>
					<dim>128</dim>
					<dim>128</dim>
					<dim>170</dim>
				</port>
				<port id="1" precision="FP32">
					<dim>128</dim>
					<dim>128</dim>
					<dim>3</dim>
					<dim>3</dim>
				</port>
			</input>
			<output>
				<port id="2" precision="FP32" names="inpaint_net/b3conv11/Conv2D:0">
					<dim>1</dim>
					<dim>128</dim>
					<dim>128</dim>
					<dim>170</dim>
				</port>
			</output>
		</layer>
		<layer id="191" name="inpaint_net/b3conv11/bias/read_compressed" type="Const" version="opset1">
			<data element_type="f16" shape="1, 128, 1, 1" offset="16600990" size="256" />
			<output>
				<port id="0" precision="FP16">
					<dim>1</dim>
					<dim>128</dim>
					<dim>1</dim>
					<dim>1</dim>
				</port>
			</output>
		</layer>
		<layer id="192" name="inpaint_net/b3conv11/bias/read" type="Convert" version="opset1">
			<data destination_type="f32" />
			<rt_info>
				<attribute name="decompression" version="0" />
			</rt_info>
			<input>
				<port id="0" precision="FP16">
					<dim>1</dim>
					<dim>128</dim>
					<dim>1</dim>
					<dim>1</dim>
				</port>
			</input>
			<output>
				<port id="1" precision="FP32" names="inpaint_net/b3conv11/bias/read:0">
					<dim>1</dim>
					<dim>128</dim>
					<dim>1</dim>
					<dim>1</dim>
				</port>
			</output>
		</layer>
		<layer id="193" name="inpaint_net/b3conv11/BiasAdd/Add" type="Add" version="opset1">
			<data auto_broadcast="numpy" />
			<input>
				<port id="0" precision="FP32">
					<dim>1</dim>
					<dim>128</dim>
					<dim>128</dim>
					<dim>170</dim>
				</port>
				<port id="1" precision="FP32">
					<dim>1</dim>
					<dim>128</dim>
					<dim>1</dim>
					<dim>1</dim>
				</port>
			</input>
			<output>
				<port id="2" precision="FP32" names="inpaint_net/b3conv11/BiasAdd:0">
					<dim>1</dim>
					<dim>128</dim>
					<dim>128</dim>
					<dim>170</dim>
				</port>
			</output>
		</layer>
		<layer id="194" name="inpaint_net/b3conv11/Elu" type="Elu" version="opset1">
			<data alpha="1" />
			<input>
				<port id="0" precision="FP32">
					<dim>1</dim>
					<dim>128</dim>
					<dim>128</dim>
					<dim>170</dim>
				</port>
			</input>
			<output>
				<port id="1" precision="FP32" names="inpaint_net/b3conv11/Elu:0">
					<dim>1</dim>
					<dim>128</dim>
					<dim>128</dim>
					<dim>170</dim>
				</port>
			</output>
		</layer>
		<layer id="195" name="inpaint_net/b3conv12/kernel/read_compressed" type="Const" version="opset1">
			<data element_type="f16" shape="128, 128, 3, 3" offset="16601246" size="294912" />
			<output>
				<port id="0" precision="FP16">
					<dim>128</dim>
					<dim>128</dim>
					<dim>3</dim>
					<dim>3</dim>
				</port>
			</output>
		</layer>
		<layer id="196" name="inpaint_net/b3conv12/kernel/read" type="Convert" version="opset1">
			<data destination_type="f32" />
			<rt_info>
				<attribute name="decompression" version="0" />
			</rt_info>
			<input>
				<port id="0" precision="FP16">
					<dim>128</dim>
					<dim>128</dim>
					<dim>3</dim>
					<dim>3</dim>
				</port>
			</input>
			<output>
				<port id="1" precision="FP32" names="inpaint_net/b3conv12/kernel/read:0">
					<dim>128</dim>
					<dim>128</dim>
					<dim>3</dim>
					<dim>3</dim>
				</port>
			</output>
		</layer>
		<layer id="197" name="inpaint_net/b3conv12/Conv2D" type="Convolution" version="opset1">
			<data strides="1, 1" dilations="1, 1" pads_begin="0, 0" pads_end="0, 0" auto_pad="same_upper" />
			<input>
				<port id="0" precision="FP32">
					<dim>1</dim>
					<dim>128</dim>
					<dim>128</dim>
					<dim>170</dim>
				</port>
				<port id="1" precision="FP32">
					<dim>128</dim>
					<dim>128</dim>
					<dim>3</dim>
					<dim>3</dim>
				</port>
			</input>
			<output>
				<port id="2" precision="FP32" names="inpaint_net/b3conv12/Conv2D:0">
					<dim>1</dim>
					<dim>128</dim>
					<dim>128</dim>
					<dim>170</dim>
				</port>
			</output>
		</layer>
		<layer id="198" name="inpaint_net/b3conv12/bias/read_compressed" type="Const" version="opset1">
			<data element_type="f16" shape="1, 128, 1, 1" offset="16896158" size="256" />
			<output>
				<port id="0" precision="FP16">
					<dim>1</dim>
					<dim>128</dim>
					<dim>1</dim>
					<dim>1</dim>
				</port>
			</output>
		</layer>
		<layer id="199" name="inpaint_net/b3conv12/bias/read" type="Convert" version="opset1">
			<data destination_type="f32" />
			<rt_info>
				<attribute name="decompression" version="0" />
			</rt_info>
			<input>
				<port id="0" precision="FP16">
					<dim>1</dim>
					<dim>128</dim>
					<dim>1</dim>
					<dim>1</dim>
				</port>
			</input>
			<output>
				<port id="1" precision="FP32" names="inpaint_net/b3conv12/bias/read:0">
					<dim>1</dim>
					<dim>128</dim>
					<dim>1</dim>
					<dim>1</dim>
				</port>
			</output>
		</layer>
		<layer id="200" name="inpaint_net/b3conv12/BiasAdd/Add" type="Add" version="opset1">
			<data auto_broadcast="numpy" />
			<input>
				<port id="0" precision="FP32">
					<dim>1</dim>
					<dim>128</dim>
					<dim>128</dim>
					<dim>170</dim>
				</port>
				<port id="1" precision="FP32">
					<dim>1</dim>
					<dim>128</dim>
					<dim>1</dim>
					<dim>1</dim>
				</port>
			</input>
			<output>
				<port id="2" precision="FP32" names="inpaint_net/b3conv12/BiasAdd:0">
					<dim>1</dim>
					<dim>128</dim>
					<dim>128</dim>
					<dim>170</dim>
				</port>
			</output>
		</layer>
		<layer id="201" name="inpaint_net/b3conv12/Elu" type="Elu" version="opset1">
			<data alpha="1" />
			<input>
				<port id="0" precision="FP32">
					<dim>1</dim>
					<dim>128</dim>
					<dim>128</dim>
					<dim>170</dim>
				</port>
			</input>
			<output>
				<port id="1" precision="FP32" names="inpaint_net/b3conv12/Elu:0">
					<dim>1</dim>
					<dim>128</dim>
					<dim>128</dim>
					<dim>170</dim>
				</port>
			</output>
		</layer>
		<layer id="202" name="inpaint_net/ResizeNearestNeighbor_1/size" type="Const" version="opset1">
			<data element_type="i64" shape="2" offset="16896414" size="16" />
			<output>
				<port id="0" precision="I64" names="inpaint_net/ResizeNearestNeighbor_1/size:0">
					<dim>2</dim>
				</port>
			</output>
		</layer>
		<layer id="203" name="477" type="Const" version="opset1">
			<data element_type="f32" shape="2" offset="16896430" size="8" />
			<output>
				<port id="0" precision="FP32">
					<dim>2</dim>
				</port>
			</output>
		</layer>
		<layer id="204" name="inpaint_net/ResizeNearestNeighbor_1/shapeof" type="ShapeOf" version="opset3">
			<data output_type="i64" />
			<input>
				<port id="0" precision="FP32">
					<dim>1</dim>
					<dim>128</dim>
					<dim>128</dim>
					<dim>170</dim>
				</port>
			</input>
			<output>
				<port id="1" precision="I64">
					<dim>4</dim>
				</port>
			</output>
		</layer>
		<layer id="205" name="inpaint_net/ResizeNearestNeighbor_1/shapeof/GatherNCHWtoNHWC_input_port_1/value955513910" type="Const" version="opset1">
			<data element_type="i32" shape="4" offset="38" size="16" />
			<output>
				<port id="0" precision="I32">
					<dim>4</dim>
				</port>
			</output>
		</layer>
		<layer id="206" name="inpaint_net/ResizeNearestNeighbor_1/shapeof/GatherNCHWtoNHWC_input_port_2/value955714321" type="Const" version="opset1">
			<data element_type="i64" shape="" offset="54" size="8" />
			<output>
				<port id="0" precision="I64" />
			</output>
		</layer>
		<layer id="207" name="inpaint_net/ResizeNearestNeighbor_1/shapeof/GatherNCHWtoNHWC" type="Gather" version="opset8">
			<data batch_dims="0" />
			<input>
				<port id="0" precision="I64">
					<dim>4</dim>
				</port>
				<port id="1" precision="I32">
					<dim>4</dim>
				</port>
				<port id="2" precision="I64" />
			</input>
			<output>
				<port id="3" precision="I64">
					<dim>4</dim>
				</port>
			</output>
		</layer>
		<layer id="208" name="inpaint_net/ResizeNearestNeighbor_1/StridedSlice_input_port_1/value" type="Const" version="opset1">
			<data element_type="i64" shape="1" offset="16896438" size="8" />
			<output>
				<port id="0" precision="I64">
					<dim>1</dim>
				</port>
			</output>
		</layer>
		<layer id="209" name="inpaint_net/ResizeNearestNeighbor_1/StridedSlice_input_port_2/value" type="Const" version="opset1">
			<data element_type="i64" shape="1" offset="16896446" size="8" />
			<output>
				<port id="0" precision="I64">
					<dim>1</dim>
				</port>
			</output>
		</layer>
		<layer id="210" name="inpaint_net/ResizeNearestNeighbor_1/StridedSlice_input_port_3/value" type="Const" version="opset1">
			<data element_type="i64" shape="1" offset="16896438" size="8" />
			<output>
				<port id="0" precision="I64">
					<dim>1</dim>
				</port>
			</output>
		</layer>
		<layer id="211" name="inpaint_net/ResizeNearestNeighbor_1/StridedSlice" type="StridedSlice" version="opset1">
			<data begin_mask="0" end_mask="0" new_axis_mask="0" shrink_axis_mask="0" ellipsis_mask="0" />
			<input>
				<port id="0" precision="I64">
					<dim>4</dim>
				</port>
				<port id="1" precision="I64">
					<dim>1</dim>
				</port>
				<port id="2" precision="I64">
					<dim>1</dim>
				</port>
				<port id="3" precision="I64">
					<dim>1</dim>
				</port>
			</input>
			<output>
				<port id="4" precision="I64">
					<dim>2</dim>
				</port>
			</output>
		</layer>
		<layer id="212" name="476" type="Convert" version="opset1">
			<data destination_type="f32" />
			<input>
				<port id="0" precision="I64">
					<dim>2</dim>
				</port>
			</input>
			<output>
				<port id="1" precision="FP32">
					<dim>2</dim>
				</port>
			</output>
		</layer>
		<layer id="213" name="inpaint_net/ResizeNearestNeighbor_1/Div" type="Divide" version="opset1">
			<data auto_broadcast="numpy" m_pythondiv="true" />
			<input>
				<port id="0" precision="FP32">
					<dim>2</dim>
				</port>
				<port id="1" precision="FP32">
					<dim>2</dim>
				</port>
			</input>
			<output>
				<port id="2" precision="FP32">
					<dim>2</dim>
				</port>
			</output>
		</layer>
		<layer id="214" name="993213967" type="Const" version="opset1">
			<data element_type="i64" shape="2" offset="16896454" size="16" />
			<output>
				<port id="0" precision="I64">
					<dim>2</dim>
				</port>
			</output>
		</layer>
		<layer id="215" name="inpaint_net/ResizeNearestNeighbor_1" type="Interpolate" version="opset4">
			<data mode="nearest" shape_calculation_mode="sizes" coordinate_transformation_mode="align_corners" nearest_mode="round_prefer_ceil" antialias="false" pads_begin="0, 0, 0, 0" pads_end="0, 0, 0, 0" cube_coeff="-0.75" />
			<input>
				<port id="0" precision="FP32">
					<dim>1</dim>
					<dim>128</dim>
					<dim>128</dim>
					<dim>170</dim>
				</port>
				<port id="1" precision="I64">
					<dim>2</dim>
				</port>
				<port id="2" precision="FP32">
					<dim>2</dim>
				</port>
				<port id="3" precision="I64">
					<dim>2</dim>
				</port>
			</input>
			<output>
				<port id="4" precision="FP32" names="inpaint_net/ResizeNearestNeighbor_1:0">
					<dim>1</dim>
					<dim>128</dim>
					<dim>256</dim>
					<dim>340</dim>
				</port>
			</output>
		</layer>
		<layer id="216" name="inpaint_net/b3conv13_upsample/b3conv13_upsample_conv/kernel/read_compressed" type="Const" version="opset1">
			<data element_type="f16" shape="64, 128, 3, 3" offset="16896470" size="147456" />
			<output>
				<port id="0" precision="FP16">
					<dim>64</dim>
					<dim>128</dim>
					<dim>3</dim>
					<dim>3</dim>
				</port>
			</output>
		</layer>
		<layer id="217" name="inpaint_net/b3conv13_upsample/b3conv13_upsample_conv/kernel/read" type="Convert" version="opset1">
			<data destination_type="f32" />
			<rt_info>
				<attribute name="decompression" version="0" />
			</rt_info>
			<input>
				<port id="0" precision="FP16">
					<dim>64</dim>
					<dim>128</dim>
					<dim>3</dim>
					<dim>3</dim>
				</port>
			</input>
			<output>
				<port id="1" precision="FP32" names="inpaint_net/b3conv13_upsample/b3conv13_upsample_conv/kernel/read:0">
					<dim>64</dim>
					<dim>128</dim>
					<dim>3</dim>
					<dim>3</dim>
				</port>
			</output>
		</layer>
		<layer id="218" name="inpaint_net/b3conv13_upsample/b3conv13_upsample_conv/Conv2D" type="Convolution" version="opset1">
			<data strides="1, 1" dilations="1, 1" pads_begin="0, 0" pads_end="0, 0" auto_pad="same_upper" />
			<input>
				<port id="0" precision="FP32">
					<dim>1</dim>
					<dim>128</dim>
					<dim>256</dim>
					<dim>340</dim>
				</port>
				<port id="1" precision="FP32">
					<dim>64</dim>
					<dim>128</dim>
					<dim>3</dim>
					<dim>3</dim>
				</port>
			</input>
			<output>
				<port id="2" precision="FP32" names="inpaint_net/b3conv13_upsample/b3conv13_upsample_conv/Conv2D:0">
					<dim>1</dim>
					<dim>64</dim>
					<dim>256</dim>
					<dim>340</dim>
				</port>
			</output>
		</layer>
		<layer id="219" name="inpaint_net/b3conv13_upsample/b3conv13_upsample_conv/bias/read_compressed" type="Const" version="opset1">
			<data element_type="f16" shape="1, 64, 1, 1" offset="17043926" size="128" />
			<output>
				<port id="0" precision="FP16">
					<dim>1</dim>
					<dim>64</dim>
					<dim>1</dim>
					<dim>1</dim>
				</port>
			</output>
		</layer>
		<layer id="220" name="inpaint_net/b3conv13_upsample/b3conv13_upsample_conv/bias/read" type="Convert" version="opset1">
			<data destination_type="f32" />
			<rt_info>
				<attribute name="decompression" version="0" />
			</rt_info>
			<input>
				<port id="0" precision="FP16">
					<dim>1</dim>
					<dim>64</dim>
					<dim>1</dim>
					<dim>1</dim>
				</port>
			</input>
			<output>
				<port id="1" precision="FP32" names="inpaint_net/b3conv13_upsample/b3conv13_upsample_conv/bias/read:0">
					<dim>1</dim>
					<dim>64</dim>
					<dim>1</dim>
					<dim>1</dim>
				</port>
			</output>
		</layer>
		<layer id="221" name="inpaint_net/b3conv13_upsample/b3conv13_upsample_conv/BiasAdd/Add" type="Add" version="opset1">
			<data auto_broadcast="numpy" />
			<input>
				<port id="0" precision="FP32">
					<dim>1</dim>
					<dim>64</dim>
					<dim>256</dim>
					<dim>340</dim>
				</port>
				<port id="1" precision="FP32">
					<dim>1</dim>
					<dim>64</dim>
					<dim>1</dim>
					<dim>1</dim>
				</port>
			</input>
			<output>
				<port id="2" precision="FP32" names="inpaint_net/b3conv13_upsample/b3conv13_upsample_conv/BiasAdd:0">
					<dim>1</dim>
					<dim>64</dim>
					<dim>256</dim>
					<dim>340</dim>
				</port>
			</output>
		</layer>
		<layer id="222" name="inpaint_net/b3conv13_upsample/b3conv13_upsample_conv/Elu" type="Elu" version="opset1">
			<data alpha="1" />
			<input>
				<port id="0" precision="FP32">
					<dim>1</dim>
					<dim>64</dim>
					<dim>256</dim>
					<dim>340</dim>
				</port>
			</input>
			<output>
				<port id="1" precision="FP32" names="inpaint_net/b3conv13_upsample/b3conv13_upsample_conv/Elu:0">
					<dim>1</dim>
					<dim>64</dim>
					<dim>256</dim>
					<dim>340</dim>
				</port>
			</output>
		</layer>
		<layer id="223" name="inpaint_net/b3conv14/kernel/read_compressed" type="Const" version="opset1">
			<data element_type="f16" shape="64, 64, 3, 3" offset="17044054" size="73728" />
			<output>
				<port id="0" precision="FP16">
					<dim>64</dim>
					<dim>64</dim>
					<dim>3</dim>
					<dim>3</dim>
				</port>
			</output>
		</layer>
		<layer id="224" name="inpaint_net/b3conv14/kernel/read" type="Convert" version="opset1">
			<data destination_type="f32" />
			<rt_info>
				<attribute name="decompression" version="0" />
			</rt_info>
			<input>
				<port id="0" precision="FP16">
					<dim>64</dim>
					<dim>64</dim>
					<dim>3</dim>
					<dim>3</dim>
				</port>
			</input>
			<output>
				<port id="1" precision="FP32" names="inpaint_net/b3conv14/kernel/read:0">
					<dim>64</dim>
					<dim>64</dim>
					<dim>3</dim>
					<dim>3</dim>
				</port>
			</output>
		</layer>
		<layer id="225" name="inpaint_net/b3conv14/Conv2D" type="Convolution" version="opset1">
			<data strides="1, 1" dilations="1, 1" pads_begin="0, 0" pads_end="0, 0" auto_pad="same_upper" />
			<input>
				<port id="0" precision="FP32">
					<dim>1</dim>
					<dim>64</dim>
					<dim>256</dim>
					<dim>340</dim>
				</port>
				<port id="1" precision="FP32">
					<dim>64</dim>
					<dim>64</dim>
					<dim>3</dim>
					<dim>3</dim>
				</port>
			</input>
			<output>
				<port id="2" precision="FP32" names="inpaint_net/b3conv14/Conv2D:0">
					<dim>1</dim>
					<dim>64</dim>
					<dim>256</dim>
					<dim>340</dim>
				</port>
			</output>
		</layer>
		<layer id="226" name="inpaint_net/b3conv14/bias/read_compressed" type="Const" version="opset1">
			<data element_type="f16" shape="1, 64, 1, 1" offset="17117782" size="128" />
			<output>
				<port id="0" precision="FP16">
					<dim>1</dim>
					<dim>64</dim>
					<dim>1</dim>
					<dim>1</dim>
				</port>
			</output>
		</layer>
		<layer id="227" name="inpaint_net/b3conv14/bias/read" type="Convert" version="opset1">
			<data destination_type="f32" />
			<rt_info>
				<attribute name="decompression" version="0" />
			</rt_info>
			<input>
				<port id="0" precision="FP16">
					<dim>1</dim>
					<dim>64</dim>
					<dim>1</dim>
					<dim>1</dim>
				</port>
			</input>
			<output>
				<port id="1" precision="FP32" names="inpaint_net/b3conv14/bias/read:0">
					<dim>1</dim>
					<dim>64</dim>
					<dim>1</dim>
					<dim>1</dim>
				</port>
			</output>
		</layer>
		<layer id="228" name="inpaint_net/b3conv14/BiasAdd/Add" type="Add" version="opset1">
			<data auto_broadcast="numpy" />
			<input>
				<port id="0" precision="FP32">
					<dim>1</dim>
					<dim>64</dim>
					<dim>256</dim>
					<dim>340</dim>
				</port>
				<port id="1" precision="FP32">
					<dim>1</dim>
					<dim>64</dim>
					<dim>1</dim>
					<dim>1</dim>
				</port>
			</input>
			<output>
				<port id="2" precision="FP32" names="inpaint_net/b3conv14/BiasAdd:0">
					<dim>1</dim>
					<dim>64</dim>
					<dim>256</dim>
					<dim>340</dim>
				</port>
			</output>
		</layer>
		<layer id="229" name="inpaint_net/b3conv14/Elu" type="Elu" version="opset1">
			<data alpha="1" />
			<input>
				<port id="0" precision="FP32">
					<dim>1</dim>
					<dim>64</dim>
					<dim>256</dim>
					<dim>340</dim>
				</port>
			</input>
			<output>
				<port id="1" precision="FP32" names="inpaint_net/b3conv14/Elu:0">
					<dim>1</dim>
					<dim>64</dim>
					<dim>256</dim>
					<dim>340</dim>
				</port>
			</output>
		</layer>
		<layer id="230" name="inpaint_net/ResizeNearestNeighbor_2/size" type="Const" version="opset1">
			<data element_type="i64" shape="2" offset="17117910" size="16" />
			<output>
				<port id="0" precision="I64" names="inpaint_net/ResizeNearestNeighbor_2/size:0">
					<dim>2</dim>
				</port>
			</output>
		</layer>
		<layer id="231" name="467" type="Const" version="opset1">
			<data element_type="f32" shape="2" offset="17117926" size="8" />
			<output>
				<port id="0" precision="FP32">
					<dim>2</dim>
				</port>
			</output>
		</layer>
		<layer id="232" name="inpaint_net/ResizeNearestNeighbor_2/shapeof" type="ShapeOf" version="opset3">
			<data output_type="i64" />
			<input>
				<port id="0" precision="FP32">
					<dim>1</dim>
					<dim>64</dim>
					<dim>256</dim>
					<dim>340</dim>
				</port>
			</input>
			<output>
				<port id="1" precision="I64">
					<dim>4</dim>
				</port>
			</output>
		</layer>
		<layer id="233" name="inpaint_net/ResizeNearestNeighbor_2/shapeof/GatherNCHWtoNHWC_input_port_1/value954913991" type="Const" version="opset1">
			<data element_type="i32" shape="4" offset="38" size="16" />
			<output>
				<port id="0" precision="I32">
					<dim>4</dim>
				</port>
			</output>
		</layer>
		<layer id="234" name="inpaint_net/ResizeNearestNeighbor_2/shapeof/GatherNCHWtoNHWC_input_port_2/value955114243" type="Const" version="opset1">
			<data element_type="i64" shape="" offset="54" size="8" />
			<output>
				<port id="0" precision="I64" />
			</output>
		</layer>
		<layer id="235" name="inpaint_net/ResizeNearestNeighbor_2/shapeof/GatherNCHWtoNHWC" type="Gather" version="opset8">
			<data batch_dims="0" />
			<input>
				<port id="0" precision="I64">
					<dim>4</dim>
				</port>
				<port id="1" precision="I32">
					<dim>4</dim>
				</port>
				<port id="2" precision="I64" />
			</input>
			<output>
				<port id="3" precision="I64">
					<dim>4</dim>
				</port>
			</output>
		</layer>
		<layer id="236" name="inpaint_net/ResizeNearestNeighbor_2/StridedSlice_input_port_1/value" type="Const" version="opset1">
			<data element_type="i64" shape="1" offset="16896438" size="8" />
			<output>
				<port id="0" precision="I64">
					<dim>1</dim>
				</port>
			</output>
		</layer>
		<layer id="237" name="inpaint_net/ResizeNearestNeighbor_2/StridedSlice_input_port_2/value" type="Const" version="opset1">
			<data element_type="i64" shape="1" offset="16896446" size="8" />
			<output>
				<port id="0" precision="I64">
					<dim>1</dim>
				</port>
			</output>
		</layer>
		<layer id="238" name="inpaint_net/ResizeNearestNeighbor_2/StridedSlice_input_port_3/value" type="Const" version="opset1">
			<data element_type="i64" shape="1" offset="16896438" size="8" />
			<output>
				<port id="0" precision="I64">
					<dim>1</dim>
				</port>
			</output>
		</layer>
		<layer id="239" name="inpaint_net/ResizeNearestNeighbor_2/StridedSlice" type="StridedSlice" version="opset1">
			<data begin_mask="0" end_mask="0" new_axis_mask="0" shrink_axis_mask="0" ellipsis_mask="0" />
			<input>
				<port id="0" precision="I64">
					<dim>4</dim>
				</port>
				<port id="1" precision="I64">
					<dim>1</dim>
				</port>
				<port id="2" precision="I64">
					<dim>1</dim>
				</port>
				<port id="3" precision="I64">
					<dim>1</dim>
				</port>
			</input>
			<output>
				<port id="4" precision="I64">
					<dim>2</dim>
				</port>
			</output>
		</layer>
		<layer id="240" name="466" type="Convert" version="opset1">
			<data destination_type="f32" />
			<input>
				<port id="0" precision="I64">
					<dim>2</dim>
				</port>
			</input>
			<output>
				<port id="1" precision="FP32">
					<dim>2</dim>
				</port>
			</output>
		</layer>
		<layer id="241" name="inpaint_net/ResizeNearestNeighbor_2/Div" type="Divide" version="opset1">
			<data auto_broadcast="numpy" m_pythondiv="true" />
			<input>
				<port id="0" precision="FP32">
					<dim>2</dim>
				</port>
				<port id="1" precision="FP32">
					<dim>2</dim>
				</port>
			</input>
			<output>
				<port id="2" precision="FP32">
					<dim>2</dim>
				</port>
			</output>
		</layer>
		<layer id="242" name="992614315" type="Const" version="opset1">
			<data element_type="i64" shape="2" offset="16896454" size="16" />
			<output>
				<port id="0" precision="I64">
					<dim>2</dim>
				</port>
			</output>
		</layer>
		<layer id="243" name="inpaint_net/ResizeNearestNeighbor_2" type="Interpolate" version="opset4">
			<data mode="nearest" shape_calculation_mode="sizes" coordinate_transformation_mode="align_corners" nearest_mode="round_prefer_ceil" antialias="false" pads_begin="0, 0, 0, 0" pads_end="0, 0, 0, 0" cube_coeff="-0.75" />
			<input>
				<port id="0" precision="FP32">
					<dim>1</dim>
					<dim>64</dim>
					<dim>256</dim>
					<dim>340</dim>
				</port>
				<port id="1" precision="I64">
					<dim>2</dim>
				</port>
				<port id="2" precision="FP32">
					<dim>2</dim>
				</port>
				<port id="3" precision="I64">
					<dim>2</dim>
				</port>
			</input>
			<output>
				<port id="4" precision="FP32" names="inpaint_net/ResizeNearestNeighbor_2:0">
					<dim>1</dim>
					<dim>64</dim>
					<dim>512</dim>
					<dim>680</dim>
				</port>
			</output>
		</layer>
		<layer id="244" name="inpaint_net/b3conv15_upsample/b3conv15_upsample_conv/kernel/read_compressed" type="Const" version="opset1">
			<data element_type="f16" shape="32, 64, 3, 3" offset="17117934" size="36864" />
			<output>
				<port id="0" precision="FP16">
					<dim>32</dim>
					<dim>64</dim>
					<dim>3</dim>
					<dim>3</dim>
				</port>
			</output>
		</layer>
		<layer id="245" name="inpaint_net/b3conv15_upsample/b3conv15_upsample_conv/kernel/read" type="Convert" version="opset1">
			<data destination_type="f32" />
			<rt_info>
				<attribute name="decompression" version="0" />
			</rt_info>
			<input>
				<port id="0" precision="FP16">
					<dim>32</dim>
					<dim>64</dim>
					<dim>3</dim>
					<dim>3</dim>
				</port>
			</input>
			<output>
				<port id="1" precision="FP32" names="inpaint_net/b3conv15_upsample/b3conv15_upsample_conv/kernel/read:0">
					<dim>32</dim>
					<dim>64</dim>
					<dim>3</dim>
					<dim>3</dim>
				</port>
			</output>
		</layer>
		<layer id="246" name="inpaint_net/b3conv15_upsample/b3conv15_upsample_conv/Conv2D" type="Convolution" version="opset1">
			<data strides="1, 1" dilations="1, 1" pads_begin="0, 0" pads_end="0, 0" auto_pad="same_upper" />
			<input>
				<port id="0" precision="FP32">
					<dim>1</dim>
					<dim>64</dim>
					<dim>512</dim>
					<dim>680</dim>
				</port>
				<port id="1" precision="FP32">
					<dim>32</dim>
					<dim>64</dim>
					<dim>3</dim>
					<dim>3</dim>
				</port>
			</input>
			<output>
				<port id="2" precision="FP32" names="inpaint_net/b3conv15_upsample/b3conv15_upsample_conv/Conv2D:0">
					<dim>1</dim>
					<dim>32</dim>
					<dim>512</dim>
					<dim>680</dim>
				</port>
			</output>
		</layer>
		<layer id="247" name="inpaint_net/b3conv15_upsample/b3conv15_upsample_conv/bias/read_compressed" type="Const" version="opset1">
			<data element_type="f16" shape="1, 32, 1, 1" offset="17154798" size="64" />
			<output>
				<port id="0" precision="FP16">
					<dim>1</dim>
					<dim>32</dim>
					<dim>1</dim>
					<dim>1</dim>
				</port>
			</output>
		</layer>
		<layer id="248" name="inpaint_net/b3conv15_upsample/b3conv15_upsample_conv/bias/read" type="Convert" version="opset1">
			<data destination_type="f32" />
			<rt_info>
				<attribute name="decompression" version="0" />
			</rt_info>
			<input>
				<port id="0" precision="FP16">
					<dim>1</dim>
					<dim>32</dim>
					<dim>1</dim>
					<dim>1</dim>
				</port>
			</input>
			<output>
				<port id="1" precision="FP32" names="inpaint_net/b3conv15_upsample/b3conv15_upsample_conv/bias/read:0">
					<dim>1</dim>
					<dim>32</dim>
					<dim>1</dim>
					<dim>1</dim>
				</port>
			</output>
		</layer>
		<layer id="249" name="inpaint_net/b3conv15_upsample/b3conv15_upsample_conv/BiasAdd/Add" type="Add" version="opset1">
			<data auto_broadcast="numpy" />
			<input>
				<port id="0" precision="FP32">
					<dim>1</dim>
					<dim>32</dim>
					<dim>512</dim>
					<dim>680</dim>
				</port>
				<port id="1" precision="FP32">
					<dim>1</dim>
					<dim>32</dim>
					<dim>1</dim>
					<dim>1</dim>
				</port>
			</input>
			<output>
				<port id="2" precision="FP32" names="inpaint_net/b3conv15_upsample/b3conv15_upsample_conv/BiasAdd:0">
					<dim>1</dim>
					<dim>32</dim>
					<dim>512</dim>
					<dim>680</dim>
				</port>
			</output>
		</layer>
		<layer id="250" name="inpaint_net/b3conv15_upsample/b3conv15_upsample_conv/Elu" type="Elu" version="opset1">
			<data alpha="1" />
			<input>
				<port id="0" precision="FP32">
					<dim>1</dim>
					<dim>32</dim>
					<dim>512</dim>
					<dim>680</dim>
				</port>
			</input>
			<output>
				<port id="1" precision="FP32" names="inpaint_net/b3conv15_upsample/b3conv15_upsample_conv/Elu:0">
					<dim>1</dim>
					<dim>32</dim>
					<dim>512</dim>
					<dim>680</dim>
				</port>
			</output>
		</layer>
		<layer id="251" name="inpaint_net/b3conv16/kernel/read_compressed" type="Const" version="opset1">
			<data element_type="f16" shape="16, 32, 3, 3" offset="17154862" size="9216" />
			<output>
				<port id="0" precision="FP16">
					<dim>16</dim>
					<dim>32</dim>
					<dim>3</dim>
					<dim>3</dim>
				</port>
			</output>
		</layer>
		<layer id="252" name="inpaint_net/b3conv16/kernel/read" type="Convert" version="opset1">
			<data destination_type="f32" />
			<rt_info>
				<attribute name="decompression" version="0" />
			</rt_info>
			<input>
				<port id="0" precision="FP16">
					<dim>16</dim>
					<dim>32</dim>
					<dim>3</dim>
					<dim>3</dim>
				</port>
			</input>
			<output>
				<port id="1" precision="FP32" names="inpaint_net/b3conv16/kernel/read:0">
					<dim>16</dim>
					<dim>32</dim>
					<dim>3</dim>
					<dim>3</dim>
				</port>
			</output>
		</layer>
		<layer id="253" name="inpaint_net/b3conv16/Conv2D" type="Convolution" version="opset1">
			<data strides="1, 1" dilations="1, 1" pads_begin="0, 0" pads_end="0, 0" auto_pad="same_upper" />
			<input>
				<port id="0" precision="FP32">
					<dim>1</dim>
					<dim>32</dim>
					<dim>512</dim>
					<dim>680</dim>
				</port>
				<port id="1" precision="FP32">
					<dim>16</dim>
					<dim>32</dim>
					<dim>3</dim>
					<dim>3</dim>
				</port>
			</input>
			<output>
				<port id="2" precision="FP32" names="inpaint_net/b3conv16/Conv2D:0">
					<dim>1</dim>
					<dim>16</dim>
					<dim>512</dim>
					<dim>680</dim>
				</port>
			</output>
		</layer>
		<layer id="254" name="inpaint_net/b3conv16/bias/read_compressed" type="Const" version="opset1">
			<data element_type="f16" shape="1, 16, 1, 1" offset="17164078" size="32" />
			<output>
				<port id="0" precision="FP16">
					<dim>1</dim>
					<dim>16</dim>
					<dim>1</dim>
					<dim>1</dim>
				</port>
			</output>
		</layer>
		<layer id="255" name="inpaint_net/b3conv16/bias/read" type="Convert" version="opset1">
			<data destination_type="f32" />
			<rt_info>
				<attribute name="decompression" version="0" />
			</rt_info>
			<input>
				<port id="0" precision="FP16">
					<dim>1</dim>
					<dim>16</dim>
					<dim>1</dim>
					<dim>1</dim>
				</port>
			</input>
			<output>
				<port id="1" precision="FP32" names="inpaint_net/b3conv16/bias/read:0">
					<dim>1</dim>
					<dim>16</dim>
					<dim>1</dim>
					<dim>1</dim>
				</port>
			</output>
		</layer>
		<layer id="256" name="inpaint_net/b3conv16/BiasAdd/Add" type="Add" version="opset1">
			<data auto_broadcast="numpy" />
			<input>
				<port id="0" precision="FP32">
					<dim>1</dim>
					<dim>16</dim>
					<dim>512</dim>
					<dim>680</dim>
				</port>
				<port id="1" precision="FP32">
					<dim>1</dim>
					<dim>16</dim>
					<dim>1</dim>
					<dim>1</dim>
				</port>
			</input>
			<output>
				<port id="2" precision="FP32" names="inpaint_net/b3conv16/BiasAdd:0">
					<dim>1</dim>
					<dim>16</dim>
					<dim>512</dim>
					<dim>680</dim>
				</port>
			</output>
		</layer>
		<layer id="257" name="inpaint_net/b3conv16/Elu" type="Elu" version="opset1">
			<data alpha="1" />
			<input>
				<port id="0" precision="FP32">
					<dim>1</dim>
					<dim>16</dim>
					<dim>512</dim>
					<dim>680</dim>
				</port>
			</input>
			<output>
				<port id="1" precision="FP32" names="inpaint_net/b3conv16/Elu:0">
					<dim>1</dim>
					<dim>16</dim>
					<dim>512</dim>
					<dim>680</dim>
				</port>
			</output>
		</layer>
		<layer id="258" name="inpaint_net/b3conv16/Elu/Shape10569" type="ShapeOf" version="opset3">
			<data output_type="i64" />
			<input>
				<port id="0" precision="FP32">
					<dim>1</dim>
					<dim>16</dim>
					<dim>512</dim>
					<dim>680</dim>
				</port>
			</input>
			<output>
				<port id="1" precision="I64">
					<dim>4</dim>
				</port>
			</output>
		</layer>
		<layer id="259" name="inpaint_net/b3conv16/Elu/Shape10569/Gathered_input_port_1/value1057314201" type="Const" version="opset1">
			<data element_type="i32" shape="2" offset="17164110" size="8" />
			<output>
				<port id="0" precision="I32">
					<dim>2</dim>
				</port>
			</output>
		</layer>
		<layer id="260" name="inpaint_net/b3conv16/Elu/Shape10569/Gathered_input_port_2/value1057514303" type="Const" version="opset1">
			<data element_type="i64" shape="" offset="54" size="8" />
			<output>
				<port id="0" precision="I64" />
			</output>
		</layer>
		<layer id="261" name="inpaint_net/b3conv16/Elu/Shape10569/Gathered" type="Gather" version="opset8">
			<data batch_dims="0" />
			<input>
				<port id="0" precision="I64">
					<dim>4</dim>
				</port>
				<port id="1" precision="I32">
					<dim>2</dim>
				</port>
				<port id="2" precision="I64" />
			</input>
			<output>
				<port id="3" precision="I64" names="inpaint_net/ResizeBilinear/size:0">
					<dim>2</dim>
				</port>
			</output>
		</layer>
		<layer id="262" name="457" type="Const" version="opset1">
			<data element_type="f32" shape="2" offset="17117926" size="8" />
			<output>
				<port id="0" precision="FP32">
					<dim>2</dim>
				</port>
			</output>
		</layer>
		<layer id="263" name="inpaint_net/ResizeBilinear/shapeof" type="ShapeOf" version="opset3">
			<data output_type="i64" />
			<input>
				<port id="0" precision="FP32">
					<dim>1</dim>
					<dim>128</dim>
					<dim>128</dim>
					<dim>170</dim>
				</port>
			</input>
			<output>
				<port id="1" precision="I64">
					<dim>4</dim>
				</port>
			</output>
		</layer>
		<layer id="264" name="inpaint_net/ResizeBilinear/shapeof/GatherNCHWtoNHWC_input_port_1/value954314156" type="Const" version="opset1">
			<data element_type="i32" shape="4" offset="38" size="16" />
			<output>
				<port id="0" precision="I32">
					<dim>4</dim>
				</port>
			</output>
		</layer>
		<layer id="265" name="inpaint_net/ResizeBilinear/shapeof/GatherNCHWtoNHWC_input_port_2/value954514282" type="Const" version="opset1">
			<data element_type="i64" shape="" offset="54" size="8" />
			<output>
				<port id="0" precision="I64" />
			</output>
		</layer>
		<layer id="266" name="inpaint_net/ResizeBilinear/shapeof/GatherNCHWtoNHWC" type="Gather" version="opset8">
			<data batch_dims="0" />
			<input>
				<port id="0" precision="I64">
					<dim>4</dim>
				</port>
				<port id="1" precision="I32">
					<dim>4</dim>
				</port>
				<port id="2" precision="I64" />
			</input>
			<output>
				<port id="3" precision="I64">
					<dim>4</dim>
				</port>
			</output>
		</layer>
		<layer id="267" name="inpaint_net/ResizeBilinear/StridedSlice_input_port_1/value" type="Const" version="opset1">
			<data element_type="i64" shape="1" offset="16896438" size="8" />
			<output>
				<port id="0" precision="I64">
					<dim>1</dim>
				</port>
			</output>
		</layer>
		<layer id="268" name="inpaint_net/ResizeBilinear/StridedSlice_input_port_2/value" type="Const" version="opset1">
			<data element_type="i64" shape="1" offset="16896446" size="8" />
			<output>
				<port id="0" precision="I64">
					<dim>1</dim>
				</port>
			</output>
		</layer>
		<layer id="269" name="inpaint_net/ResizeBilinear/StridedSlice_input_port_3/value" type="Const" version="opset1">
			<data element_type="i64" shape="1" offset="16896438" size="8" />
			<output>
				<port id="0" precision="I64">
					<dim>1</dim>
				</port>
			</output>
		</layer>
		<layer id="270" name="inpaint_net/ResizeBilinear/StridedSlice" type="StridedSlice" version="opset1">
			<data begin_mask="0" end_mask="0" new_axis_mask="0" shrink_axis_mask="0" ellipsis_mask="0" />
			<input>
				<port id="0" precision="I64">
					<dim>4</dim>
				</port>
				<port id="1" precision="I64">
					<dim>1</dim>
				</port>
				<port id="2" precision="I64">
					<dim>1</dim>
				</port>
				<port id="3" precision="I64">
					<dim>1</dim>
				</port>
			</input>
			<output>
				<port id="4" precision="I64">
					<dim>2</dim>
				</port>
			</output>
		</layer>
		<layer id="271" name="456" type="Convert" version="opset1">
			<data destination_type="f32" />
			<input>
				<port id="0" precision="I64">
					<dim>2</dim>
				</port>
			</input>
			<output>
				<port id="1" precision="FP32">
					<dim>2</dim>
				</port>
			</output>
		</layer>
		<layer id="272" name="inpaint_net/ResizeBilinear/Div" type="Divide" version="opset1">
			<data auto_broadcast="numpy" m_pythondiv="true" />
			<input>
				<port id="0" precision="FP32">
					<dim>2</dim>
				</port>
				<port id="1" precision="FP32">
					<dim>2</dim>
				</port>
			</input>
			<output>
				<port id="2" precision="FP32">
					<dim>2</dim>
				</port>
			</output>
		</layer>
		<layer id="273" name="992014018" type="Const" version="opset1">
			<data element_type="i64" shape="2" offset="16896454" size="16" />
			<output>
				<port id="0" precision="I64">
					<dim>2</dim>
				</port>
			</output>
		</layer>
		<layer id="274" name="inpaint_net/ResizeBilinear" type="Interpolate" version="opset4">
			<data mode="linear_onnx" shape_calculation_mode="sizes" coordinate_transformation_mode="align_corners" nearest_mode="round_prefer_floor" antialias="false" pads_begin="0, 0, 0, 0" pads_end="0, 0, 0, 0" cube_coeff="-0.75" />
			<input>
				<port id="0" precision="FP32">
					<dim>1</dim>
					<dim>128</dim>
					<dim>128</dim>
					<dim>170</dim>
				</port>
				<port id="1" precision="I64">
					<dim>2</dim>
				</port>
				<port id="2" precision="FP32">
					<dim>2</dim>
				</port>
				<port id="3" precision="I64">
					<dim>2</dim>
				</port>
			</input>
			<output>
				<port id="4" precision="FP32" names="inpaint_net/ResizeBilinear:0">
					<dim>1</dim>
					<dim>128</dim>
					<dim>512</dim>
					<dim>680</dim>
				</port>
			</output>
		</layer>
		<layer id="275" name="inpaint_net/b2conv1/kernel/read_compressed" type="Const" version="opset1">
			<data element_type="f16" shape="32, 5, 5, 5" offset="17164118" size="8000" />
			<output>
				<port id="0" precision="FP16">
					<dim>32</dim>
					<dim>5</dim>
					<dim>5</dim>
					<dim>5</dim>
				</port>
			</output>
		</layer>
		<layer id="276" name="inpaint_net/b2conv1/kernel/read" type="Convert" version="opset1">
			<data destination_type="f32" />
			<rt_info>
				<attribute name="decompression" version="0" />
			</rt_info>
			<input>
				<port id="0" precision="FP16">
					<dim>32</dim>
					<dim>5</dim>
					<dim>5</dim>
					<dim>5</dim>
				</port>
			</input>
			<output>
				<port id="1" precision="FP32" names="inpaint_net/b2conv1/kernel/read:0">
					<dim>32</dim>
					<dim>5</dim>
					<dim>5</dim>
					<dim>5</dim>
				</port>
			</output>
		</layer>
		<layer id="277" name="inpaint_net/b2conv1/Conv2D" type="Convolution" version="opset1">
			<data strides="1, 1" dilations="1, 1" pads_begin="0, 0" pads_end="0, 0" auto_pad="same_upper" />
			<input>
				<port id="0" precision="FP32">
					<dim>1</dim>
					<dim>5</dim>
					<dim>512</dim>
					<dim>680</dim>
				</port>
				<port id="1" precision="FP32">
					<dim>32</dim>
					<dim>5</dim>
					<dim>5</dim>
					<dim>5</dim>
				</port>
			</input>
			<output>
				<port id="2" precision="FP32" names="inpaint_net/b2conv1/Conv2D:0">
					<dim>1</dim>
					<dim>32</dim>
					<dim>512</dim>
					<dim>680</dim>
				</port>
			</output>
		</layer>
		<layer id="278" name="inpaint_net/b2conv1/bias/read_compressed" type="Const" version="opset1">
			<data element_type="f16" shape="1, 32, 1, 1" offset="17172118" size="64" />
			<output>
				<port id="0" precision="FP16">
					<dim>1</dim>
					<dim>32</dim>
					<dim>1</dim>
					<dim>1</dim>
				</port>
			</output>
		</layer>
		<layer id="279" name="inpaint_net/b2conv1/bias/read" type="Convert" version="opset1">
			<data destination_type="f32" />
			<rt_info>
				<attribute name="decompression" version="0" />
			</rt_info>
			<input>
				<port id="0" precision="FP16">
					<dim>1</dim>
					<dim>32</dim>
					<dim>1</dim>
					<dim>1</dim>
				</port>
			</input>
			<output>
				<port id="1" precision="FP32" names="inpaint_net/b2conv1/bias/read:0">
					<dim>1</dim>
					<dim>32</dim>
					<dim>1</dim>
					<dim>1</dim>
				</port>
			</output>
		</layer>
		<layer id="280" name="inpaint_net/b2conv1/BiasAdd/Add" type="Add" version="opset1">
			<data auto_broadcast="numpy" />
			<input>
				<port id="0" precision="FP32">
					<dim>1</dim>
					<dim>32</dim>
					<dim>512</dim>
					<dim>680</dim>
				</port>
				<port id="1" precision="FP32">
					<dim>1</dim>
					<dim>32</dim>
					<dim>1</dim>
					<dim>1</dim>
				</port>
			</input>
			<output>
				<port id="2" precision="FP32" names="inpaint_net/b2conv1/BiasAdd:0">
					<dim>1</dim>
					<dim>32</dim>
					<dim>512</dim>
					<dim>680</dim>
				</port>
			</output>
		</layer>
		<layer id="281" name="inpaint_net/b2conv1/Elu" type="Elu" version="opset1">
			<data alpha="1" />
			<input>
				<port id="0" precision="FP32">
					<dim>1</dim>
					<dim>32</dim>
					<dim>512</dim>
					<dim>680</dim>
				</port>
			</input>
			<output>
				<port id="1" precision="FP32" names="inpaint_net/b2conv1/Elu:0">
					<dim>1</dim>
					<dim>32</dim>
					<dim>512</dim>
					<dim>680</dim>
				</port>
			</output>
		</layer>
		<layer id="282" name="inpaint_net/b2conv2_downsample/kernel/read_compressed" type="Const" version="opset1">
			<data element_type="f16" shape="64, 32, 5, 5" offset="17172182" size="102400" />
			<output>
				<port id="0" precision="FP16">
					<dim>64</dim>
					<dim>32</dim>
					<dim>5</dim>
					<dim>5</dim>
				</port>
			</output>
		</layer>
		<layer id="283" name="inpaint_net/b2conv2_downsample/kernel/read" type="Convert" version="opset1">
			<data destination_type="f32" />
			<rt_info>
				<attribute name="decompression" version="0" />
			</rt_info>
			<input>
				<port id="0" precision="FP16">
					<dim>64</dim>
					<dim>32</dim>
					<dim>5</dim>
					<dim>5</dim>
				</port>
			</input>
			<output>
				<port id="1" precision="FP32" names="inpaint_net/b2conv2_downsample/kernel/read:0">
					<dim>64</dim>
					<dim>32</dim>
					<dim>5</dim>
					<dim>5</dim>
				</port>
			</output>
		</layer>
		<layer id="284" name="inpaint_net/b2conv2_downsample/Conv2D" type="Convolution" version="opset1">
			<data strides="2, 2" dilations="1, 1" pads_begin="0, 0" pads_end="0, 0" auto_pad="same_upper" />
			<input>
				<port id="0" precision="FP32">
					<dim>1</dim>
					<dim>32</dim>
					<dim>512</dim>
					<dim>680</dim>
				</port>
				<port id="1" precision="FP32">
					<dim>64</dim>
					<dim>32</dim>
					<dim>5</dim>
					<dim>5</dim>
				</port>
			</input>
			<output>
				<port id="2" precision="FP32" names="inpaint_net/b2conv2_downsample/Conv2D:0">
					<dim>1</dim>
					<dim>64</dim>
					<dim>256</dim>
					<dim>340</dim>
				</port>
			</output>
		</layer>
		<layer id="285" name="inpaint_net/b2conv2_downsample/bias/read_compressed" type="Const" version="opset1">
			<data element_type="f16" shape="1, 64, 1, 1" offset="17274582" size="128" />
			<output>
				<port id="0" precision="FP16">
					<dim>1</dim>
					<dim>64</dim>
					<dim>1</dim>
					<dim>1</dim>
				</port>
			</output>
		</layer>
		<layer id="286" name="inpaint_net/b2conv2_downsample/bias/read" type="Convert" version="opset1">
			<data destination_type="f32" />
			<rt_info>
				<attribute name="decompression" version="0" />
			</rt_info>
			<input>
				<port id="0" precision="FP16">
					<dim>1</dim>
					<dim>64</dim>
					<dim>1</dim>
					<dim>1</dim>
				</port>
			</input>
			<output>
				<port id="1" precision="FP32" names="inpaint_net/b2conv2_downsample/bias/read:0">
					<dim>1</dim>
					<dim>64</dim>
					<dim>1</dim>
					<dim>1</dim>
				</port>
			</output>
		</layer>
		<layer id="287" name="inpaint_net/b2conv2_downsample/BiasAdd/Add" type="Add" version="opset1">
			<data auto_broadcast="numpy" />
			<input>
				<port id="0" precision="FP32">
					<dim>1</dim>
					<dim>64</dim>
					<dim>256</dim>
					<dim>340</dim>
				</port>
				<port id="1" precision="FP32">
					<dim>1</dim>
					<dim>64</dim>
					<dim>1</dim>
					<dim>1</dim>
				</port>
			</input>
			<output>
				<port id="2" precision="FP32" names="inpaint_net/b2conv2_downsample/BiasAdd:0">
					<dim>1</dim>
					<dim>64</dim>
					<dim>256</dim>
					<dim>340</dim>
				</port>
			</output>
		</layer>
		<layer id="288" name="inpaint_net/b2conv2_downsample/Elu" type="Elu" version="opset1">
			<data alpha="1" />
			<input>
				<port id="0" precision="FP32">
					<dim>1</dim>
					<dim>64</dim>
					<dim>256</dim>
					<dim>340</dim>
				</port>
			</input>
			<output>
				<port id="1" precision="FP32" names="inpaint_net/b2conv2_downsample/Elu:0">
					<dim>1</dim>
					<dim>64</dim>
					<dim>256</dim>
					<dim>340</dim>
				</port>
			</output>
		</layer>
		<layer id="289" name="inpaint_net/b2conv3/kernel/read_compressed" type="Const" version="opset1">
			<data element_type="f16" shape="64, 64, 5, 5" offset="17274710" size="204800" />
			<output>
				<port id="0" precision="FP16">
					<dim>64</dim>
					<dim>64</dim>
					<dim>5</dim>
					<dim>5</dim>
				</port>
			</output>
		</layer>
		<layer id="290" name="inpaint_net/b2conv3/kernel/read" type="Convert" version="opset1">
			<data destination_type="f32" />
			<rt_info>
				<attribute name="decompression" version="0" />
			</rt_info>
			<input>
				<port id="0" precision="FP16">
					<dim>64</dim>
					<dim>64</dim>
					<dim>5</dim>
					<dim>5</dim>
				</port>
			</input>
			<output>
				<port id="1" precision="FP32" names="inpaint_net/b2conv3/kernel/read:0">
					<dim>64</dim>
					<dim>64</dim>
					<dim>5</dim>
					<dim>5</dim>
				</port>
			</output>
		</layer>
		<layer id="291" name="inpaint_net/b2conv3/Conv2D" type="Convolution" version="opset1">
			<data strides="1, 1" dilations="1, 1" pads_begin="0, 0" pads_end="0, 0" auto_pad="same_upper" />
			<input>
				<port id="0" precision="FP32">
					<dim>1</dim>
					<dim>64</dim>
					<dim>256</dim>
					<dim>340</dim>
				</port>
				<port id="1" precision="FP32">
					<dim>64</dim>
					<dim>64</dim>
					<dim>5</dim>
					<dim>5</dim>
				</port>
			</input>
			<output>
				<port id="2" precision="FP32" names="inpaint_net/b2conv3/Conv2D:0">
					<dim>1</dim>
					<dim>64</dim>
					<dim>256</dim>
					<dim>340</dim>
				</port>
			</output>
		</layer>
		<layer id="292" name="inpaint_net/b2conv3/bias/read_compressed" type="Const" version="opset1">
			<data element_type="f16" shape="1, 64, 1, 1" offset="17479510" size="128" />
			<output>
				<port id="0" precision="FP16">
					<dim>1</dim>
					<dim>64</dim>
					<dim>1</dim>
					<dim>1</dim>
				</port>
			</output>
		</layer>
		<layer id="293" name="inpaint_net/b2conv3/bias/read" type="Convert" version="opset1">
			<data destination_type="f32" />
			<rt_info>
				<attribute name="decompression" version="0" />
			</rt_info>
			<input>
				<port id="0" precision="FP16">
					<dim>1</dim>
					<dim>64</dim>
					<dim>1</dim>
					<dim>1</dim>
				</port>
			</input>
			<output>
				<port id="1" precision="FP32" names="inpaint_net/b2conv3/bias/read:0">
					<dim>1</dim>
					<dim>64</dim>
					<dim>1</dim>
					<dim>1</dim>
				</port>
			</output>
		</layer>
		<layer id="294" name="inpaint_net/b2conv3/BiasAdd/Add" type="Add" version="opset1">
			<data auto_broadcast="numpy" />
			<input>
				<port id="0" precision="FP32">
					<dim>1</dim>
					<dim>64</dim>
					<dim>256</dim>
					<dim>340</dim>
				</port>
				<port id="1" precision="FP32">
					<dim>1</dim>
					<dim>64</dim>
					<dim>1</dim>
					<dim>1</dim>
				</port>
			</input>
			<output>
				<port id="2" precision="FP32" names="inpaint_net/b2conv3/BiasAdd:0">
					<dim>1</dim>
					<dim>64</dim>
					<dim>256</dim>
					<dim>340</dim>
				</port>
			</output>
		</layer>
		<layer id="295" name="inpaint_net/b2conv3/Elu" type="Elu" version="opset1">
			<data alpha="1" />
			<input>
				<port id="0" precision="FP32">
					<dim>1</dim>
					<dim>64</dim>
					<dim>256</dim>
					<dim>340</dim>
				</port>
			</input>
			<output>
				<port id="1" precision="FP32" names="inpaint_net/b2conv3/Elu:0">
					<dim>1</dim>
					<dim>64</dim>
					<dim>256</dim>
					<dim>340</dim>
				</port>
			</output>
		</layer>
		<layer id="296" name="inpaint_net/b2conv4_downsample/kernel/read_compressed" type="Const" version="opset1">
			<data element_type="f16" shape="128, 64, 5, 5" offset="17479638" size="409600" />
			<output>
				<port id="0" precision="FP16">
					<dim>128</dim>
					<dim>64</dim>
					<dim>5</dim>
					<dim>5</dim>
				</port>
			</output>
		</layer>
		<layer id="297" name="inpaint_net/b2conv4_downsample/kernel/read" type="Convert" version="opset1">
			<data destination_type="f32" />
			<rt_info>
				<attribute name="decompression" version="0" />
			</rt_info>
			<input>
				<port id="0" precision="FP16">
					<dim>128</dim>
					<dim>64</dim>
					<dim>5</dim>
					<dim>5</dim>
				</port>
			</input>
			<output>
				<port id="1" precision="FP32" names="inpaint_net/b2conv4_downsample/kernel/read:0">
					<dim>128</dim>
					<dim>64</dim>
					<dim>5</dim>
					<dim>5</dim>
				</port>
			</output>
		</layer>
		<layer id="298" name="inpaint_net/b2conv4_downsample/Conv2D" type="Convolution" version="opset1">
			<data strides="2, 2" dilations="1, 1" pads_begin="0, 0" pads_end="0, 0" auto_pad="same_upper" />
			<input>
				<port id="0" precision="FP32">
					<dim>1</dim>
					<dim>64</dim>
					<dim>256</dim>
					<dim>340</dim>
				</port>
				<port id="1" precision="FP32">
					<dim>128</dim>
					<dim>64</dim>
					<dim>5</dim>
					<dim>5</dim>
				</port>
			</input>
			<output>
				<port id="2" precision="FP32" names="inpaint_net/b2conv4_downsample/Conv2D:0">
					<dim>1</dim>
					<dim>128</dim>
					<dim>128</dim>
					<dim>170</dim>
				</port>
			</output>
		</layer>
		<layer id="299" name="inpaint_net/b2conv4_downsample/bias/read_compressed" type="Const" version="opset1">
			<data element_type="f16" shape="1, 128, 1, 1" offset="17889238" size="256" />
			<output>
				<port id="0" precision="FP16">
					<dim>1</dim>
					<dim>128</dim>
					<dim>1</dim>
					<dim>1</dim>
				</port>
			</output>
		</layer>
		<layer id="300" name="inpaint_net/b2conv4_downsample/bias/read" type="Convert" version="opset1">
			<data destination_type="f32" />
			<rt_info>
				<attribute name="decompression" version="0" />
			</rt_info>
			<input>
				<port id="0" precision="FP16">
					<dim>1</dim>
					<dim>128</dim>
					<dim>1</dim>
					<dim>1</dim>
				</port>
			</input>
			<output>
				<port id="1" precision="FP32" names="inpaint_net/b2conv4_downsample/bias/read:0">
					<dim>1</dim>
					<dim>128</dim>
					<dim>1</dim>
					<dim>1</dim>
				</port>
			</output>
		</layer>
		<layer id="301" name="inpaint_net/b2conv4_downsample/BiasAdd/Add" type="Add" version="opset1">
			<data auto_broadcast="numpy" />
			<input>
				<port id="0" precision="FP32">
					<dim>1</dim>
					<dim>128</dim>
					<dim>128</dim>
					<dim>170</dim>
				</port>
				<port id="1" precision="FP32">
					<dim>1</dim>
					<dim>128</dim>
					<dim>1</dim>
					<dim>1</dim>
				</port>
			</input>
			<output>
				<port id="2" precision="FP32" names="inpaint_net/b2conv4_downsample/BiasAdd:0">
					<dim>1</dim>
					<dim>128</dim>
					<dim>128</dim>
					<dim>170</dim>
				</port>
			</output>
		</layer>
		<layer id="302" name="inpaint_net/b2conv4_downsample/Elu" type="Elu" version="opset1">
			<data alpha="1" />
			<input>
				<port id="0" precision="FP32">
					<dim>1</dim>
					<dim>128</dim>
					<dim>128</dim>
					<dim>170</dim>
				</port>
			</input>
			<output>
				<port id="1" precision="FP32" names="inpaint_net/b2conv4_downsample/Elu:0">
					<dim>1</dim>
					<dim>128</dim>
					<dim>128</dim>
					<dim>170</dim>
				</port>
			</output>
		</layer>
		<layer id="303" name="inpaint_net/b2conv5/kernel/read_compressed" type="Const" version="opset1">
			<data element_type="f16" shape="128, 128, 5, 5" offset="17889494" size="819200" />
			<output>
				<port id="0" precision="FP16">
					<dim>128</dim>
					<dim>128</dim>
					<dim>5</dim>
					<dim>5</dim>
				</port>
			</output>
		</layer>
		<layer id="304" name="inpaint_net/b2conv5/kernel/read" type="Convert" version="opset1">
			<data destination_type="f32" />
			<rt_info>
				<attribute name="decompression" version="0" />
			</rt_info>
			<input>
				<port id="0" precision="FP16">
					<dim>128</dim>
					<dim>128</dim>
					<dim>5</dim>
					<dim>5</dim>
				</port>
			</input>
			<output>
				<port id="1" precision="FP32" names="inpaint_net/b2conv5/kernel/read:0">
					<dim>128</dim>
					<dim>128</dim>
					<dim>5</dim>
					<dim>5</dim>
				</port>
			</output>
		</layer>
		<layer id="305" name="inpaint_net/b2conv5/Conv2D" type="Convolution" version="opset1">
			<data strides="1, 1" dilations="1, 1" pads_begin="0, 0" pads_end="0, 0" auto_pad="same_upper" />
			<input>
				<port id="0" precision="FP32">
					<dim>1</dim>
					<dim>128</dim>
					<dim>128</dim>
					<dim>170</dim>
				</port>
				<port id="1" precision="FP32">
…
			<data element_type="i64" shape="1" offset="16896446" size="8" />
			<output>
				<port id="0" precision="I64">
					<dim>1</dim>
				</port>
			</output>
		</layer>
		<layer id="397" name="inpaint_net/ResizeBilinear_1/StridedSlice_input_port_3/value" type="Const" version="opset1">
			<data element_type="i64" shape="1" offset="16896438" size="8" />
			<output>
				<port id="0" precision="I64">
					<dim>1</dim>
				</port>
			</output>
		</layer>
		<layer id="398" name="inpaint_net/ResizeBilinear_1/StridedSlice" type="StridedSlice" version="opset1">
			<data begin_mask="0" end_mask="0" new_axis_mask="0" shrink_axis_mask="0" ellipsis_mask="0" />
			<input>
				<port id="0" precision="I64">
					<dim>4</dim>
				</port>
				<port id="1" precision="I64">
					<dim>1</dim>
				</port>
				<port id="2" precision="I64">
					<dim>1</dim>
				</port>
				<port id="3" precision="I64">
					<dim>1</dim>
				</port>
			</input>
			<output>
				<port id="4" precision="I64">
					<dim>2</dim>
				</port>
			</output>
		</layer>
		<layer id="399" name="446" type="Convert" version="opset1">
			<data destination_type="f32" />
			<input>
				<port id="0" precision="I64">
					<dim>2</dim>
				</port>
			</input>
			<output>
				<port id="1" precision="FP32">
					<dim>2</dim>
				</port>
			</output>
		</layer>
		<layer id="400" name="inpaint_net/ResizeBilinear_1/Div" type="Divide" version="opset1">
			<data auto_broadcast="numpy" m_pythondiv="true" />
			<input>
				<port id="0" precision="FP32">
					<dim>2</dim>
				</port>
				<port id="1" precision="FP32">
					<dim>2</dim>
				</port>
			</input>
			<output>
				<port id="2" precision="FP32">
					<dim>2</dim>
				</port>
			</output>
		</layer>
		<layer id="401" name="991414090" type="Const" version="opset1">
			<data element_type="i64" shape="2" offset="16896454" size="16" />
			<output>
				<port id="0" precision="I64">
					<dim>2</dim>
				</port>
			</output>
		</layer>
		<layer id="402" name="inpaint_net/ResizeBilinear_1" type="Interpolate" version="opset4">
			<data mode="linear_onnx" shape_calculation_mode="sizes" coordinate_transformation_mode="align_corners" nearest_mode="round_prefer_floor" antialias="false" pads_begin="0, 0, 0, 0" pads_end="0, 0, 0, 0" cube_coeff="-0.75" />
			<input>
				<port id="0" precision="FP32">
					<dim>1</dim>
					<dim>64</dim>
					<dim>256</dim>
					<dim>340</dim>
				</port>
				<port id="1" precision="I64">
					<dim>2</dim>
				</port>
				<port id="2" precision="FP32">
					<dim>2</dim>
				</port>
				<port id="3" precision="I64">
					<dim>2</dim>
				</port>
			</input>
			<output>
				<port id="4" precision="FP32" names="inpaint_net/ResizeBilinear_1:0">
					<dim>1</dim>
					<dim>64</dim>
					<dim>512</dim>
					<dim>680</dim>
				</port>
			</output>
		</layer>
		<layer id="403" name="inpaint_net/concat" type="Concat" version="opset1">
			<data axis="1" />
			<input>
				<port id="0" precision="FP32">
					<dim>1</dim>
					<dim>128</dim>
					<dim>512</dim>
					<dim>680</dim>
				</port>
				<port id="1" precision="FP32">
					<dim>1</dim>
					<dim>64</dim>
					<dim>512</dim>
					<dim>680</dim>
				</port>
				<port id="2" precision="FP32">
					<dim>1</dim>
					<dim>16</dim>
					<dim>512</dim>
					<dim>680</dim>
				</port>
			</input>
			<output>
				<port id="3" precision="FP32" names="inpaint_net/concat:0">
					<dim>1</dim>
					<dim>208</dim>
					<dim>512</dim>
					<dim>680</dim>
				</port>
			</output>
		</layer>
		<layer id="404" name="inpaint_net/mergeconv17/kernel/read_compressed" type="Const" version="opset1">
			<data element_type="f16" shape="16, 208, 3, 3" offset="24797654" size="59904" />
			<output>
				<port id="0" precision="FP16">
					<dim>16</dim>
					<dim>208</dim>
					<dim>3</dim>
					<dim>3</dim>
				</port>
			</output>
		</layer>
		<layer id="405" name="inpaint_net/mergeconv17/kernel/read" type="Convert" version="opset1">
			<data destination_type="f32" />
			<rt_info>
				<attribute name="decompression" version="0" />
			</rt_info>
			<input>
				<port id="0" precision="FP16">
					<dim>16</dim>
					<dim>208</dim>
					<dim>3</dim>
					<dim>3</dim>
				</port>
			</input>
			<output>
				<port id="1" precision="FP32" names="inpaint_net/mergeconv17/kernel/read:0">
					<dim>16</dim>
					<dim>208</dim>
					<dim>3</dim>
					<dim>3</dim>
				</port>
			</output>
		</layer>
		<layer id="406" name="inpaint_net/mergeconv17/Conv2D" type="Convolution" version="opset1">
			<data strides="1, 1" dilations="1, 1" pads_begin="0, 0" pads_end="0, 0" auto_pad="same_upper" />
			<input>
				<port id="0" precision="FP32">
					<dim>1</dim>
					<dim>208</dim>
					<dim>512</dim>
					<dim>680</dim>
				</port>
				<port id="1" precision="FP32">
					<dim>16</dim>
					<dim>208</dim>
					<dim>3</dim>
					<dim>3</dim>
				</port>
			</input>
			<output>
				<port id="2" precision="FP32" names="inpaint_net/mergeconv17/Conv2D:0">
					<dim>1</dim>
					<dim>16</dim>
					<dim>512</dim>
					<dim>680</dim>
				</port>
			</output>
		</layer>
		<layer id="407" name="inpaint_net/mergeconv17/bias/read_compressed" type="Const" version="opset1">
			<data element_type="f16" shape="1, 16, 1, 1" offset="24857558" size="32" />
			<output>
				<port id="0" precision="FP16">
					<dim>1</dim>
					<dim>16</dim>
					<dim>1</dim>
					<dim>1</dim>
				</port>
			</output>
		</layer>
		<layer id="408" name="inpaint_net/mergeconv17/bias/read" type="Convert" version="opset1">
			<data destination_type="f32" />
			<rt_info>
				<attribute name="decompression" version="0" />
			</rt_info>
			<input>
				<port id="0" precision="FP16">
					<dim>1</dim>
					<dim>16</dim>
					<dim>1</dim>
					<dim>1</dim>
				</port>
			</input>
			<output>
				<port id="1" precision="FP32" names="inpaint_net/mergeconv17/bias/read:0">
					<dim>1</dim>
					<dim>16</dim>
					<dim>1</dim>
					<dim>1</dim>
				</port>
			</output>
		</layer>
		<layer id="409" name="inpaint_net/mergeconv17/BiasAdd/Add" type="Add" version="opset1">
			<data auto_broadcast="numpy" />
			<input>
				<port id="0" precision="FP32">
					<dim>1</dim>
					<dim>16</dim>
					<dim>512</dim>
					<dim>680</dim>
				</port>
				<port id="1" precision="FP32">
					<dim>1</dim>
					<dim>16</dim>
					<dim>1</dim>
					<dim>1</dim>
				</port>
			</input>
			<output>
				<port id="2" precision="FP32" names="inpaint_net/mergeconv17/BiasAdd:0">
					<dim>1</dim>
					<dim>16</dim>
					<dim>512</dim>
					<dim>680</dim>
				</port>
			</output>
		</layer>
		<layer id="410" name="inpaint_net/mergeconv17/Elu" type="Elu" version="opset1">
			<data alpha="1" />
			<input>
				<port id="0" precision="FP32">
					<dim>1</dim>
					<dim>16</dim>
					<dim>512</dim>
					<dim>680</dim>
				</port>
			</input>
			<output>
				<port id="1" precision="FP32" names="inpaint_net/mergeconv17/Elu:0">
					<dim>1</dim>
					<dim>16</dim>
					<dim>512</dim>
					<dim>680</dim>
				</port>
			</output>
		</layer>
		<layer id="411" name="inpaint_net/mergeconv18/kernel/read_compressed" type="Const" version="opset1">
			<data element_type="f16" shape="3, 16, 3, 3" offset="24857590" size="864" />
			<output>
				<port id="0" precision="FP16">
					<dim>3</dim>
					<dim>16</dim>
					<dim>3</dim>
					<dim>3</dim>
				</port>
			</output>
		</layer>
		<layer id="412" name="inpaint_net/mergeconv18/kernel/read" type="Convert" version="opset1">
			<data destination_type="f32" />
			<rt_info>
				<attribute name="decompression" version="0" />
			</rt_info>
			<input>
				<port id="0" precision="FP16">
					<dim>3</dim>
					<dim>16</dim>
					<dim>3</dim>
					<dim>3</dim>
				</port>
			</input>
			<output>
				<port id="1" precision="FP32" names="inpaint_net/mergeconv18/kernel/read:0">
					<dim>3</dim>
					<dim>16</dim>
					<dim>3</dim>
					<dim>3</dim>
				</port>
			</output>
		</layer>
		<layer id="413" name="inpaint_net/mergeconv18/Conv2D" type="Convolution" version="opset1">
			<data strides="1, 1" dilations="1, 1" pads_begin="0, 0" pads_end="0, 0" auto_pad="same_upper" />
			<input>
				<port id="0" precision="FP32">
					<dim>1</dim>
					<dim>16</dim>
					<dim>512</dim>
					<dim>680</dim>
				</port>
				<port id="1" precision="FP32">
					<dim>3</dim>
					<dim>16</dim>
					<dim>3</dim>
					<dim>3</dim>
				</port>
			</input>
			<output>
				<port id="2" precision="FP32" names="inpaint_net/mergeconv18/Conv2D:0">
					<dim>1</dim>
					<dim>3</dim>
					<dim>512</dim>
					<dim>680</dim>
				</port>
			</output>
		</layer>
		<layer id="414" name="inpaint_net/mergeconv18/bias/read_compressed" type="Const" version="opset1">
			<data element_type="f16" shape="1, 3, 1, 1" offset="24858454" size="6" />
			<output>
				<port id="0" precision="FP16">
					<dim>1</dim>
					<dim>3</dim>
					<dim>1</dim>
					<dim>1</dim>
				</port>
			</output>
		</layer>
		<layer id="415" name="inpaint_net/mergeconv18/bias/read" type="Convert" version="opset1">
			<data destination_type="f32" />
			<rt_info>
				<attribute name="decompression" version="0" />
			</rt_info>
			<input>
				<port id="0" precision="FP16">
					<dim>1</dim>
					<dim>3</dim>
					<dim>1</dim>
					<dim>1</dim>
				</port>
			</input>
			<output>
				<port id="1" precision="FP32" names="inpaint_net/mergeconv18/bias/read:0">
					<dim>1</dim>
					<dim>3</dim>
					<dim>1</dim>
					<dim>1</dim>
				</port>
			</output>
		</layer>
		<layer id="416" name="inpaint_net/mergeconv18/BiasAdd/Add" type="Add" version="opset1">
			<data auto_broadcast="numpy" />
			<input>
				<port id="0" precision="FP32">
					<dim>1</dim>
					<dim>3</dim>
					<dim>512</dim>
					<dim>680</dim>
				</port>
				<port id="1" precision="FP32">
					<dim>1</dim>
					<dim>3</dim>
					<dim>1</dim>
					<dim>1</dim>
				</port>
			</input>
			<output>
				<port id="2" precision="FP32" names="inpaint_net/mergeconv18/BiasAdd:0">
					<dim>1</dim>
					<dim>3</dim>
					<dim>512</dim>
					<dim>680</dim>
				</port>
			</output>
		</layer>
		<layer id="417" name="inpaint_net/clip_by_value" type="Clamp" version="opset1">
			<data min="-1" max="1" />
			<input>
				<port id="0" precision="FP32">
					<dim>1</dim>
					<dim>3</dim>
					<dim>512</dim>
					<dim>680</dim>
				</port>
			</input>
			<output>
				<port id="1" precision="FP32" names="inpaint_net/clip_by_value:0">
					<dim>1</dim>
					<dim>3</dim>
					<dim>512</dim>
					<dim>680</dim>
				</port>
			</output>
		</layer>
		<layer id="418" name="mul_2" type="Multiply" version="opset1">
			<data auto_broadcast="numpy" />
			<input>
				<port id="0" precision="FP32">
					<dim>1</dim>
					<dim>3</dim>
					<dim>512</dim>
					<dim>680</dim>
				</port>
				<port id="1" precision="FP32">
					<dim>1</dim>
					<dim>1</dim>
					<dim>512</dim>
					<dim>680</dim>
				</port>
			</input>
			<output>
				<port id="2" precision="FP32" names="mul_2:0">
					<dim>1</dim>
					<dim>3</dim>
					<dim>512</dim>
					<dim>680</dim>
				</port>
			</output>
		</layer>
		<layer id="419" name="sub_2/x_compressed" type="Const" version="opset1">
			<data element_type="f16" shape="1, 1, 1, 1" offset="36" size="2" />
			<output>
				<port id="0" precision="FP16">
					<dim>1</dim>
					<dim>1</dim>
					<dim>1</dim>
					<dim>1</dim>
				</port>
			</output>
		</layer>
		<layer id="420" name="sub_2/x" type="Convert" version="opset1">
			<data destination_type="f32" />
			<rt_info>
				<attribute name="decompression" version="0" />
			</rt_info>
			<input>
				<port id="0" precision="FP16">
					<dim>1</dim>
					<dim>1</dim>
					<dim>1</dim>
					<dim>1</dim>
				</port>
			</input>
			<output>
				<port id="1" precision="FP32" names="sub_2/x:0">
					<dim>1</dim>
					<dim>1</dim>
					<dim>1</dim>
					<dim>1</dim>
				</port>
			</output>
		</layer>
		<layer id="421" name="sub_2" type="Subtract" version="opset1">
			<data auto_broadcast="numpy" />
			<input>
				<port id="0" precision="FP32">
					<dim>1</dim>
					<dim>1</dim>
					<dim>1</dim>
					<dim>1</dim>
				</port>
				<port id="1" precision="FP32">
					<dim>1</dim>
					<dim>1</dim>
					<dim>512</dim>
					<dim>680</dim>
				</port>
			</input>
			<output>
				<port id="2" precision="FP32" names="sub_2:0">
					<dim>1</dim>
					<dim>1</dim>
					<dim>512</dim>
					<dim>680</dim>
				</port>
			</output>
		</layer>
		<layer id="422" name="mul_3" type="Multiply" version="opset1">
			<data auto_broadcast="numpy" />
			<input>
				<port id="0" precision="FP32">
					<dim>1</dim>
					<dim>3</dim>
					<dim>512</dim>
					<dim>680</dim>
				</port>
				<port id="1" precision="FP32">
					<dim>1</dim>
					<dim>1</dim>
					<dim>512</dim>
					<dim>680</dim>
				</port>
			</input>
			<output>
				<port id="2" precision="FP32" names="mul_3:0">
					<dim>1</dim>
					<dim>3</dim>
					<dim>512</dim>
					<dim>680</dim>
				</port>
			</output>
		</layer>
		<layer id="423" name="add" type="Add" version="opset1">
			<data auto_broadcast="numpy" />
			<input>
				<port id="0" precision="FP32">
					<dim>1</dim>
					<dim>3</dim>
					<dim>512</dim>
					<dim>680</dim>
				</port>
				<port id="1" precision="FP32">
					<dim>1</dim>
					<dim>3</dim>
					<dim>512</dim>
					<dim>680</dim>
				</port>
			</input>
			<output>
				<port id="2" precision="FP32" names="add:0">
					<dim>1</dim>
					<dim>3</dim>
					<dim>512</dim>
					<dim>680</dim>
				</port>
			</output>
		</layer>
		<layer id="424" name="data_mul_7553_compressed" type="Const" version="opset1">
			<data element_type="f16" shape="1, 1, 1, 1" offset="24858460" size="2" />
			<output>
				<port id="0" precision="FP16">
					<dim>1</dim>
					<dim>1</dim>
					<dim>1</dim>
					<dim>1</dim>
				</port>
			</output>
		</layer>
		<layer id="425" name="data_mul_7553" type="Convert" version="opset1">
			<data destination_type="f32" />
			<rt_info>
				<attribute name="decompression" version="0" />
			</rt_info>
			<input>
				<port id="0" precision="FP16">
					<dim>1</dim>
					<dim>1</dim>
					<dim>1</dim>
					<dim>1</dim>
				</port>
			</input>
			<output>
				<port id="1" precision="FP32">
					<dim>1</dim>
					<dim>1</dim>
					<dim>1</dim>
					<dim>1</dim>
				</port>
			</output>
		</layer>
		<layer id="426" name="mul_4/Fused_Mul_" type="Multiply" version="opset1">
			<data auto_broadcast="numpy" />
			<input>
				<port id="0" precision="FP32">
					<dim>1</dim>
					<dim>3</dim>
					<dim>512</dim>
					<dim>680</dim>
				</port>
				<port id="1" precision="FP32">
					<dim>1</dim>
					<dim>1</dim>
					<dim>1</dim>
					<dim>1</dim>
				</port>
			</input>
			<output>
				<port id="2" precision="FP32">
					<dim>1</dim>
					<dim>3</dim>
					<dim>512</dim>
					<dim>680</dim>
				</port>
			</output>
		</layer>
		<layer id="427" name="data_add_7555_compressed" type="Const" version="opset1">
			<data element_type="f16" shape="1, 1, 1, 1" offset="24858460" size="2" />
			<output>
				<port id="0" precision="FP16">
					<dim>1</dim>
					<dim>1</dim>
					<dim>1</dim>
					<dim>1</dim>
				</port>
			</output>
		</layer>
		<layer id="428" name="data_add_7555" type="Convert" version="opset1">
			<data destination_type="f32" />
			<rt_info>
				<attribute name="decompression" version="0" />
			</rt_info>
			<input>
				<port id="0" precision="FP16">
					<dim>1</dim>
					<dim>1</dim>
					<dim>1</dim>
					<dim>1</dim>
				</port>
			</input>
			<output>
				<port id="1" precision="FP32">
					<dim>1</dim>
					<dim>1</dim>
					<dim>1</dim>
					<dim>1</dim>
				</port>
			</output>
		</layer>
		<layer id="429" name="add_1/Fused_Add_" type="Add" version="opset1">
			<data auto_broadcast="numpy" />
			<input>
				<port id="0" precision="FP32">
					<dim>1</dim>
					<dim>3</dim>
					<dim>512</dim>
					<dim>680</dim>
				</port>
				<port id="1" precision="FP32">
					<dim>1</dim>
					<dim>1</dim>
					<dim>1</dim>
					<dim>1</dim>
				</port>
			</input>
			<output>
				<port id="2" precision="FP32" names="mul_4:0">
					<dim>1</dim>
					<dim>3</dim>
					<dim>512</dim>
					<dim>680</dim>
				</port>
			</output>
		</layer>
		<layer id="430" name="Minimum/prev" type="Clamp" version="opset1">
			<data min="0" max="255" />
			<input>
				<port id="0" precision="FP32">
					<dim>1</dim>
					<dim>3</dim>
					<dim>512</dim>
					<dim>680</dim>
				</port>
			</input>
			<output>
				<port id="1" precision="FP32">
					<dim>1</dim>
					<dim>3</dim>
					<dim>512</dim>
					<dim>680</dim>
				</port>
			</output>
		</layer>
		<layer id="431" name="9723/value972514030" type="Const" version="opset1">
			<data element_type="i64" shape="4" offset="24858462" size="32" />
			<output>
				<port id="0" precision="I64">
					<dim>4</dim>
				</port>
			</output>
		</layer>
		<layer id="432" name="Minimum" type="Transpose" version="opset1">
			<input>
				<port id="0" precision="FP32">
					<dim>1</dim>
					<dim>3</dim>
					<dim>512</dim>
					<dim>680</dim>
				</port>
				<port id="1" precision="I64">
					<dim>4</dim>
				</port>
			</input>
			<output>
				<port id="2" precision="FP32" names="Minimum,Minimum:0">
					<dim>1</dim>
					<dim>512</dim>
					<dim>680</dim>
					<dim>3</dim>
				</port>
			</output>
		</layer>
		<layer id="433" name="Minimum:0" type="Result" version="opset1">
			<rt_info>
				<attribute name="old_api_map_order" version="0" value="0, 3, 1, 2" />
			</rt_info>
			<input>
				<port id="0" precision="FP32">
					<dim>1</dim>
					<dim>512</dim>
					<dim>680</dim>
					<dim>3</dim>
				</port>
			</input>
		</layer>
	</layers>
	<edges>
		<edge from-layer="0" from-port="0" to-layer="13" to-port="0" />
		<edge from-layer="1" from-port="0" to-layer="3" to-port="0" />
		<edge from-layer="2" from-port="0" to-layer="3" to-port="1" />
		<edge from-layer="3" from-port="2" to-layer="6" to-port="0" />
		<edge from-layer="4" from-port="0" to-layer="5" to-port="0" />
		<edge from-layer="5" from-port="1" to-layer="6" to-port="1" />
		<edge from-layer="6" from-port="2" to-layer="9" to-port="0" />
		<edge from-layer="7" from-port="0" to-layer="8" to-port="0" />
		<edge from-layer="8" from-port="1" to-layer="9" to-port="1" />
		<edge from-layer="9" from-port="2" to-layer="15" to-port="0" />
		<edge from-layer="10" from-port="0" to-layer="11" to-port="0" />
		<edge from-layer="11" from-port="1" to-layer="14" to-port="0" />
		<edge from-layer="12" from-port="0" to-layer="13" to-port="1" />
		<edge from-layer="13" from-port="2" to-layer="14" to-port="1" />
		<edge from-layer="13" from-port="2" to-layer="421" to-port="1" />
		<edge from-layer="13" from-port="2" to-layer="418" to-port="1" />
		<edge from-layer="13" from-port="2" to-layer="32" to-port="1" />
		<edge from-layer="14" from-port="2" to-layer="15" to-port="1" />
		<edge from-layer="15" from-port="2" to-layer="18" to-port="0" />
		<edge from-layer="15" from-port="2" to-layer="33" to-port="0" />
		<edge from-layer="15" from-port="2" to-layer="422" to-port="0" />
		<edge from-layer="16" from-port="0" to-layer="17" to-port="0" />
		<edge from-layer="17" from-port="1" to-layer="23" to-port="0" />
		<edge from-layer="18" from-port="1" to-layer="21" to-port="0" />
		<edge from-layer="19" from-port="0" to-layer="21" to-port="1" />
		<edge from-layer="20" from-port="0" to-layer="21" to-port="2" />
		<edge from-layer="21" from-port="3" to-layer="22" to-port="0" />
		<edge from-layer="22" from-port="1" to-layer="23" to-port="1" />
		<edge from-layer="23" from-port="2" to-layer="27" to-port="0" />
		<edge from-layer="24" from-port="0" to-layer="27" to-port="1" />
		<edge from-layer="25" from-port="0" to-layer="27" to-port="2" />
		<edge from-layer="26" from-port="0" to-layer="27" to-port="3" />
		<edge from-layer="27" from-port="4" to-layer="29" to-port="0" />
		<edge from-layer="27" from-port="4" to-layer="31" to-port="0" />
		<edge from-layer="28" from-port="0" to-layer="29" to-port="1" />
		<edge from-layer="29" from-port="2" to-layer="33" to-port="1" />
		<edge from-layer="30" from-port="0" to-layer="31" to-port="1" />
		<edge from-layer="31" from-port="2" to-layer="32" to-port="0" />
		<edge from-layer="32" from-port="2" to-layer="33" to-port="2" />
		<edge from-layer="33" from-port="3" to-layer="36" to-port="0" />
		<edge from-layer="33" from-port="3" to-layer="120" to-port="0" />
		<edge from-layer="33" from-port="3" to-layer="277" to-port="0" />
		<edge from-layer="34" from-port="0" to-layer="35" to-port="0" />
		<edge from-layer="35" from-port="1" to-layer="36" to-port="1" />
		<edge from-layer="36" from-port="2" to-layer="39" to-port="0" />
		<edge from-layer="37" from-port="0" to-layer="38" to-port="0" />
		<edge from-layer="38" from-port="1" to-layer="39" to-port="1" />
		<edge from-layer="39" from-port="2" to-layer="40" to-port="0" />
		<edge from-layer="40" from-port="1" to-layer="43" to-port="0" />
		<edge from-layer="41" from-port="0" to-layer="42" to-port="0" />
		<edge from-layer="42" from-port="1" to-layer="43" to-port="1" />
		<edge from-layer="43" from-port="2" to-layer="46" to-port="0" />
		<edge from-layer="44" from-port="0" to-layer="45" to-port="0" />
		<edge from-layer="45" from-port="1" to-layer="46" to-port="1" />
		<edge from-layer="46" from-port="2" to-layer="47" to-port="0" />
		<edge from-layer="47" from-port="1" to-layer="50" to-port="0" />
		<edge from-layer="48" from-port="0" to-layer="49" to-port="0" />
		<edge from-layer="49" from-port="1" to-layer="50" to-port="1" />
		<edge from-layer="50" from-port="2" to-layer="53" to-port="0" />
		<edge from-layer="51" from-port="0" to-layer="52" to-port="0" />
		<edge from-layer="52" from-port="1" to-layer="53" to-port="1" />
		<edge from-layer="53" from-port="2" to-layer="54" to-port="0" />
		<edge from-layer="54" from-port="1" to-layer="57" to-port="0" />
		<edge from-layer="55" from-port="0" to-layer="56" to-port="0" />
		<edge from-layer="56" from-port="1" to-layer="57" to-port="1" />
		<edge from-layer="57" from-port="2" to-layer="60" to-port="0" />
		<edge from-layer="58" from-port="0" to-layer="59" to-port="0" />
		<edge from-layer="59" from-port="1" to-layer="60" to-port="1" />
		<edge from-layer="60" from-port="2" to-layer="61" to-port="0" />
		<edge from-layer="61" from-port="1" to-layer="64" to-port="0" />
		<edge from-layer="62" from-port="0" to-layer="63" to-port="0" />
		<edge from-layer="63" from-port="1" to-layer="64" to-port="1" />
		<edge from-layer="64" from-port="2" to-layer="67" to-port="0" />
		<edge from-layer="65" from-port="0" to-layer="66" to-port="0" />
		<edge from-layer="66" from-port="1" to-layer="67" to-port="1" />
		<edge from-layer="67" from-port="2" to-layer="68" to-port="0" />
		<edge from-layer="68" from-port="1" to-layer="71" to-port="0" />
		<edge from-layer="69" from-port="0" to-layer="70" to-port="0" />
		<edge from-layer="70" from-port="1" to-layer="71" to-port="1" />
		<edge from-layer="71" from-port="2" to-layer="74" to-port="0" />
		<edge from-layer="72" from-port="0" to-layer="73" to-port="0" />
		<edge from-layer="73" from-port="1" to-layer="74" to-port="1" />
		<edge from-layer="74" from-port="2" to-layer="75" to-port="0" />
		<edge from-layer="75" from-port="1" to-layer="78" to-port="0" />
		<edge from-layer="76" from-port="0" to-layer="77" to-port="0" />
		<edge from-layer="77" from-port="1" to-layer="78" to-port="1" />
		<edge from-layer="78" from-port="2" to-layer="81" to-port="0" />
		<edge from-layer="79" from-port="0" to-layer="80" to-port="0" />
		<edge from-layer="80" from-port="1" to-layer="81" to-port="1" />
		<edge from-layer="81" from-port="2" to-layer="82" to-port="0" />
		<edge from-layer="82" from-port="1" to-layer="85" to-port="0" />
		<edge from-layer="83" from-port="0" to-layer="84" to-port="0" />
		<edge from-layer="84" from-port="1" to-layer="85" to-port="1" />
		<edge from-layer="85" from-port="2" to-layer="88" to-port="0" />
		<edge from-layer="86" from-port="0" to-layer="87" to-port="0" />
		<edge from-layer="87" from-port="1" to-layer="88" to-port="1" />
		<edge from-layer="88" from-port="2" to-layer="89" to-port="0" />
		<edge from-layer="89" from-port="1" to-layer="92" to-port="0" />
		<edge from-layer="90" from-port="0" to-layer="91" to-port="0" />
		<edge from-layer="91" from-port="1" to-layer="92" to-port="1" />
		<edge from-layer="92" from-port="2" to-layer="95" to-port="0" />
		<edge from-layer="93" from-port="0" to-layer="94" to-port="0" />
		<edge from-layer="94" from-port="1" to-layer="95" to-port="1" />
		<edge from-layer="95" from-port="2" to-layer="96" to-port="0" />
		<edge from-layer="96" from-port="1" to-layer="99" to-port="0" />
		<edge from-layer="97" from-port="0" to-layer="98" to-port="0" />
		<edge from-layer="98" from-port="1" to-layer="99" to-port="1" />
		<edge from-layer="99" from-port="2" to-layer="102" to-port="0" />
		<edge from-layer="100" from-port="0" to-layer="101" to-port="0" />
		<edge from-layer="101" from-port="1" to-layer="102" to-port="1" />
		<edge from-layer="102" from-port="2" to-layer="103" to-port="0" />
		<edge from-layer="103" from-port="1" to-layer="106" to-port="0" />
		<edge from-layer="104" from-port="0" to-layer="105" to-port="0" />
		<edge from-layer="105" from-port="1" to-layer="106" to-port="1" />
		<edge from-layer="106" from-port="2" to-layer="109" to-port="0" />
		<edge from-layer="107" from-port="0" to-layer="108" to-port="0" />
		<edge from-layer="108" from-port="1" to-layer="109" to-port="1" />
		<edge from-layer="109" from-port="2" to-layer="110" to-port="0" />
		<edge from-layer="110" from-port="1" to-layer="113" to-port="0" />
		<edge from-layer="111" from-port="0" to-layer="112" to-port="0" />
		<edge from-layer="112" from-port="1" to-layer="113" to-port="1" />
		<edge from-layer="113" from-port="2" to-layer="116" to-port="0" />
		<edge from-layer="114" from-port="0" to-layer="115" to-port="0" />
		<edge from-layer="115" from-port="1" to-layer="116" to-port="1" />
		<edge from-layer="116" from-port="2" to-layer="117" to-port="0" />
		<edge from-layer="117" from-port="1" to-layer="274" to-port="0" />
		<edge from-layer="117" from-port="1" to-layer="263" to-port="0" />
		<edge from-layer="118" from-port="0" to-layer="119" to-port="0" />
		<edge from-layer="119" from-port="1" to-layer="120" to-port="1" />
		<edge from-layer="120" from-port="2" to-layer="123" to-port="0" />
		<edge from-layer="121" from-port="0" to-layer="122" to-port="0" />
		<edge from-layer="122" from-port="1" to-layer="123" to-port="1" />
		<edge from-layer="123" from-port="2" to-layer="124" to-port="0" />
		<edge from-layer="124" from-port="1" to-layer="127" to-port="0" />
		<edge from-layer="125" from-port="0" to-layer="126" to-port="0" />
		<edge from-layer="126" from-port="1" to-layer="127" to-port="1" />
		<edge from-layer="127" from-port="2" to-layer="130" to-port="0" />
		<edge from-layer="128" from-port="0" to-layer="129" to-port="0" />
		<edge from-layer="129" from-port="1" to-layer="130" to-port="1" />
		<edge from-layer="130" from-port="2" to-layer="131" to-port="0" />
		<edge from-layer="131" from-port="1" to-layer="134" to-port="0" />
		<edge from-layer="132" from-port="0" to-layer="133" to-port="0" />
		<edge from-layer="133" from-port="1" to-layer="134" to-port="1" />
		<edge from-layer="134" from-port="2" to-layer="137" to-port="0" />
		<edge from-layer="135" from-port="0" to-layer="136" to-port="0" />
		<edge from-layer="136" from-port="1" to-layer="137" to-port="1" />
		<edge from-layer="137" from-port="2" to-layer="138" to-port="0" />
		<edge from-layer="138" from-port="1" to-layer="141" to-port="0" />
		<edge from-layer="139" from-port="0" to-layer="140" to-port="0" />
		<edge from-layer="140" from-port="1" to-layer="141" to-port="1" />
		<edge from-layer="141" from-port="2" to-layer="144" to-port="0" />
		<edge from-layer="142" from-port="0" to-layer="143" to-port="0" />
		<edge from-layer="143" from-port="1" to-layer="144" to-port="1" />
		<edge from-layer="144" from-port="2" to-layer="145" to-port="0" />
		<edge from-layer="145" from-port="1" to-layer="148" to-port="0" />
		<edge from-layer="146" from-port="0" to-layer="147" to-port="0" />
		<edge from-layer="147" from-port="1" to-layer="148" to-port="1" />
		<edge from-layer="148" from-port="2" to-layer="151" to-port="0" />
		<edge from-layer="149" from-port="0" to-layer="150" to-port="0" />
		<edge from-layer="150" from-port="1" to-layer="151" to-port="1" />
		<edge from-layer="151" from-port="2" to-layer="152" to-port="0" />
		<edge from-layer="152" from-port="1" to-layer="155" to-port="0" />
		<edge from-layer="153" from-port="0" to-layer="154" to-port="0" />
		<edge from-layer="154" from-port="1" to-layer="155" to-port="1" />
		<edge from-layer="155" from-port="2" to-layer="158" to-port="0" />
		<edge from-layer="156" from-port="0" to-layer="157" to-port="0" />
		<edge from-layer="157" from-port="1" to-layer="158" to-port="1" />
		<edge from-layer="158" from-port="2" to-layer="159" to-port="0" />
		<edge from-layer="159" from-port="1" to-layer="162" to-port="0" />
		<edge from-layer="160" from-port="0" to-layer="161" to-port="0" />
		<edge from-layer="161" from-port="1" to-layer="162" to-port="1" />
		<edge from-layer="162" from-port="2" to-layer="165" to-port="0" />
		<edge from-layer="163" from-port="0" to-layer="164" to-port="0" />
		<edge from-layer="164" from-port="1" to-layer="165" to-port="1" />
		<edge from-layer="165" from-port="2" to-layer="166" to-port="0" />
		<edge from-layer="166" from-port="1" to-layer="169" to-port="0" />
		<edge from-layer="167" from-port="0" to-layer="168" to-port="0" />
		<edge from-layer="168" from-port="1" to-layer="169" to-port="1" />
		<edge from-layer="169" from-port="2" to-layer="172" to-port="0" />
		<edge from-layer="170" from-port="0" to-layer="171" to-port="0" />
		<edge from-layer="171" from-port="1" to-layer="172" to-port="1" />
		<edge from-layer="172" from-port="2" to-layer="173" to-port="0" />
		<edge from-layer="173" from-port="1" to-layer="176" to-port="0" />
		<edge from-layer="174" from-port="0" to-layer="175" to-port="0" />
		<edge from-layer="175" from-port="1" to-layer="176" to-port="1" />
		<edge from-layer="176" from-port="2" to-layer="179" to-port="0" />
		<edge from-layer="177" from-port="0" to-layer="178" to-port="0" />
		<edge from-layer="178" from-port="1" to-layer="179" to-port="1" />
		<edge from-layer="179" from-port="2" to-layer="180" to-port="0" />
		<edge from-layer="180" from-port="1" to-layer="183" to-port="0" />
		<edge from-layer="181" from-port="0" to-layer="182" to-port="0" />
		<edge from-layer="182" from-port="1" to-layer="183" to-port="1" />
		<edge from-layer="183" from-port="2" to-layer="186" to-port="0" />
		<edge from-layer="184" from-port="0" to-layer="185" to-port="0" />
		<edge from-layer="185" from-port="1" to-layer="186" to-port="1" />
		<edge from-layer="186" from-port="2" to-layer="187" to-port="0" />
		<edge from-layer="187" from-port="1" to-layer="190" to-port="0" />
		<edge from-layer="188" from-port="0" to-layer="189" to-port="0" />
		<edge from-layer="189" from-port="1" to-layer="190" to-port="1" />
		<edge from-layer="190" from-port="2" to-layer="193" to-port="0" />
		<edge from-layer="191" from-port="0" to-layer="192" to-port="0" />
		<edge from-layer="192" from-port="1" to-layer="193" to-port="1" />
		<edge from-layer="193" from-port="2" to-layer="194" to-port="0" />
		<edge from-layer="194" from-port="1" to-layer="197" to-port="0" />
		<edge from-layer="195" from-port="0" to-layer="196" to-port="0" />
		<edge from-layer="196" from-port="1" to-layer="197" to-port="1" />
		<edge from-layer="197" from-port="2" to-layer="200" to-port="0" />
		<edge from-layer="198" from-port="0" to-layer="199" to-port="0" />
		<edge from-layer="199" from-port="1" to-layer="200" to-port="1" />
		<edge from-layer="200" from-port="2" to-layer="201" to-port="0" />
		<edge from-layer="201" from-port="1" to-layer="204" to-port="0" />
		<edge from-layer="201" from-port="1" to-layer="215" to-port="0" />
		<edge from-layer="202" from-port="0" to-layer="215" to-port="1" />
		<edge from-layer="203" from-port="0" to-layer="213" to-port="0" />
		<edge from-layer="204" from-port="1" to-layer="207" to-port="0" />
		<edge from-layer="205" from-port="0" to-layer="207" to-port="1" />
		<edge from-layer="206" from-port="0" to-layer="207" to-port="2" />
		<edge from-layer="207" from-port="3" to-layer="211" to-port="0" />
		<edge from-layer="208" from-port="0" to-layer="211" to-port="1" />
		<edge from-layer="209" from-port="0" to-layer="211" to-port="2" />
		<edge from-layer="210" from-port="0" to-layer="211" to-port="3" />
		<edge from-layer="211" from-port="4" to-layer="212" to-port="0" />
		<edge from-layer="212" from-port="1" to-layer="213" to-port="1" />
		<edge from-layer="213" from-port="2" to-layer="215" to-port="2" />
		<edge from-layer="214" from-port="0" to-layer="215" to-port="3" />
		<edge from-layer="215" from-port="4" to-layer="218" to-port="0" />
		<edge from-layer="216" from-port="0" to-layer="217" to-port="0" />
		<edge from-layer="217" from-port="1" to-layer="218" to-port="1" />
		<edge from-layer="218" from-port="2" to-layer="221" to-port="0" />
		<edge from-layer="219" from-port="0" to-layer="220" to-port="0" />
		<edge from-layer="220" from-port="1" to-layer="221" to-port="1" />
		<edge from-layer="221" from-port="2" to-layer="222" to-port="0" />
		<edge from-layer="222" from-port="1" to-layer="225" to-port="0" />
		<edge from-layer="223" from-port="0" to-layer="224" to-port="0" />
		<edge from-layer="224" from-port="1" to-layer="225" to-port="1" />
		<edge from-layer="225" from-port="2" to-layer="228" to-port="0" />
		<edge from-layer="226" from-port="0" to-layer="227" to-port="0" />
		<edge from-layer="227" from-port="1" to-layer="228" to-port="1" />
		<edge from-layer="228" from-port="2" to-layer="229" to-port="0" />
		<edge from-layer="229" from-port="1" to-layer="232" to-port="0" />
		<edge from-layer="229" from-port="1" to-layer="243" to-port="0" />
		<edge from-layer="230" from-port="0" to-layer="243" to-port="1" />
		<edge from-layer="231" from-port="0" to-layer="241" to-port="0" />
		<edge from-layer="232" from-port="1" to-layer="235" to-port="0" />
		<edge from-layer="233" from-port="0" to-layer="235" to-port="1" />
		<edge from-layer="234" from-port="0" to-layer="235" to-port="2" />
		<edge from-layer="235" from-port="3" to-layer="239" to-port="0" />
		<edge from-layer="236" from-port="0" to-layer="239" to-port="1" />
		<edge from-layer="237" from-port="0" to-layer="239" to-port="2" />
		<edge from-layer="238" from-port="0" to-layer="239" to-port="3" />
		<edge from-layer="239" from-port="4" to-layer="240" to-port="0" />
		<edge from-layer="240" from-port="1" to-layer="241" to-port="1" />
		<edge from-layer="241" from-port="2" to-layer="243" to-port="2" />
		<edge from-layer="242" from-port="0" to-layer="243" to-port="3" />
		<edge from-layer="243" from-port="4" to-layer="246" to-port="0" />
		<edge from-layer="244" from-port="0" to-layer="245" to-port="0" />
		<edge from-layer="245" from-port="1" to-layer="246" to-port="1" />
		<edge from-layer="246" from-port="2" to-layer="249" to-port="0" />
		<edge from-layer="247" from-port="0" to-layer="248" to-port="0" />
		<edge from-layer="248" from-port="1" to-layer="249" to-port="1" />
		<edge from-layer="249" from-port="2" to-layer="250" to-port="0" />
		<edge from-layer="250" from-port="1" to-layer="253" to-port="0" />
		<edge from-layer="251" from-port="0" to-layer="252" to-port="0" />
		<edge from-layer="252" from-port="1" to-layer="253" to-port="1" />
		<edge from-layer="253" from-port="2" to-layer="256" to-port="0" />
		<edge from-layer="254" from-port="0" to-layer="255" to-port="0" />
		<edge from-layer="255" from-port="1" to-layer="256" to-port="1" />
		<edge from-layer="256" from-port="2" to-layer="257" to-port="0" />
		<edge from-layer="257" from-port="1" to-layer="258" to-port="0" />
		<edge from-layer="257" from-port="1" to-layer="403" to-port="2" />
		<edge from-layer="258" from-port="1" to-layer="261" to-port="0" />
		<edge from-layer="258" from-port="1" to-layer="389" to-port="0" />
		<edge from-layer="259" from-port="0" to-layer="261" to-port="1" />
		<edge from-layer="260" from-port="0" to-layer="261" to-port="2" />
		<edge from-layer="261" from-port="3" to-layer="274" to-port="1" />
		<edge from-layer="262" from-port="0" to-layer="272" to-port="0" />
		<edge from-layer="263" from-port="1" to-layer="266" to-port="0" />
		<edge from-layer="264" from-port="0" to-layer="266" to-port="1" />
		<edge from-layer="265" from-port="0" to-layer="266" to-port="2" />
		<edge from-layer="266" from-port="3" to-layer="270" to-port="0" />
		<edge from-layer="267" from-port="0" to-layer="270" to-port="1" />
		<edge from-layer="268" from-port="0" to-layer="270" to-port="2" />
		<edge from-layer="269" from-port="0" to-layer="270" to-port="3" />
		<edge from-layer="270" from-port="4" to-layer="271" to-port="0" />
		<edge from-layer="271" from-port="1" to-layer="272" to-port="1" />
		<edge from-layer="272" from-port="2" to-layer="274" to-port="2" />
		<edge from-layer="273" from-port="0" to-layer="274" to-port="3" />
		<edge from-layer="274" from-port="4" to-layer="403" to-port="0" />
		<edge from-layer="275" from-port="0" to-layer="276" to-port="0" />
		<edge from-layer="276" from-port="1" to-layer="277" to-port="1" />
		<edge from-layer="277" from-port="2" to-layer="280" to-port="0" />
		<edge from-layer="278" from-port="0" to-layer="279" to-port="0" />
		<edge from-layer="279" from-port="1" to-layer="280" to-port="1" />
		<edge from-layer="280" from-port="2" to-layer="281" to-port="0" />
		<edge from-layer="281" from-port="1" to-layer="284" to-port="0" />
		<edge from-layer="282" from-port="0" to-layer="283" to-port="0" />
		<edge from-layer="283" from-port="1" to-layer="284" to-port="1" />
		<edge from-layer="284" from-port="2" to-layer="287" to-port="0" />
		<edge from-layer="285" from-port="0" to-layer="286" to-port="0" />
		<edge from-layer="286" from-port="1" to-layer="287" to-port="1" />
		<edge from-layer="287" from-port="2" to-layer="288" to-port="0" />
		<edge from-layer="288" from-port="1" to-layer="291" to-port="0" />
		<edge from-layer="289" from-port="0" to-layer="290" to-port="0" />
		<edge from-layer="290" from-port="1" to-layer="291" to-port="1" />
		<edge from-layer="291" from-port="2" to-layer="294" to-port="0" />
		<edge from-layer="292" from-port="0" to-layer="293" to-port="0" />
		<edge from-layer="293" from-port="1" to-layer="294" to-port="1" />
		<edge from-layer="294" from-port="2" to-layer="295" to-port="0" />
		<edge from-layer="295" from-port="1" to-layer="298" to-port="0" />
		<edge from-layer="296" from-port="0" to-layer="297" to-port="0" />
		<edge from-layer="297" from-port="1" to-layer="298" to-port="1" />
		<edge from-layer="298" from-port="2" to-layer="301" to-port="0" />
		<edge from-layer="299" from-port="0" to-layer="300" to-port="0" />
		<edge from-layer="300" from-port="1" to-layer="301" to-port="1" />
		<edge from-layer="301" from-port="2" to-layer="302" to-port="0" />
		<edge from-layer="302" from-port="1" to-layer="305" to-port="0" />
		<edge from-layer="303" from-port="0" to-layer="304" to-port="0" />
		<edge from-layer="304" from-port="1" to-layer="305" to-port="1" />
		<edge from-layer="305" from-port="2" to-layer="308" to-port="0" />
		<edge from-layer="306" from-port="0" to-layer="307" to-port="0" />
		<edge from-layer="307" from-port="1" to-layer="308" to-port="1" />
		<edge from-layer="308" from-port="2" to-layer="309" to-port="0" />
		<edge from-layer="309" from-port="1" to-layer="312" to-port="0" />
		<edge from-layer="310" from-port="0" to-layer="311" to-port="0" />
		<edge from-layer="311" from-port="1" to-layer="312" to-port="1" />
		<edge from-layer="312" from-port="2" to-layer="315" to-port="0" />
		<edge from-layer="313" from-port="0" to-layer="314" to-port="0" />
		<edge from-layer="314" from-port="1" to-layer="315" to-port="1" />
		<edge from-layer="315" from-port="2" to-layer="316" to-port="0" />
		<edge from-layer="316" from-port="1" to-layer="319" to-port="0" />
		<edge from-layer="317" from-port="0" to-layer="318" to-port="0" />
		<edge from-layer="318" from-port="1" to-layer="319" to-port="1" />
		<edge from-layer="319" from-port="2" to-layer="322" to-port="0" />
		<edge from-layer="320" from-port="0" to-layer="321" to-port="0" />
		<edge from-layer="321" from-port="1" to-layer="322" to-port="1" />
		<edge from-layer="322" from-port="2" to-layer="323" to-port="0" />
		<edge from-layer="323" from-port="1" to-layer="326" to-port="0" />
		<edge from-layer="324" from-port="0" to-layer="325" to-port="0" />
		<edge from-layer="325" from-port="1" to-layer="326" to-port="1" />
		<edge from-layer="326" from-port="2" to-layer="329" to-port="0" />
		<edge from-layer="327" from-port="0" to-layer="328" to-port="0" />
		<edge from-layer="328" from-port="1" to-layer="329" to-port="1" />
		<edge from-layer="329" from-port="2" to-layer="330" to-port="0" />
		<edge from-layer="330" from-port="1" to-layer="333" to-port="0" />
		<edge from-layer="331" from-port="0" to-layer="332" to-port="0" />
		<edge from-layer="332" from-port="1" to-layer="333" to-port="1" />
		<edge from-layer="333" from-port="2" to-layer="336" to-port="0" />
		<edge from-layer="334" from-port="0" to-layer="335" to-port="0" />
		<edge from-layer="335" from-port="1" to-layer="336" to-port="1" />
		<edge from-layer="336" from-port="2" to-layer="337" to-port="0" />
		<edge from-layer="337" from-port="1" to-layer="340" to-port="0" />
		<edge from-layer="338" from-port="0" to-layer="339" to-port="0" />
		<edge from-layer="339" from-port="1" to-layer="340" to-port="1" />
		<edge from-layer="340" from-port="2" to-layer="343" to-port="0" />
		<edge from-layer="341" from-port="0" to-layer="342" to-port="0" />
		<edge from-layer="342" from-port="1" to-layer="343" to-port="1" />
		<edge from-layer="343" from-port="2" to-layer="344" to-port="0" />
		<edge from-layer="344" from-port="1" to-layer="347" to-port="0" />
		<edge from-layer="345" from-port="0" to-layer="346" to-port="0" />
		<edge from-layer="346" from-port="1" to-layer="347" to-port="1" />
		<edge from-layer="347" from-port="2" to-layer="350" to-port="0" />
		<edge from-layer="348" from-port="0" to-layer="349" to-port="0" />
		<edge from-layer="349" from-port="1" to-layer="350" to-port="1" />
		<edge from-layer="350" from-port="2" to-layer="351" to-port="0" />
		<edge from-layer="351" from-port="1" to-layer="354" to-port="0" />
		<edge from-layer="352" from-port="0" to-layer="353" to-port="0" />
		<edge from-layer="353" from-port="1" to-layer="354" to-port="1" />
		<edge from-layer="354" from-port="2" to-layer="357" to-port="0" />
		<edge from-layer="355" from-port="0" to-layer="356" to-port="0" />
		<edge from-layer="356" from-port="1" to-layer="357" to-port="1" />
		<edge from-layer="357" from-port="2" to-layer="358" to-port="0" />
		<edge from-layer="358" from-port="1" to-layer="361" to-port="0" />
		<edge from-layer="358" from-port="1" to-layer="372" to-port="0" />
		<edge from-layer="359" from-port="0" to-layer="372" to-port="1" />
		<edge from-layer="360" from-port="0" to-layer="370" to-port="0" />
		<edge from-layer="361" from-port="1" to-layer="364" to-port="0" />
		<edge from-layer="362" from-port="0" to-layer="364" to-port="1" />
		<edge from-layer="363" from-port="0" to-layer="364" to-port="2" />
		<edge from-layer="364" from-port="3" to-layer="368" to-port="0" />
		<edge from-layer="365" from-port="0" to-layer="368" to-port="1" />
		<edge from-layer="366" from-port="0" to-layer="368" to-port="2" />
		<edge from-layer="367" from-port="0" to-layer="368" to-port="3" />
		<edge from-layer="368" from-port="4" to-layer="369" to-port="0" />
		<edge from-layer="369" from-port="1" to-layer="370" to-port="1" />
		<edge from-layer="370" from-port="2" to-layer="372" to-port="2" />
		<edge from-layer="371" from-port="0" to-layer="372" to-port="3" />
		<edge from-layer="372" from-port="4" to-layer="375" to-port="0" />
		<edge from-layer="373" from-port="0" to-layer="374" to-port="0" />
		<edge from-layer="374" from-port="1" to-layer="375" to-port="1" />
		<edge from-layer="375" from-port="2" to-layer="378" to-port="0" />
		<edge from-layer="376" from-port="0" to-layer="377" to-port="0" />
		<edge from-layer="377" from-port="1" to-layer="378" to-port="1" />
		<edge from-layer="378" from-port="2" to-layer="379" to-port="0" />
		<edge from-layer="379" from-port="1" to-layer="382" to-port="0" />
		<edge from-layer="380" from-port="0" to-layer="381" to-port="0" />
		<edge from-layer="381" from-port="1" to-layer="382" to-port="1" />
		<edge from-layer="382" from-port="2" to-layer="385" to-port="0" />
		<edge from-layer="383" from-port="0" to-layer="384" to-port="0" />
		<edge from-layer="384" from-port="1" to-layer="385" to-port="1" />
		<edge from-layer="385" from-port="2" to-layer="386" to-port="0" />
		<edge from-layer="386" from-port="1" to-layer="402" to-port="0" />
		<edge from-layer="386" from-port="1" to-layer="391" to-port="0" />
		<edge from-layer="387" from-port="0" to-layer="389" to-port="1" />
		<edge from-layer="388" from-port="0" to-layer="389" to-port="2" />
		<edge from-layer="389" from-port="3" to-layer="402" to-port="1" />
		<edge from-layer="390" from-port="0" to-layer="400" to-port="0" />
		<edge from-layer="391" from-port="1" to-layer="394" to-port="0" />
		<edge from-layer="392" from-port="0" to-layer="394" to-port="1" />
		<edge from-layer="393" from-port="0" to-layer="394" to-port="2" />
		<edge from-layer="394" from-port="3" to-layer="398" to-port="0" />
		<edge from-layer="395" from-port="0" to-layer="398" to-port="1" />
		<edge from-layer="396" from-port="0" to-layer="398" to-port="2" />
		<edge from-layer="397" from-port="0" to-layer="398" to-port="3" />
		<edge from-layer="398" from-port="4" to-layer="399" to-port="0" />
		<edge from-layer="399" from-port="1" to-layer="400" to-port="1" />
		<edge from-layer="400" from-port="2" to-layer="402" to-port="2" />
		<edge from-layer="401" from-port="0" to-layer="402" to-port="3" />
		<edge from-layer="402" from-port="4" to-layer="403" to-port="1" />
		<edge from-layer="403" from-port="3" to-layer="406" to-port="0" />
		<edge from-layer="404" from-port="0" to-layer="405" to-port="0" />
		<edge from-layer="405" from-port="1" to-layer="406" to-port="1" />
		<edge from-layer="406" from-port="2" to-layer="409" to-port="0" />
		<edge from-layer="407" from-port="0" to-layer="408" to-port="0" />
		<edge from-layer="408" from-port="1" to-layer="409" to-port="1" />
		<edge from-layer="409" from-port="2" to-layer="410" to-port="0" />
		<edge from-layer="410" from-port="1" to-layer="413" to-port="0" />
		<edge from-layer="411" from-port="0" to-layer="412" to-port="0" />
		<edge from-layer="412" from-port="1" to-layer="413" to-port="1" />
		<edge from-layer="413" from-port="2" to-layer="416" to-port="0" />
		<edge from-layer="414" from-port="0" to-layer="415" to-port="0" />
		<edge from-layer="415" from-port="1" to-layer="416" to-port="1" />
		<edge from-layer="416" from-port="2" to-layer="417" to-port="0" />
		<edge from-layer="417" from-port="1" to-layer="418" to-port="0" />
		<edge from-layer="418" from-port="2" to-layer="423" to-port="0" />
		<edge from-layer="419" from-port="0" to-layer="420" to-port="0" />
		<edge from-layer="420" from-port="1" to-layer="421" to-port="0" />
		<edge from-layer="421" from-port="2" to-layer="422" to-port="1" />
		<edge from-layer="422" from-port="2" to-layer="423" to-port="1" />
		<edge from-layer="423" from-port="2" to-layer="426" to-port="0" />
		<edge from-layer="424" from-port="0" to-layer="425" to-port="0" />
		<edge from-layer="425" from-port="1" to-layer="426" to-port="1" />
		<edge from-layer="426" from-port="2" to-layer="429" to-port="0" />
		<edge from-layer="427" from-port="0" to-layer="428" to-port="0" />
		<edge from-layer="428" from-port="1" to-layer="429" to-port="1" />
		<edge from-layer="429" from-port="2" to-layer="430" to-port="0" />
		<edge from-layer="430" from-port="1" to-layer="432" to-port="0" />
		<edge from-layer="431" from-port="0" to-layer="432" to-port="1" />
		<edge from-layer="432" from-port="2" to-layer="433" to-port="0" />
	</edges>
	<rt_info>
		<MO_version value="2022.3.0-9052-9752fafe8eb-releases/2022/3" />
		<Runtime_version value="2022.3.0-9052-9752fafe8eb-releases/2022/3" />
		<conversion_parameters>
			<data_type value="FP16" />
			<framework value="tf" />
			<input value="Placeholder,Placeholder_1" />
			<input_model value="DIR\frozen_model.pb" />
			<input_shape value="[1, 512, 680, 3],[1, 512, 680, 1]" />
			<layout value="Placeholder(NHWC),Placeholder_1(NHWC)" />
			<model_name value="gmcnn-places2-tf" />
			<output value="Minimum" />
			<output_dir value="DIR" />
		</conversion_parameters>
		<legacy_frontend value="True" />
	</rt_info>
</net>
